models/simple_push/policy_model1.pkl (torch_old, 49836 bytes, 6 tensors)

weight f4 [128, 19]
0.05690364 -0.60586447 0.12356167 -0.36312777 -0.24378736 0.020620985 -0.31600183 0.17086378
-0.17401192 -0.21273378 -0.2719967 -0.24729407 0.23457141 0.01539196 -0.23446494 0.19004369
0.09463429 0.056410227 0.13787074 -0.2745302 0.14130779 1.2445648 0.2641028 0.052009482
0.1808852 -0.22067596 0.1410801 0.21082874 -0.031252854 -0.04522874 0.3682998 -0.010247932
-0.068848535 0.05344091 0.21898644 0.26943135 0.048486605 -0.2163733 -0.2866227 0.37408754
-0.081268765 0.4801722 -0.29707822 0.07143959 -0.18709315 0.40533346 -0.133796 -0.47059062
0.050907627 -0.36313337 0.09072595 -0.23925872 -0.21112035 -0.27802658 -0.31141976 0.077570654
-0.03603919 0.045983236 0.056978747 1.3187245 -0.302968 -0.031993516 0.087943725 0.13056694
-0.05632462 0.02515361 0.13105276 0.013003386 -0.23410979 -0.18718104 0.15021837 0.06263005
-0.05688391 0.02136767 0.3108523 0.17122197 0.017881423 0.25332537 0.085329644 -0.19819741
-0.097576946 -0.08709465 -0.10001983 -0.13870804 -0.120453395 0.123138845 0.09383975 0.271517
-0.032016825 0.09945303 0.28057888 -0.18847838 0.22270966 0.36249527 0.05830395 -0.11252858
0.010978642 -1.2279805 0.45134896 -0.1523275 0.19290097 -0.38310325 -0.40881473 -0.07534781
0.081526265 0.08019029 -0.124939404 -0.011528544 0.09465041 -0.020893902 -0.043002784 -0.026135
-0.014010305 0.073698185 0.01492943 -0.1727214 -0.2647072 0.06922438 -0.062011242 -0.21190606
0.3872117 0.16385081 -0.13211302 -0.031125637 0.23633005 -0.3399688 -0.23487154 -0.16246787
0.053887967 0.20720354 -0.036199745 -0.012295946 -0.00039335937 0.38175133 0.099536054 -0.98257995
-0.5347162 0.07766369 -0.32013348 -0.27530506 0.097741686 -0.16167174 -0.04820234 -0.044023298
-0.0059817336 -0.10300867 0.15321843 0.22822432 -0.2777018 0.25406852 0.105051786 -0.16945004
-0.25584272 0.018717803 -0.9186305 0.26326048 -0.2480179 0.1926275 0.10288575 -0.32969925
0.3002565 -0.0028851621 -0.27735665 0.17988603 0.05750309 -0.19063444 -0.32922196 0.20252533
0.00043295912 -0.008613734 -0.09808333 0.2784118 0.032391112 -0.51875234 0.5312385 -0.22733812
0.2086553 -0.19980428 -0.14995588 -0.06746562 -0.124837175 0.2193792 -0.031233342 0.23816139
0.104013585 -0.30264485 -0.01938307 0.23475471 0.23283868 0.011649734 0.25556922 0.2977478
-0.109429166 0.056739513 -0.12517385 0.15429984 0.15445976 0.1570481 -0.35647994 0.4743591
-0.32223314 -0.044670936 -0.24068032 0.12929797 -0.052890707 -0.0641684 0.05106745 -0.104133025
-0.01720272 -0.10082643 -0.043854173 -0.33097365 -0.21869248 -0.2607616 -0.10620059 -0.21913755
0.50734997 -0.42844364 0.13489039 -0.44698974 -0.11524992 -0.2081937 0.14025816 -0.00903444
0.2844722 0.120640226 -0.14079852 -0.22346964 -0.34452802 0.11169407 0.66948617 0.4918154
-0.074581146 0.12446617 0.25604808 0.2937199 0.55741197 0.0104804775 -0.14600796 -0.19468136
-0.034191664 -0.18282045 0.31067488 0.21440397 -0.22044283 0.13480236 -0.12377027 0.04591004
0.117111 0.7751298 -1.4045109 0.22513473 0.051503118 0.21807125 -0.057370763 -0.12200775
00000000: cb13 693d ef19 1bbf e70d fd3d e2eb b9be
00000010: 65a3 79be 57ed a83c feca a1be eaf6 2e3e
00000020: 2e30 32be e2d6 59be 2743 8bbe a83a 7dbe
00000030: 7d33 703e 8f2e 7c3c 9417 70be d09a 423e
00000040: 9fcf c13d 690e 673d fd2d 0d3e 398f 8cbe
00000050: fdb2 103e e64d 9f3f 7b38 873e e507 553d
00000060: f839 393e e1f8 61be 4d77 103e 7de3 573e
00000070: fe02 00bd c541 39bd cb91 bc3e f1e6 27bc
00000080: 7600 8dbd dbe4 5a3d fb3d 603e e8f2 893e
00000090: e499 463d f690 5dbe 36c0 92be 6788 bf3e
000000a0: 3d70 a6bd 21d9 f53e a31a 98be eb4e 923d
000000b0: 5995 3fbe de87 cf3e d201 09be 41f1 f0be
000000c0: 8484 503d 9eec b9be 87ce b93d 3d00 75be
000000d0: ef2f 58be 8059 8ebe 6972 9fbe 5ddd 9e3d
000000e0: d49d 13bd eb58 3c3d 8c62 693d f7cb a83f
000000f0: 9f1e 9bbe a20b 03bd d71b b43d 57b3 053e
00000100: a5b4 66bd f20e ce3c b232 063e 270c 553c
00000110: 7aba 6fbe 63ac 3fbe d8d2 193e 2f44 803d
00000120: 1aff 68bd 400b af3c 0828 9f3e d054 2f3e
00000130: 107c 923c ddb3 813e 4fc1 ae3d 43f4 4abe
00000140: 6cd6 c7bd ae5e b2bd 32d7 ccbd 7b09 0ebe
00000150: 45b0 f6bd 3830 fc3d 0e2f c03d 4704 8b3e
00000160: 1324 03bd 08ae cb3d 09a8 8f3e 7a00 41be
00000170: 000e 643e fb98 b93e 1fd0 6e3d 6275 e6bd
00000180: c3df 333c 772e 9dbf 3617 e73e bdfb 1bbe
00000190: d587 453e 1c26 c4be 2a50 d1be f44f 9abd
000001a0: 3ef7 a63d cf3a a43d 3be0 ffbd 38e2 3cbc
000001b0: 13d8 c13d b029 abbc b023 30bd 1119 d6bc
000001c0: 7a8b 65bc 13ef 963d 919a 743c e1dd 30be
000001d0: b487 87be 83c5 8d3d 80ff 7dbd e7fd 58be
000001e0: 9d40 c63e 82c8 273e a348 07be 31fb febc
000001f0: 8100 723e 6410 aebe 2a82 70be fa5d 26be
00000200: a1b9 5c3d 2a2d 543e 2f46 14bd ef74 49bc
00000210: cd3b ceb9 e974 c33e 8fd9 cb3d 5c8a 7bbf
00000220: 29e3 08bf 240e 9f3d 89e8 a3be c9f4 8cbe
00000230: cb2c c83d 478d 25be d16f 45bd c651 34bd
00000240: 6b02 c4bb 36f6 d2bd 4be5 1c3e a3b3 693e
00000250: ee2e 8ebe 4515 823e 6425 d73d 5084 2dbe
00000260: d1fd 82be 1456 993c 5e2b 6bbf 14ca 863e
00000270: 68f8 7dbe 2540 453e c4b5 d23d 57ce a8be
00000280: 38bb 993e fd14 3dbb b101 8ebe 0b34 383e
00000290: 5c88 6b3d ad35 43be c88f a8be cd62 4f3e
000002a0: cafe e239 9e20 0dbc eadf c8bd fe8b 8e3e
000002b0: 8bac 043d f4cc 04bf 3fff 073f 53cb 68be
000002c0: bca9 553e 7e99 4cbe 098e 19be 6a2b 8abd
000002d0: a2aa ffbd f1a4 603e 11dd ffbc 94e0 733e
000002e0: 1305 d53d 44f4 9abe 3ec9 9ebc 8a63 703e
000002f0: 436d 6e3e 87de 3e3c f8d9 823e 6672 983e
00000300: 661c e0bd b167 683d 932d 00be c700 1e3e
00000310: b32a 1e3e 38d1 203e 8a84 b6be 32df f23e
00000320: befb a4be dff8 36bd e774 76be b066 043e
00000330: eda3 58bd b96a 83bd 1a2c 513d b243 d5bd
00000340: b8ec 8cbc 167e cebd 6fa0 33bd 6175 a9be
00000350: ecf0 5fbe 8b82 85be b27f d9bd 9865 60be
00000360: b0e1 013f f75c dbbe b520 0a3e d7db e4be
00000370: 2608 ecbd bb30 55be d69f 0f3e 3005 14bc
00000380: 57a6 913e 3912 f73d 7d2d 10be 3ad5 64be
00000390: fa65 b0be dcbf e43d 7263 2b3f 3acf fb3e
000003a0: 00be 98bd 1fe8 fe3d bc18 833e 7462 963e
000003b0: 8db2 0e3f 4fb6 2b3c 1c83 15be 8d5a 47be
000003c0: 8f0c 0cbd 4935 3bbe c710 9f3e b78c 5b3e
000003d0: c4bb 61be a109 0a3e 447b fdbd 2b0c 3c3d
000003e0: e4d7 ef3d e86e 463f 03c7 b3bf b889 663e
000003f0: eff4 523d 124e 5f3e 9bfd 6abd 33df f9bd

bias f4 [128]
0.043557953 -0.04260764 -0.08729647 0.2157422 0.05321875 0.058143012 0.12399551 0.19152492
0.114636965 0.090554304 -0.03642016 -0.108875 -0.15496817 0.08282855 0.030939218 -0.005708089
-0.075654596 -0.1653809 0.043213427 0.007762818 0.17138267 -0.18787237 -0.09597192 -0.014529593
-0.10788898 -0.08942262 -0.13370031 0.23371887 -0.0147975935 -0.01355495 0.2080054 -0.03962195
0.21282364 -0.14410233 -0.31768376 -0.047673628 -0.035134815 0.07145622 -0.28966844 -0.08407885
0.04348974 0.07343564 0.14752783 0.0668974 -0.2694884 0.057150226 0.10582925 -0.21997656
-0.018166056 0.019178255 -0.05167274 0.02471302 -0.0646466 -0.0043949126 0.19559479 0.14002307
0.048943654 0.062194742 -0.23288132 0.16300057 -0.23164916 0.10929275 -0.02675896 0.08745596
-0.099742025 -0.0586647 -0.15754195 -0.04680869 0.14237276 -0.1335297 0.06969598 -0.13165924
0.02018167 -0.107063964 0.09682514 0.122935794 -0.2751434 -0.01739441 -0.17470609 0.087249026
-0.08377245 -0.16287534 0.16052413 -0.0039413776 -0.11756446 -0.13375907 -0.12808672 0.1970981
0.13773319 0.06829128 -0.16215216 0.23789053 0.07635788 -0.071219645 -0.021110147 0.102298
-0.07833666 -0.1550515 -0.3357182 0.19361284 0.025203424 -0.0034175129 0.14910671 0.09605335
-0.057279054 -0.04222386 -0.03805006 -0.10725258 -0.067768484 0.082551986 -0.09593653 0.19051528
0.011692926 -0.049230386 -0.07337054 0.23762512 0.15517183 -0.021671409 -0.2368012 -0.26709834
-0.16105866 -0.1631516 0.046164192 -0.13420656 0.20266528 0.008788802 -0.06491178 -0.10717801
00000000: d369 323d 5985 2ebd 7ec8 b2bd 86eb 5c3e
00000010: e7fb 593d 5e27 6e3d 5cf1 fd3d 1c1f 443e
00000020: c9c6 ea3d 8974 b93d 4e2d 15bd dbf9 debd
00000030: faaf 1ebe 04a2 a93d 3e74 fd3c ec0a bbbb
00000040: ccf0 9abd 9c59 29be 9000 313d 3d5f fe3b
00000050: f07e 2f3e 9d61 40be ed8c c4bd 880d 6ebc
00000060: e6f4 dcbd 3523 b7bd bce8 08be 0054 6f3e
00000070: 9b71 72bc 9515 5ebc 5eff 543e a04a 22bd
00000080: 71ee 593e 908f 13be 72a7 a2be 6c45 43bd
00000090: 86e9 0fbd a357 923d 6c4f 94be 8831 acbd
000000a0: 4c22 323d 6d65 963d 8911 173e 8101 893d
000000b0: 62fa 89be 5b16 6a3d 01bd d83d 8941 61be
000000c0: fbd0 94bc b71b 9d3c cca6 53bd f672 ca3c
000000d0: 7065 84bd 3303 90bb 004a 483e 3562 0f3e
000000e0: 2479 483d eabf 7e3d 7178 6ebe 9fe9 263e
000000f0: 7035 6dbe e1d4 df3d 9b35 dbbc 1c1c b33d
00000100: 8c45 ccbd 654a 70bd ad52 21be 78ba 3fbd
00000110: 2aca 113e 02bc 08be c4bc 8e3d aed1 06be
00000120: 0854 a53c 5a44 dbbd 424c c63d c3c5 fb3d
00000130: 99df 8cbe b97e 8ebc 27e6 32be 9eaf b23d
00000140: e490 abbd cbc8 26be 7060 243e ac26 81bb
00000150: a3c5 f0bd 23f8 08be 2a29 03be 16d4 493e
00000160: ee09 0d3e 4cdc 8b3d 370b 26be 9399 733e
00000170: 8561 9c3d 9bdb 91bd 30ef acbc 9d81 d13d
00000180: f96e a0bd d2c5 1ebe 42e3 abbe 7242 463e
00000190: 6977 ce3c 5af8 5fbb 6eaf 183e 9eb7 c43d
000001a0: 719d 6abd edf2 2cbd 61da 1bbd 3ea7 dbbd
000001b0: 34ca 8abd 0411 a93d 5f7a c4bd 7016 433e
000001c0: b093 3f3c cda5 49bd 4b43 96bd 0054 733e
000001d0: 5de5 1e3e 3d88 b1bc 047c 72be 1dc1 88be
000001e0: 90ec 24be 3711 27be aa16 3d3d 726d 09be
000001f0: 7d87 4f3e e8fe 0f3c 78f0 84bd 2580 dbbd

weight f4 [64, 128]
-0.1744586 -0.27670184 -0.18730783 0.1542271 -0.2626511 0.2668617 0.37143114 -0.15653072
0.2609869 0.05157474 -0.06718159 -0.42424974 0.40146288 0.06549951 -0.1606803 0.1506222
0.082777016 -0.06654533 -0.22047217 0.040980335 -0.11156434 -0.3361394 0.071063384 -0.16221471
0.13829969 0.2409363 -0.24169162 0.3419445 0.15933244 0.20351869 -0.031202318 0.027366504
0.31102988 -0.43900654 -0.10902223 0.16969731 -0.18584216 -0.4107309 -0.24165559 -0.5297404
-0.2356252 -0.17308822 -0.10953988 -0.032623563 -0.17167857 -0.017001584 -0.16883448 -0.02606586
-0.22592139 -0.12515853 0.019484809 0.21251228 0.17839886 -0.39432493 -0.17037761 -0.3673798
0.36114064 0.24506836 -0.24223517 -0.036103796 -0.12845881 -0.3839372 -0.097938925 0.008793574
0.044155907 0.08238236 -0.3581171 -0.31508443 0.0422607 -0.8787688 0.21441427 -0.29759216
-0.2420386 -0.105820134 0.24209073 -0.33248544 0.10293907 0.39790204 -0.16293027 -0.16303915
0.17026384 -0.40250757 0.14648716 0.2816684 0.3483587 -0.69640154 -0.47656453 -0.29062748
-0.20502509 -0.50954276 0.11454513 -0.24105085 -0.3773156 -0.029509526 0.055729564 0.029629776
-0.27376157 -0.21646588 0.1370184 -0.44836858 -0.015534698 -0.0389281 -0.05395882 -0.28145233
0.24553275 0.05765545 -0.15541865 -0.1833783 -0.14742172 0.3153306 0.4959173 -0.3542279
-0.52819043 -0.08746828 0.13366297 -0.33078113 0.019462744 -0.025830626 -0.25792512 -0.2599196
-0.023559777 0.07346685 -0.032189354 0.25659874 -0.2703955 0.06171963 0.10449547 0.24822508
-0.022608789 0.06883896 0.334389 0.27613723 0.052116893 -0.06296486 -0.1360511 -0.5279357
-0.29578438 0.13511248 0.26743513 -0.22394781 -0.07149831 0.0050608576 -0.085845426 -0.24077062
-0.331174 0.08060299 -0.07145675 0.19938755 -0.1896503 -0.38864365 0.00060705 0.33868772
-0.014404428 0.070232764 -0.03535019 0.1031071 0.011493276 -0.10837719 0.05509136 0.34033245
0.03905506 0.09213595 0.09374832 -0.26935488 0.12927897 -0.17343822 -0.48657745 0.21988069
0.10204794 -0.09986548 0.21729131 -0.37946954 -0.11718122 0.010342819 0.1422705 -0.020088304
-0.11335921 0.12979016 -0.6892506 0.19005801 0.047310624 0.2382449 -0.043210648 -0.17465867
-0.1390249 -0.43644994 -0.18337162 0.22555025 0.095077895 0.27909163 -0.29622313 -0.050439276
-0.408478 0.08409738 -0.029213121 0.22397676 0.037684683 0.25112024 -0.55908805 0.32063612
0.34657657 -0.16712508 0.013815297 -0.036609065 -0.13008605 0.2956424 -0.117679 0.14432319
-0.50251245 0.043431323 0.18001217 -0.24246848 0.29346547 -0.14342782 -0.018751325 -0.17559731
-0.19170615 0.054759778 0.15570888 0.14304681 0.26873347 0.08208263 0.0152737945 -0.30293667
-0.28839478 -0.49628675 0.25710967 0.20280893 -0.13070135 -0.1329441 0.1137616 0.15953709
-0.24624145 -0.6530868 0.15275498 0.2298817 0.113422535 0.005939176 -0.09488697 0.1852071
0.035346992 0.12759109 0.02513643 -0.018579189 0.27680454 0.03587437 0.21008117 0.035609405
-0.3354701 0.01196864 -0.49364007 -0.34861904 0.13977052 -0.26737624 -0.066665106 -0.19523926
00000000: 46a5 32be ddab 8dbe a0cd 3fbe b5ed 1d3e
00000010: 347a 86be 19a2 883e 392c be3e 9749 20be
00000020: 13a0 853e 0940 533d 8096 89bd 4337 d9be
00000030: 8b8c cd3e 9b24 863d 6089 24be b53c 1a3e
00000040: ff86 a93d eb48 88bd 75c3 61be ffda 273d
00000050: d87b e4bd 771a acbe ae89 913d 9d1b 26be
00000060: 6f9e 0d3e 01b8 763e 027e 77be 5913 af3e
00000070: 0b28 233e 3467 503e 019c ffbc b82f e03c
00000080: 4f3f 9f3e 77c5 e0be 0c47 dfbd 22c5 2d3e
00000090: 684d 3ebe 524b d2be 9074 77be 119d 07bf
000000a0: bc47 71be 0a3e 31be 7256 e0bd 49a0 05bd
000000b0: 82cc 2fbe e846 8bbc f2e2 2cbe 1288 d5bc
000000c0: f057 67be 8f29 00be 9b9e 9f3c d29c 593e
000000d0: 31ae 363e f5e4 c9be 7877 2ebe 3519 bcbe
000000e0: 6de7 b83e 33f3 7a3e 7f0c 78be 93e1 13bd
000000f0: b58a 03be 6b93 c4be 3494 c8bd ec12 103c
00000100: d3dc 343d 15b8 a83d 205b b7be bf52 a1be
00000110: 8e19 2d3d fef6 60bf 6a8f 5b3e 005e 98be
00000120: f7d8 77be 3ab8 d8bd a2e6 773e 883b aabe
00000130: b8d1 d23d d1b9 cb3e 31d7 26be bcf3 26be
00000140: a559 2e3e 7915 cebe bb00 163e d736 903e
00000150: 125c b23e 5f47 32bf 4400 f4be 20cd 94be
00000160: 19f2 51be 6571 02bf a396 ea3d 09d6 76be
00000170: 832f c1be f6bd f1bc af44 643d 25ba f23c
00000180: 7a2a 8cbe 3ba9 5dbe 8d4e 0c3e 9190 e5be
00000190: 3f85 7ebc 1273 1fbd ec03 5dbd 851a 90be
000001a0: f06c 7b3e 1f28 6c3d 1126 1fbe 85c7 3bbe
000001b0: b8f5 16be 0373 a13e dfe8 fd3e 5c5d b5be
000001c0: 7d37 07bf 9222 b3bd f2de 083e 255c a9be
000001d0: 5570 9f3c c09a d3bc c30e 84be 2f14 85be
000001e0: 6f00 c1bc ca75 963d fcd8 03bd e960 833e
000001f0: 4771 8abe b9cd 7c3d b901 d63d b72e 7e3e
00000200: 1136 b9bc 71fb 8c3d 0935 ab3e dc61 8d3e
00000210: 8678 553d b8f3 80bd fb50 0bbe cb26 07bf
00000220: 0d71 97be ed5a 0a3e 42ed 883e 9352 65be
00000230: b56d 92bd 8dd5 a53b bacf afbd 938c 76be
00000240: a38f a9be 2e13 a53d eb57 92bd 402c 4c3e
00000250: b033 42be 4dfc c6be 7022 1f3a 7a68 ad3e
00000260: 8d00 6cbc 32d6 8f3d 5ccb 10bd d129 d33d
00000270: 4b4e 3c3c dcf4 ddbd 7aa7 613d 0e40 ae3e
00000280: 33f8 1f3d c6b1 bc3d 1fff bf3d e2e8 89be
00000290: b561 043e ca99 31be ae20 f9be 6728 613e
000002a0: 83fe d03d 4686 ccbd 9d81 5e3e d549 c2be
000002b0: b5fc efbd ed74 293c 5caf 113e 3a90 a4bc
000002c0: e028 e8bd b6e7 043e ba72 30bf 919e 423e
000002d0: c9c8 413d 79f6 733e a6fd 30bd b9d9 32be
000002e0: 8b5c 0ebe 5e76 dfbe c5c5 3bbe a5f6 663e
000002f0: 33b8 c23d 19e5 8e3e 8faa 97be 6a99 4ebd
00000300: 0724 d1be 3f3b ac3d 5b50 efbc 2a5a 653e
00000310: 415b 1a3d d592 803e 6520 0fbf 6b2a a43e
00000320: 7c72 b13e d622 2bbe 8e59 623c 63f3 15bd
00000330: 4735 05be 715e 973e b001 f1bd 75c9 133e
00000340: a8a4 00bf 0be5 313d 1c55 383e a849 78be
00000350: 1b41 963e bede 12be 619c 99bc c8cf 33be
00000360: 9e4e 44be ca4b 603d 2672 1f3e dd7a 123e
00000370: 6f97 893e f01a a83d f03e 7a3c 841a 9bbe
00000380: 7ba8 93be 4c19 febe e1a3 833e 25ad 4f3e
00000390: 93d6 05be 8022 08be d7fb e83d b15d 233e
000003a0: b826 7cbe b230 27bf cd6b 1c3e 1c66 6b3e
000003b0: 134a e83d 6b9d c23b 1a54 c2bd eea6 3d3e
000003c0: 02c8 103d 3da7 023e eaea cd3c 6233 98bc
000003d0: 53b9 8d3e 01f1 123d 851f 573e 2bdb 113d
000003e0: bdc2 abbe 1d18 443c 64be fcbe 327e b2be
000003f0: 0120 0f3e 8ae5 88be b787 88bd cdec 47be

bias f4 [64]
0.10742777 0.008495603 0.10695888 0.026856503 0.024185631 0.14736341 0.17314467 0.21341391
0.068415515 -0.04628394 -0.041663956 0.11074843 0.25178316 -0.21860017 0.12488589 0.017024854
0.13740738 0.21459018 -0.027583275 -0.065459654 0.12514183 0.016526341 -0.016497685 0.03283245
0.05069297 0.075649545 0.08741336 0.026030473 0.1001838 0.08889575 0.076117 0.22493935
0.16266842 -0.021597074 -0.016042357 -0.018186772 -0.0331474 -0.15681987 0.06994014 0.056778137
0.18894988 -0.19010325 -0.039476626 0.18578659 0.16428302 0.1721451 -0.04301975 0.09939982
0.030006396 0.108675666 0.19629617 0.2837206 -0.0793326 0.18432888 0.010062992 0.123416185
0.018409275 -0.07327856 0.12409489 -0.08740091 0.17127042 0.018923199 0.0357602 0.14808834
00000000: 1703 dc3d 2431 0b3c 420d db3d 2b02 dc3c
00000010: f220 c63c 6fe6 163e d64c 313e 2d89 5a3e
00000020: 6f1d 8c3d 3b94 3dbd d3a7 2abd 13d0 e23d
00000030: b9e9 803e b9d8 5fbe 2cc4 ff3d b577 8b3c
00000040: 85b4 0c3e 87bd 5b3e 52f6 e1bc b60f 86bd
00000050: 2e25 003e 4062 873c 2726 87bc 527b 063d
00000060: 6fa3 4f3d 26ee 9a3d c705 b33d dc3d d53c
00000070: 2a2d cd3d fa0e b63d 3be3 9b3d 8056 663e
00000080: 8d92 263e 59ec b0bc 436b 83bc 6dfc 94bc
00000090: 91c5 07bd 6395 20be c73c 8f3d 3190 683d
000000a0: 147c 413e 6daa 42be 3eb2 21bd d73e 3e3e
000000b0: cf39 283e ce46 303e 7a35 30bd 2292 cb3d
000000c0: f9cf f53c 5991 de3d dd01 493e d443 913e
000000d0: 2179 a2bd b6c0 3c3e 3fdf 243c a0c1 fc3d
000000e0: 0ccf 963c 1213 96bd 7625 fe3d 40ff b2bd
000000f0: 8361 2f3e d304 9b3c 4a79 123d 78a4 173e

weight f4 [5, 64]
-0.16785057 -0.34076494 -0.19587356 0.4637824 -0.027977277 0.64389306 0.4467985 0.13002504
-0.3727768 0.6004217 1.0021731 -0.120346546 -1.4018295 0.5483474 0.12529954 0.8987896
-0.8240198 0.48492163 -0.81850284 -0.1929311 0.1738714 0.08956538 0.051389944 0.286433
0.09675419 0.3597859 -0.48055506 0.32579607 -0.35870466 0.7039325 -1.0850911 0.23500086
0.07957365 -0.21071398 -0.11343783 0.17698567 -0.29429924 0.8501912 -0.755775 0.26092708
-0.5681318 0.7838725 0.6408979 -0.0026051048 -0.5281469 0.58327943 -0.7352163 0.4712738
0.5721413 -0.5933585 -0.7259125 0.3327587 -0.08249608 0.2338638 -0.5384789 -1.0432017
-0.66643244 -0.27832475 0.051379036 0.22673148 0.074263334 -0.49370825 -0.6572152 0.4632203
-0.31921482 0.4216475 0.58962125 0.049367692 0.006644792 0.2508976 -0.7690739 -0.36586082
0.79500455 0.20565829 -0.66736895 0.31640056 0.6233673 -0.15715982 -0.61045873 0.24604377
0.027345074 0.49104685 -0.22840726 -0.13335922 0.57613313 0.013500042 0.6140047 -0.1030478
0.48106024 -0.4330027 -0.40347898 -0.4372411 -0.108085096 0.03826625 0.06153062 -0.06739213
-0.18919303 0.1750742 -0.015798183 0.5277015 0.11795738 0.2905198 0.29011047 0.11842591
-0.75468403 0.58368534 0.1346848 -0.17423859 -0.78243196 -0.75879735 -0.29097304 -0.54027337
-0.5349936 0.45137757 1.0449591 -0.20252126 -0.28091624 0.33285418 -0.19945504 0.25955242
-0.5412424 -0.4757337 -0.5349741 -0.6162302 0.6118446 0.7486851 -0.118608594 0.04769029
0.48157805 0.21644317 -0.5444738 -0.124641106 0.1821665 -0.7252918 0.2905587 0.38613108
0.042309396 0.45796162 0.3001018 0.16137925 1.041073 0.6572494 0.4128441 -0.3536796
0.81558657 -0.59149826 -0.44877282 -0.17844222 -0.8156787 -0.11957566 -0.12598915 -0.33382222
-0.46006626 0.0072409455 0.11901751 -0.2895828 1.0637544 -0.6538458 -0.31055185 -0.09859333
-0.026558321 -0.7801269 -0.70471936 -0.01983559 0.8543814 0.2705302 -0.632378 0.112882264
-0.21797033 -0.34188044 -0.5287854 0.24897398 1.2865678 0.5172369 -0.50832826 0.19962828
-0.008159443 -0.18389064 0.30082375 0.6102001 0.42164922 -0.38445657 -0.49556428 0.11733828
0.24810463 0.09780636 0.5497353 0.06970892 -0.12133901 0.48458415 0.09725638 0.51702756
-0.55704916 -0.74210846 -0.34680244 0.31064445 -0.07815081 -0.7555125 -0.011970778 -0.3091382
-0.32076967 -0.30162692 0.25682828 0.30880556 -0.5847017 -0.79177403 0.596409 -0.5174368
-0.16815709 0.26266026 0.3263239 0.42850798 -0.4048895 0.11724009 -0.3014102 0.5359882
0.1297713 -0.3238781 0.40308863 0.55597305 0.19648838 0.031000027 0.96319664 0.30668423
-0.6915647 0.16936812 0.6092777 0.12554759 0.64313203 -0.06575524 0.5039741 0.21495007
0.5774762 -0.8246848 0.72111636 0.6006714 -0.16236618 0.122081 0.60446316 -0.4060375
0.4322516 0.46783146 -0.5511432 -0.84037375 -0.31018373 -0.74498 0.5263577 -0.01664377
0.66759795 0.24004538 -0.37629306 -0.48553455 -0.49756417 -0.07663053 0.16086474 -0.7031969
00000000: 05e1 2bbe be78 aebe 1493 48be e374 ed3e
00000010: 9a30 e5bc 2dd6 243f c6c2 e43e 4925 053e
00000020: 9adc bebe 3db5 193f 3547 803f 4078 f6bd
00000030: 266f b3bf 7f60 0c3f 864e 003e 1317 663f
00000040: f6f2 52bf a647 f83e 6789 51bf bb8f 45be
00000050: 580b 323e 0e6e b73d 437e 523d 59a7 923e
00000060: 1027 c63d dc35 b83e 500b f6be bece a63e
00000070: 23a8 b7be ec34 343f 44e4 8abf 11a4 703e
00000080: 83f7 a23d 68c5 57be 1852 e8bd bb3b 353e
00000090: 64ae 96be 21a6 593f 787a 41bf 3c98 853e
000000a0: 1671 11bf deab 483f e311 243f 68ba 2abb
000000b0: a334 07bf cd51 153f 2337 3cbf cd4a f13e
000000c0: da77 123f 58e6 17bf 67d5 39bf 595f aa3e
000000d0: b4f3 a8bd fe79 6f3e c1d9 09bf a287 85bf
000000e0: 519b 2abf 9580 8ebe d372 523d 4c2c 683e
000000f0: 6017 983d 54c7 fcbe 413f 28bf 362b ed3e
00000100: 2070 a3be 2ee2 d73e 6bf1 163f c735 4a3d
00000110: 8ebc d93b a675 803e 07e2 44bf 1c52 bbbe
00000120: 6b85 4b3f 1698 523e b1d8 2abf 41ff a13e
00000130: 0095 1f3f 81ee 20be 0647 1cbf e6f2 7b3e
00000140: c702 e03c 7e6a fb3e 98e3 69be 528f 08be
00000150: 767d 133f 482f 5d3c 692f 1d3f ba0a d3bd
00000160: 874d f63e 88b2 ddbe cc94 cebe 11de dfbe
00000170: b85b ddbd 12bd 1c3d 8807 7c3d e304 8abd
00000180: d1bb 41be a746 333e 316b 81bc 7217 073f
00000190: a493 f13d 03bf 943e 5c89 943e 4989 f23d
000001a0: f932 41bf 676c 153f d0ea 093e 9a6b 32be
000001b0: 764d 48bf 8b40 42bf 6bfa 94be 5b4f 0abf
000001c0: 57f5 08bf f61a e73e 38c1 853f bc61 4fbe
000001d0: 41d4 8fbe dd6b aa3e f13d 4cbe 0ee4 843e
000001e0: dd8e 0abf 5e93 f3be 10f4 08bf 43c1 1dbf
000001f0: d9a1 1c3f d4a9 3f3f 10e9 f2bd e556 433d
00000200: 6691 f63e 47a3 5d3e a362 0bbf d643 ffbd
00000210: db89 3a3e b9ac 39bf 1cc4 943e f9b2 c53e
00000220: 9e4c 2d3d f279 ea3e f1a6 993e 9a40 253e
00000230: e141 853f 7f41 283f 4d60 d33e 7e15 b5be
00000240: 48ca 503f 6e6c 17bf 8dc5 e5be 8fb9 36be
00000250: 52d0 50bf 15e4 f4bd 4d03 01be bfea aabe
00000260: ce8d ebbe 7445 ed3b 74bf f33d 3244 94be
00000270: 1b29 883f 7062 27bf a700 9fbe 4deb c9bd
00000280: d690 d9bc 66b6 47bf 7d68 34bf 3f7e a2bc
00000290: bdb8 5a3f ef82 8a3e 86e3 21bf d12e e73d
000002a0: 9d33 5fbe f40a afbe 7b5e 07bf 09f3 7e3e
000002b0: 41ae a43f a369 043f cd21 02bf 5b6b 4c3e
000002c0: 2faf 05bc d44d 3cbe 9205 9a3e 1336 1c3f
000002d0: 68e2 d73e 7ed7 c4be 9aba fdbe 0d4f f03d
000002e0: 240f 7e3e b34e c83d 74bb 0c3f 8dc3 8e3d
000002f0: 9680 f8bd 6a1b f83e 5a2e c73d eb5b 043f
00000300: c69a 0ebf d2fa 3dbf 1790 b1be ca0c 9f3e
00000310: 880d a0bd 4469 41bf 1521 44bc 5d47 9ebe
00000320: ec3b a4be d86e 9abe ff7e 833e c31b 9e3e
00000330: 03af 15bf b4b1 4abf 43ae 183f bd76 04bf
00000340: 5f31 2cbe 687b 863e ed13 a73e 6665 db3e
00000350: ad4d cfbe 931b f03d 7052 9abe 8636 093f
00000360: c5e2 043e 5ad3 a5be a261 ce3e 4054 0e3f
00000370: 4034 493e c5f3 fd3c 0e94 763f b705 9d3e
00000380: 620a 31bf d66e 2d3e a0f9 1b3f 8c8f 003e
00000390: 4da4 243f afaa 86bd 7204 013f df1b 5c3e
000003a0: 7bd5 133f 8b1e 53bf 159b 383f 9ac5 193f
000003b0: 5243 26be 9a05 fa3d 19be 1a3f 26e4 cfbe
000003c0: 1550 dd3e 9b87 ef3e b917 0dbf bc22 57bf
000003d0: 67d0 9ebe 02b7 3ebf 61bf 063f 8458 88bc
000003e0: b3e7 2a3f 75ce 753e 7ca9 c0be fc97 f8be
000003f0: bbc0 febe 78f0 9cbd bab9 243e b604 34bf

bias f4 [5]
0.024315758 0.10726704 -0.0433331 0.005591972 -0.010146391
00000000: d731 c73c d2ae db3d 0c7e 31bd dc3c b73b
00000010: 0c3d 26bc
