models/simple_push/value_model1.pkl (torch_old, 57807 bytes, 5 tensors)

weight f4 [128, 37]
0	0x3cd29266	0.025704574
1	0xbb89dfa7	-0.0042075696
2	0x3e45e7a6	0.19326648
3	0x3e816182	0.25269705
4	0xbe061744	-0.13094813
5	0xbd635bde	-0.055507533
6	0x3c12f3d3	0.008969265
7	0x3c71b1a8	0.014751829
8	0xbe8db32b	-0.27675757
9	0x3e1af13a	0.15131083
10	0x3f2c87bd	0.6739462
11	0xbe93f98a	-0.2890132
12	0xbe8db3a6	-0.27676123
13	0x3e4078e2	0.18796113
14	0xbe02aac8	-0.1276046
15	0x3ce88872	0.028385375
16	0xbdc35a97	-0.09538763
17	0xbd247d3d	-0.0401585
18	0xbcdada5d	-0.026715452
19	0x3e54e667	0.20791017
20	0xbe8c74e0	-0.2743292
21	0xbcbef20b	-0.023308774
22	0xbd89c70c	-0.06727418
23	0xbdf72fbd	-0.12069652
24	0x3cb1d4d3	0.021707928
25	0x3d865028	0.06558257
26	0x3dbb7d93	0.09154811
27	0xbe6bf2da	-0.2304186
28	0xbd9bfd7e	-0.07616709
29	0xbdc0c00c	-0.0941163
30	0xbe0ade58	-0.1356138
31	0xbdb535b4	-0.08848134
32	0xbe001f4d	-0.1251194
33	0xbe82ce55	-0.25548044
34	0x3d7937f0	0.06084436
35	0x3dd0493c	0.10170218
36	0xbd9aa2b7	-0.07550567
37	0x3e0f13f6	0.13972458
38	0x3c145f11	0.009055869
39	0xbdbd57a4	-0.09245232
40	0xbe6d2db0	-0.2316196
41	0xbd830aa4	-0.06398514
42	0x3d31af19	0.043379877
43	0x3d8fd895	0.070237316
44	0xbe55fb48	-0.20896637
45	0x3d0f4a3d	0.03498291
46	0xbe485e4e	-0.19567224
47	0x3e2afbfb	0.16697685
48	0x3e44451c	0.19166988
49	0x3db29e00	0.08721542
50	0xbe8d889f	-0.27643296
51	0x3e73e0a2	0.2381616
52	0xbc49a0a7	-0.012306369
53	0xbe8039b3	-0.2504402
54	0x3de03ed1	0.10949481
55	0xbe790e59	-0.2432188
56	0x3e5eb166	0.2174736
57	0xbe90612c	-0.28199136
58	0xbdc2aa3e	-0.09505127
59	0xbd93c1da	-0.072147086
60	0x3e2adec8	0.16686547
61	0x3beec89f	0.0072870995
62	0x3e280c27	0.16410886
63	0xbe50a120	-0.20373964
64	0x3d355214	0.04426773
65	0x3e0c3801	0.13693239
66	0xbd108391	-0.03528172
67	0x3cdbebba	0.026845802
68	0x3e25daa7	0.1619669
69	0xbd2025db	-0.0390986
70	0xbd869249	-0.065708704
71	0xbdcc50bc	-0.09976336
72	0xbe2ad842	-0.16684058
73	0xbd6edc9e	-0.058315866
74	0x3d2e34da	0.042530872
75	0xbd7327d8	-0.05936417
76	0xbcce8e89	-0.02521445
77	0x3d9cdf3b	0.07659765
78	0xbcc224d7	-0.023699207
79	0xbe108ca3	-0.14116149
80	0xbe4b794d	-0.19870491
81	0x3d0849fc	0.033273682
82	0x3d1c047e	0.03809022
83	0xbd8a0e7a	-0.067410424
84	0xbed35904	-0.4127885
85	0x3d6e4bc6	0.058177732
86	0xbe61164b	-0.2198116
87	0x3e60bdc4	0.2194739
88	0xbd10f0fd	-0.035386074
89	0x3e0b1e05	0.1358567
90	0x3e986b7c	0.29769504
91	0x3ebdcd39	0.37070635
92	0xbe211190	-0.15729356
93	0xbcf31aff	-0.029675959
94	0xbd38d314	-0.045123175
95	0xbd4b2734	-0.049597934
96	0x3d2d0c00	0.042247772
97	0xbe1a69e9	-0.15079464
98	0xbc1415ff	-0.009038447
99	0x3dfec566	0.124399945
100	0x3c2c1fa0	0.010505587
101	0xbdf8756b	-0.12131771
102	0xbccbf141	-0.024895312
103	0xbd8aded2	-0.06780781
104	0xbd993d31	-0.074823745
105	0xbd359438	-0.044330806
106	0x3d4b7613	0.04967315
107	0x3d6092ae	0.054827385
108	0x3c630704	0.013856653
109	0x3d49dcc5	0.049282808
110	0x3d7c0d16	0.061535917
111	0x3e8b9b76	0.27267045
112	0xbdea906b	-0.11453327
113	0xba54ae7c	-0.00081131584
114	0x3da895bf	0.08231687
115	0xbdb3dd28	-0.087824166
116	0xbde92e7b	-0.113858186
117	0xbe40cb23	-0.1882749
118	0xbdfe1ed2	-0.12408222
119	0x3e987c3b	0.2978228
120	0xbe13fa52	-0.14450958
121	0xbe797321	-0.24360324
122	0x3e2181c4	0.15772158
123	0xbd364b7e	-0.04450559
124	0x3e59a37e	0.21253774
125	0x3e6e45a3	0.23268752
126	0x3dcc7a6c	0.099842876
127	0xbcb850ad	-0.022499407
128	0xbe64c525	-0.2234083
129	0x3e9e1313	0.30873927
130	0xbdad70d0	-0.08468783
131	0xbcfc78ff	-0.030819414
132	0xbe83ec45	-0.25766197
133	0x3de4088e	0.11134444
134	0x3e800716	0.25005406
135	0x3e0a9724	0.13534218
136	0xbe8335ab	-0.25626883
137	0xbded3e8a	-0.11584194
138	0xbd9c4604	-0.07630542
139	0x3df24807	0.118301444
140	0xbe419447	-0.1890422
141	0xbd84bb2e	-0.06481014
142	0x3cfae75c	0.030627899
143	0xbe54208d	-0.20715542
144	0x3dd0b35a	0.101904586
145	0xbe7489fb	-0.2388076
146	0xbe0a7933	-0.13522796
147	0x3c6e8e45	0.014560287
148	0x3c86bf98	0.01644878
149	0xbd1e5604	-0.03865625
150	0x3d711c00	0.058864594
151	0x3e39996e	0.18124935
152	0xbd67a2c7	-0.05655172
153	0x3d963425	0.073341645
154	0xbd863660	-0.0655334
155	0x3cec3a07	0.028836263
156	0x3e399ccd	0.18126221
157	0xbd411cd9	-0.047146652
158	0x3f434833	0.7628204
159	0xbee90182	-0.45508963
160	0x3c87ad79	0.01656221
161	0xbe897a5c	-0.26851165
162	0x3eb6cb2f	0.35701892
163	0xbeaa5ed9	-0.33275488
164	0x3e6ec68d	0.23317929
165	0xbe2a4ad9	-0.16630115
166	0xbd10649d	-0.035252202
167	0xbd68cd0e	-0.05683618
168	0x3e05b04b	0.13055532
169	0x3e14cf22	0.1453214
170	0x3ba13843	0.004920037
171	0x3cd3320e	0.025780704
172	0x3d4ff6b1	0.050772373
173	0xbe099a8f	-0.13437866
174	0x3ea044e5	0.31302562
175	0x3d363849	0.04448727
176	0x3e25db25	0.16196878
177	0x3dd73e36	0.10509913
178	0x3e1c50c3	0.15265183
179	0x3e240b15	0.16019852
180	0x3d9d933f	0.076941006
181	0x3e736e17	0.23772465
182	0x3dca5119	0.098787494
183	0x3e3cb883	0.1842976
184	0x3e51f265	0.20502622
185	0x3dbcc586	0.09217362
186	0x3c80c06c	0.015716754
187	0xbde5f12d	-0.11227641
188	0x3e23b034	0.15985185
189	0x3e4e8341	0.20167257
190	0xbe91db79	-0.28487757
191	0xbccea7b2	-0.025226448
192	0x3e6b00a4	0.22949463
193	0x3de8598b	0.11345204
194	0x3e233895	0.15939553
195	0xbe8b6d4f	-0.27231833
196	0xbec2c9da	-0.38044626
197	0xbd13e014	-0.03610237
198	0x3dbc7bbe	0.092032894
199	0xbd835fd4	-0.06414762
200	0xbd733780	-0.0593791
201	0xbd487b1d	-0.048945535
202	0xbe7b1464	-0.24519497
203	0x3e1ae7b3	0.15127449
204	0xbe7bac0a	-0.24577346
205	0x3d9e6e77	0.07735913
206	0x3d4cf81e	0.05004131
207	0x3e267d30	0.16258693
208	0xbc23f161	-0.01000628
209	0xbe823495	-0.25430742
210	0x3e237993	0.15964346
211	0x3d6c1b9d	0.05764352
212	0xbe0a25ba	-0.13490954
213	0xbd58bb47	-0.052912977
214	0xbea61cac	-0.3244375
215	0xbddfa26f	-0.109196536
216	0xbd9fb9a1	-0.07799078
217	0xbe1ddde4	-0.15416676
218	0xbdd95201	-0.10611344
219	0xbde88fb4	-0.11355534
220	0xbe3e7776	-0.18600258
221	0xbe21d78e	-0.15804884
222	0x3c8a0698	0.016848847
223	0xbc8f3ec8	-0.017485991
224	0xbd022307	-0.031771686
225	0xbe58ac39	-0.21159448
226	0xbd31f7d4	-0.043449238
227	0x3e15270b	0.14565675
228	0xbdf3d8fd	-0.119066216
229	0x3de7cdd6	0.11318557
230	0xbecf66e5	-0.4050819
231	0x3ded65e1	0.115916975
232	0x3e9c0a67	0.30476686
233	0x3e03814a	0.12842289
234	0x3c4affae	0.01239006
235	0xbea2b065	-0.31775203
236	0x3ddcb051	0.10775817
237	0x3e4bbaad	0.1989543
238	0x3df42afa	0.1192226
239	0xbead25c6	-0.3381788
240	0x3e53a524	0.20668465
241	0xbe2aa6c7	-0.16665183
242	0x3db9490a	0.09047134
243	0xbe36d4b9	-0.17854585
244	0x3dfedcb0	0.124444366
245	0x3dc17810	0.09446728
246	0xbe9b19db	-0.30293164
247	0x3e4fc0f1	0.20288445
248	0xbe3dc91c	-0.18533748
249	0xbd129549	-0.0357869
250	0x3d9033bc	0.070411175
251	0x3d603e11	0.05474669
252	0xbae7f19c	-0.0017695907
253	0xbcd333b0	-0.025781482
254	0x3bac2a3d	0.0052540586
255	0xbe310f98	-0.17291105

bias f4 [128]
0	0xbdefe176	-0.11712925
1	0x3d5ab717	0.053397264
2	0x3ddc66a3	0.10761764
3	0x3ce3f7ae	0.027828064
4	0x3d998303	0.074956916
5	0xbe49c474	-0.19703847
6	0xbe6897a3	-0.22714095
7	0xbe0500c3	-0.12988572
8	0xbd3defb5	-0.04637118
9	0xbd9b4afa	-0.0758266
10	0xbe3c980c	-0.18417376
11	0xbdc4bbdf	-0.09606146
12	0xbdb4daf4	-0.088308245
13	0xbe79fd1d	-0.24412961
14	0xbe26f6e6	-0.16305122
15	0x3dae05a9	0.08497173
16	0xbe29a690	-0.16567445
17	0xbde90366	-0.11377601
18	0x3da21544	0.07914212
19	0x3d3eb4da	0.046559192
20	0xbe61223c	-0.21985716
21	0x3d98d990	0.07463372
22	0x3d6b2bfb	0.05741499
23	0x3dbcac25	0.092125215
24	0xbd32f1bc	-0.043687567
25	0x3d9fff5a	0.07812376
26	0xbe81e19c	-0.2536744
27	0x3d7cb238	0.0616934
28	0x3e1eea0b	0.15518968
29	0x3e29f78d	0.1659834
30	0xbe4eb612	-0.20186642
31	0x3e1d077a	0.15334883
32	0x3e0ad455	0.1355756
33	0xbdf8feea	-0.12157996
34	0xbda1b82b	-0.078964554
35	0xbc2fbe7a	-0.0107265655
36	0xbd17fc0c	-0.037105605
37	0x3a9aa128	0.0011797296
38	0xbda407cb	-0.08009299
39	0xbe0ec85d	-0.1394362
40	0xbd58c13f	-0.05291867
41	0xbd02aa40	-0.031900644
42	0xbe5dc21f	-0.21656083
43	0xbdbf3808	-0.09336859
44	0x3c024404	0.0079507865
45	0x3c8cc2e2	0.017182771
46	0x3d889b27	0.06670218
47	0xbd353fc5	-0.04425027
48	0x3c89a152	0.016800556
49	0x3d0373d8	0.0320929
50	0xbe205e92	-0.15661076
51	0xbdd72431	-0.1050495
52	0xbe05fa74	-0.13083822
53	0x3e2ba9f3	0.16764049
54	0xbde0c338	-0.10974735
55	0x3c103962	0.008802744
56	0x3d1db628	0.038503796
57	0x3dba4ccc	0.09096679
58	0xbe062433	-0.13099746
59	0xbdfb6b24	-0.12276295
60	0x3d6dc0f6	0.05804535
61	0x3d4f1871	0.05056042
62	0x3b5e7472	0.0033943919
63	0xbdd931ea	-0.106052235
64	0xbe2103b3	-0.15724067
65	0xbbba0f20	-0.0056780726
66	0x3e1df483	0.15425305
67	0xbddf6401	-0.10907746
68	0x3d007e8b	0.03137068
69	0xbe08cdb2	-0.13359717
70	0x3de3289d	0.11091731
71	0x3dcdcba0	0.10048604
72	0xbd9b20e3	-0.07574632
73	0xbcd3548c	-0.025797151
74	0x3cb6ece5	0.022329757
75	0xbd31a136	-0.043366633
76	0x3d9bca77	0.076069765
77	0xbd4ea4df	-0.050450202
78	0xbe3862b3	-0.18006401
79	0xbcb98237	-0.0226451
80	0xbe932a49	-0.287432
81	0xbdd9129c	-0.105992526
82	0x3e6cbb50	0.23118329
83	0x3cd94d83	0.026526218
84	0xbd8569e6	-0.06514339
85	0xbe1e1a01	-0.15439607
86	0x3debec34	0.115196615
87	0xbe4d110b	-0.20026033
88	0xbe13eb25	-0.1444517
89	0x3d8095fd	0.06278608
90	0xbd990aad	-0.07472739
91	0x3cf8739b	0.030328562
92	0xbe3dbe75	-0.18529685
93	0xbd5dcd95	-0.054151136
94	0xbd8a4ea5	-0.067532815
95	0xbdcc88c6	-0.09987025
96	0x3dc208d5	0.09474341
97	0xbe64e1d4	-0.22351772
98	0xbb9ede76	-0.0048482968
99	0xbdffa657	-0.12482899
100	0x3bc95064	0.0061436165
101	0x3cfa8e61	0.03058547
102	0xbc02938a	-0.007969746
103	0xbdf99591	-0.12186731
104	0x3d525b6b	0.051356714
105	0xbd3821d1	-0.044954125
106	0xbca84698	-0.020541474
107	0xbe4109d6	-0.18851408
108	0xbe5bff58	-0.21484125
109	0x3e50c4e1	0.20387603
110	0xbe4ecbcd	-0.20194931
111	0x3c914c4a	0.017736573
112	0x3d99b717	0.07505625
113	0xbd7c57e6	-0.061607264
114	0x3cabca38	0.020970449
115	0xbdc6f6e2	-0.09715058
116	0xbe6acd64	-0.22929913
117	0xbd3d30c8	-0.0461891
118	0xbdc862cc	-0.09784469
119	0x3e01d45e	0.12678668
120	0x3da18f20	0.07888627
121	0x3e187429	0.14888062
122	0x3d501bab	0.050807636
123	0xbdee5ae1	-0.116384275
124	0xbd5167ec	-0.0511245
125	0xbe31f3ed	-0.17378207
126	0xbdf2ba3b	-0.11851927
127	0xbabc7af9	-0.001437991

weight f4 [64, 128]
0	0x3d76a4b2	0.06021566
1	0x3e4e5251	0.20148589
2	0xbe364da3	-0.17803054
3	0xbe88b831	-0.26703027
4	0xbe1e9535	-0.15486605
5	0xbe3b494e	-0.18289682
6	0x3e529474	0.20564443
7	0xbd404f73	-0.04695077
8	0xbd9e4605	-0.07728199
9	0xbe339572	-0.17537478
10	0x3e117996	0.14206538
11	0xbdf6b96f	-0.120470874
12	0x3e8215b4	0.25407183
13	0xbd92b620	-0.07163644
14	0x3e3b38c5	0.18283375
15	0xbec9fa5b	-0.3944882
16	0x3e971aaf	0.29512545
17	0x3e085081	0.1331196
18	0xbd2e5346	-0.042559884
19	0x3d203240	0.039110422
20	0xbe7fd6f1	-0.24984337
21	0x3dbc3620	0.09190011
22	0xbe31e4da	-0.17372456
23	0x3e12a3ba	0.14320269
24	0x3c504766	0.012712335
25	0x3dde575b	0.108565055
26	0x3e7fa836	0.24966511
27	0xbe275c46	-0.16343793
28	0xbe23b7ce	-0.15988085
29	0x3de7ae26	0.11312513
30	0xbe5789e8	-0.21048701
31	0x3c8bcb32	0.017064665
32	0x3dfe1128	0.12405616
33	0x3defcfc7	0.11709552
34	0x3e464087	0.19360553
35	0xbe613398	-0.21992338
36	0xbd8fc501	-0.070199974
37	0x3d08d36a	0.033404745
38	0x3e35219a	0.17688599
39	0xbb75112f	-0.0037394275
40	0x3d1a3017	0.03764352
41	0xbd5674e3	-0.052357566
42	0xbc881296	-0.016610425
43	0x3e5a593a	0.213231
44	0xbddeb442	-0.10874225
45	0x3d3242b8	0.04352066
46	0xbd84fb72	-0.06493272
47	0xbe951d74	-0.29124033
48	0xbddc0510	-0.10743153
49	0x3e64eb35	0.2235535
50	0x3e6ccc3d	0.23124786
51	0xbe0d7c4f	-0.13816951
52	0xbe3a0bbb	-0.18168537
53	0xbdfe4741	-0.12415934
54	0xbe07fc2d	-0.13279791
55	0xbc61545e	-0.013753025
56	0xbe28344f	-0.16426204
57	0x3e37f5a2	0.17964795
58	0xbd47b055	-0.048752148
59	0xbdac314f	-0.08407842
60	0x3e28b079	0.16473569
61	0x3e7e2fde	0.24822947
62	0x3d81db89	0.06340701
63	0x3c16623f	0.009178697
64	0xbd8aa441	-0.0676961
65	0x3c8d1705	0.01722289
66	0xbe42ec6f	-0.19035505
67	0xbe44012c	-0.19141072
68	0xbd9d736c	-0.076880306
69	0x3e010dc7	0.12602912
70	0xbe917d6e	-0.28416008
71	0xbe481f62	-0.19543222
72	0x3de2ef7a	0.11080833
73	0x3d25b5e7	0.04045668
74	0x3d66505d	0.056228984
75	0xbc2fde6e	-0.010734184
76	0xbdb4c40b	-0.08826455
77	0xbe77560b	-0.24153917
78	0xbc1ff06e	-0.009761913
79	0xbe88222a	-0.26588565
80	0x3db6fcbb	0.08934923
81	0xbd09759c	-0.033559427
82	0x3e2f3f5c	0.17114013
83	0xbd84fc66	-0.06493454
84	0xbeccb971	-0.3998523
85	0xbe0c7994	-0.13718253
86	0xbe924182	-0.28565603
87	0xbe927f2c	-0.2861265
88	0xbe0c914e	-0.13727304
89	0x3df18da4	0.11794594
90	0x3d44c790	0.04804188
91	0xbe5ad1f6	-0.21369156
92	0xbe39c08f	-0.18139862
93	0xbe43ba38	-0.19114006
94	0x3e0abfab	0.13549678
95	0xbd222595	-0.039586622
96	0x3e7a9d0a	0.24473968
97	0x3e32ea03	0.17472081
98	0xbe47d708	-0.19515622
99	0xbcc5cadf	-0.024144588
100	0x3e117afd	0.14207073
101	0x3e81cfd0	0.2535386
102	0x3deafb33	0.11473694
103	0x3e9d1bc4	0.30685246
104	0xbda22c32	-0.07918586
105	0x3e00c0b8	0.12573516
106	0xbe16b5b0	-0.14717746
107	0xbe067ffd	-0.13134761
108	0xbe15bb7f	-0.14622305
109	0xbe9342c4	-0.28761876
110	0xbe011fc8	-0.1260978
111	0xbd8fc0d4	-0.07019201
112	0xbe6b8f97	-0.23003994
113	0xbd107762	-0.035270102
114	0x3e06c87a	0.13162413
115	0xbe38809c	-0.1801781
116	0x3e2c069e	0.167994
117	0xbca8d783	-0.020610576
118	0x3dae1416	0.08499925
119	0x3db7f352	0.089819565
120	0x3e2b22f4	0.16712552
121	0x3dab10f9	0.08352847
122	0xbd57b754	-0.05266507
123	0xbd74a6ae	-0.05972927
124	0xbe51cd8e	-0.20488569
125	0xbd271fa4	-0.04080166
126	0xbd0a9d12	-0.0338412
127	0xbd64a96b	-0.055825632
128	0x3e4c9186	0.19977388
129	0xbe870060	-0.26367474
130	0xbe635229	-0.2219931
131	0xbd95071a	-0.07276745
132	0xbdf42b49	-0.119223185
133	0xbe1db38f	-0.15400527
134	0x3d2615f1	0.04054827
135	0x3df2d807	0.1185761
136	0xbda5a6f4	-0.080884844
137	0xbe5c0368	-0.21485674
138	0x3dc13c36	0.094353124
139	0xbd0c69c2	-0.034280546
140	0xbe1b4254	-0.15162021
141	0x3e9a1efd	0.30101767
142	0x3d2e5264	0.042559043
143	0x3d8797dd	0.066207625
144	0xbe281b63	-0.16416697
145	0x3e115d45	0.14195736
146	0x3ed6a7c9	0.41924885
147	0x3e11cbc3	0.14237885
148	0x3df14006	0.117797896
149	0xbd7ad551	-0.06123859
150	0x3d149132	0.03627128
151	0xbd0c8842	-0.034309633
152	0xbe3811a1	-0.17975475
153	0xbe7fd95c	-0.2498526
154	0xbd4c3af9	-0.04986093
155	0x3e4ab1b2	0.19794348
156	0xbe3db7e7	-0.18527184
157	0x3b738145	0.0037155908
158	0x3dea99df	0.1145513
159	0xbdd886cd	-0.10572586
160	0xbd421490	-0.04738289
161	0x3d82356a	0.06357844
162	0xbdc67fa9	-0.09692318
163	0x3ded5372	0.115881816
164	0xbdcc24db	-0.09967967
165	0xbd1dfaf8	-0.03856942
166	0x3e653bd7	0.22386108
167	0x3b52cac1	0.0032164308
168	0x3e60a805	0.21939094
169	0xbdf0dc19	-0.1176073
170	0x3e878b58	0.26473498
171	0xbe297b54	-0.16550952
172	0x3d5bc0d8	0.053650707
173	0x3e1aba00	0.15110016
174	0xbd39a820	-0.045326352
175	0x3b1ac85e	0.0023617963
176	0xbe816e84	-0.2527963
177	0xbda7a003	-0.08184817
178	0x3e51e185	0.20496185
179	0x3e307394	0.1723159
180	0x3c974b0e	0.018468406
181	0x3e928606	0.28617877
182	0xbea4622b	-0.32106146
183	0xbea37cff	-0.31931302
184	0xbd870ae7	-0.06593876
185	0xbe5ebdf7	-0.21752153
186	0x3e6346ad	0.2219493
187	0x3d09d9a2	0.033654816
188	0xbe59ea7b	-0.21280853
189	0x3e07df8e	0.13268873
190	0x3e4bf266	0.19916686
191	0xbc289bfc	-0.010291096
192	0xbe4d79a6	-0.20065936
193	0xbcbf5a62	-0.023358528
194	0xbe991eca	-0.29906303
195	0xbd9ca0c4	-0.07647851
196	0xbe9caeaf	-0.30602023
197	0xbd6fbcb7	-0.058529582
198	0xbe1a5141	-0.15070058
199	0xbd9faf76	-0.077971384
200	0x3e5f1377	0.21784769
201	0x3e985343	0.29751024
202	0x3cbf5196	0.023354333
203	0xbe5ed213	-0.21759824
204	0x3e22bdf2	0.15892771
205	0xbda61f03	-0.08111384
206	0x3d879a45	0.066212215
207	0xbd2b8782	-0.041877277
208	0x3ebe51b3	0.37171707
209	0xbe286c7d	-0.16447635
210	0xbe3460c2	-0.17615035
211	0xbee4ee68	-0.4471314
212	0x3e090058	0.13379037
213	0x3e73a2e0	0.237926
214	0x3da52ace	0.08064805
215	0xbd1af951	-0.037835423
216	0x3e8ea3ba	0.27859288
217	0xbee79698	-0.4523208
218	0x3ef27684	0.47356045
219	0x3dde34b0	0.10849893
220	0xbe0c3bbc	-0.13694662
221	0x3d790436	0.06079503
222	0x3d9a5c7c	0.07537171
223	0x3e7121b6	0.23548016
224	0x3dc251f1	0.09488285
225	0x3e832496	0.2561385
226	0xbd26b3fa	-0.040698983
227	0x3e4df98e	0.20114729
228	0xbdbe42e3	-0.092901014
229	0x3c8e80cd	0.017395401
230	0x3e8cb295	0.27479997
231	0xbeb9bc77	-0.362766
232	0xbe149341	-0.14509298
233	0x3e44df54	0.19225818
234	0x3dd4c81d	0.10389731
235	0x3ea4dc02	0.32199103
236	0xbd8ccf32	-0.06875457
237	0x3bdea1ca	0.006794189
238	0x3e2d0e75	0.16900046
239	0xbd347a46	-0.04406192
240	0x3d3def58	0.046370834
241	0x3de9d9d0	0.114184976
242	0xbd074f80	-0.0330348
243	0x3e4d8503	0.20070271
244	0xbc5cbc0c	-0.013472568
245	0x3e683fc3	0.22680573
246	0x3e6cfbf7	0.23142992
247	0x3d28ab78	0.04117915
248	0x3dcab76d	0.09898267
249	0x3bc7f16e	0.0061017787
250	0xbdb66e5f	-0.0890777
251	0xbd2ddfe6	-0.042449854
252	0x3e309ce9	0.17247356
253	0x3d17be08	0.037046462
254	0xbdf50942	-0.119646564
255	0xbe2d48bd	-0.16922279

bias f4 [64]
0	0xbe0023ee	-0.12513706
1	0xbd8ee215	-0.069767155
2	0xbc6aed1e	-0.01433876
3	0xbd1bc302	-0.03802777
4	0xbd9dbcd5	-0.077020325
5	0x3bd28979	0.0064250794
6	0x3cde8277	0.02716182
7	0x3b07182c	0.0020613773
8	0xbdc34238	-0.095341146
9	0xbda23941	-0.079210766
10	0x3d89d152	0.06729378
11	0xbdb29b1d	-0.08720992
12	0xbdacf3c0	-0.08444929
13	0x3d8386d0	0.06422198
14	0xbce24d70	-0.027624816
15	0x3dd59541	0.104288585
16	0x3c71064e	0.014710976
17	0x3cf2392d	0.02956828
18	0x3bd4ca8c	0.006493872
19	0xbc4397c3	-0.011938038
20	0xbc1fe57d	-0.009759304
21	0xbd57c366	-0.05267658
22	0xbdc55bf6	-0.09636681
23	0xbda8fbbb	-0.08251139
24	0x3b0eb0be	0.0021772827
25	0xbd5bc327	-0.05365291
26	0x3d1d9bcf	0.03847867
27	0xbdb1cfad	-0.08682189
28	0xbd3f0588	-0.046636134
29	0x3db7c9a5	0.089740075
30	0xbcf9295f	-0.030415235
31	0x3d81b500	0.06333351
32	0x3d9d20e3	0.07672288
33	0xbdd7e3aa	-0.1054147
34	0x3ca408cd	0.020023728
35	0xbda9a055	-0.08282534
36	0xbdda2226	-0.106510445
37	0xbbbf6f21	-0.005842105
38	0x3cdb27f5	0.026752451
39	0xbdf9db6f	-0.12200057
40	0xbdf18aad	-0.117940284
41	0xbd1f9a99	-0.038965795
42	0x3d417dc3	0.047239076
43	0x3d57b8ea	0.052666582
44	0xbc47a61d	-0.012185601
45	0x3ca98b18	0.020696208
46	0xbdf10e32	-0.11770286
47	0x3dc84ee2	0.09780671
48	0xbd3f7c98	-0.04674968
49	0xbd4b502b	-0.049637
50	0xbe10bc41	-0.14134313
51	0xbd5b9289	-0.053606544
52	0xbc8c3b38	-0.017118081
53	0xbd72e6a5	-0.05930199
54	0xbdf5bf48	-0.11999375
55	0x3d3fc295	0.046816427
56	0xbc835056	-0.016029518
57	0xbc3bdd56	-0.011466345
58	0x3dbbc4ce	0.09168397
59	0xbd9f0004	-0.07763675
60	0x3cc634d2	0.024195109
61	0xbd704988	-0.058663875
62	0xbd3166a0	-0.04331076
63	0xbd91c2ad	-0.071172096

weight f4 [1, 64]
0	0x3e748d18	0.23881948
1	0xbedadd8a	-0.42747146
2	0xbe8da97c	-0.2766837
3	0x3e683fa0	0.22680521
4	0x3e8c47df	0.27398583
5	0x3dd02b81	0.10164548
6	0x3e1aa13b	0.15100567
7	0xbe757109	-0.239689
8	0xbea83ec4	-0.32860386
9	0xbe4016be	-0.18758675
10	0xbebd6c07	-0.3699648
11	0xbed2e1e2	-0.4118796
12	0x3d48aaf5	0.048991162
13	0xbe05b882	-0.13058665
14	0x3e1104b1	0.14161946
15	0x3e131fd0	0.14367604
16	0xbdffd50e	-0.12491809
17	0x3eb9eb49	0.3631232
18	0x3e415f8a	0.18884102
19	0x3eb21677	0.34782764
20	0xbddc1bf9	-0.10747523
21	0x3e7b97d1	0.24569632
22	0xbe43166c	-0.19051522
23	0x3eb94401	0.36184695
24	0x3e2b9754	0.16756946
25	0xbe8f2f46	-0.27965754
26	0xbee752cc	-0.45180357
27	0xbf14eb91	-0.58171946
28	0xbeb28ec3	-0.34874544
29	0x3e93c3b3	0.28860244
30	0xbed18365	-0.4092056
31	0xbe94ce6c	-0.29063737
32	0x3e7bc066	0.24585113
33	0xbea0041a	-0.3125313
34	0xbdc864f3	-0.097848795
35	0x3e66836e	0.22511074
36	0xbedb74fc	-0.4286269
37	0xbe8a1d38	-0.26975417
38	0x3eddfa7c	0.43355167
39	0x3e325047	0.17413436
40	0x3dc45b95	0.095877804
41	0xbf29989f	-0.66248506
42	0xbef19445	-0.47183433
43	0x3e78d285	0.24299057
44	0xbe1eb6c4	-0.15499407
45	0xbd0a24d2	-0.03372652
46	0xbe98cca6	-0.29843634
47	0xbf11bc66	-0.569281
48	0x3e0ab7b6	0.13546643
49	0xbed105a3	-0.40824613
50	0xbeea73e4	-0.45791543
51	0x3ddfcfeb	0.10928329
52	0x3d6426fa	0.055701233
53	0x3e9ff5d0	0.31242228
54	0xbee16dc4	-0.44029057
55	0xbe55afb2	-0.20867804
56	0x3e6ad41d	0.22932477
57	0x3e62488e	0.2209799
58	0xbec201b8	-0.37891936
59	0x3eaa743a	0.332918
60	0xbea7e73c	-0.32793605
61	0xbe8292b3	-0.25502548
62	0xbed76637	-0.4207017
63	0xbf19662c	-0.59921527
