models/simple_speaker_listener/policy_model1.pkl (torch_old, 79778 bytes, 6 tensors)

weight f4 [128, 11]
0.27917016 0.6297544 -0.15370284 0.43532777 -0.6275283 -0.009533424 -0.3159723 0.85773027
-0.18943396 0.80078053 0.28188974 -0.49678677 -0.11797108 0.22879478 -0.4247595 0.46699423
0.3962683 0.3388548 -0.11791621 -0.41496357 -0.57016516 0.19714577 -0.5690091 -0.01967709
-0.07297615 -0.4426689 0.13638283 0.3564357 0.3736909 -0.12000039 0.28730622 -0.6639841
0.0021242825 -0.09720818 0.4885641 -0.4258574 -0.9874874 -0.5628237 -0.55013496 -0.36393526
-0.6933577 0.19769928 -0.36129564 -0.2883038 0.2572959 -0.330841 -0.2720668 0.6716712
-0.4344987 -0.5033725 -0.51472366 0.54583657 -0.2450728 0.32320002 0.018509788 0.15478213
0.017974393 -0.06943391 0.57929623 -0.48135513 -0.2856202 -0.38738412 0.46414244 -0.11146548
-0.007377718 0.07600608 -0.51988256 0.32824904 0.29334852 0.022127347 0.23256399 0.4081561
0.10260457 0.21525812 -0.28894684 -0.4467964 0.3288478 0.18826912 0.31247878 -0.26364037
0.46118435 -0.10446265 -0.14269555 -0.5353234 -0.122874215 0.017861294 0.07572276 -0.21271707
-0.20024931 -0.21440753 0.12349418 -0.435865 0.2505061 0.6590905 0.04925847 -0.35887986
-0.22860752 -0.48897055 -0.024032405 0.1770192 -0.43046483 -0.49392033 0.6832893 -0.528127
-0.048765764 -0.33511642 0.22424978 -0.15452096 0.2717547 0.033950865 -0.20614076 -0.09409954
-0.11052469 -0.3256975 0.12491366 0.21337657 0.2534762 0.08009202 -0.030820861 -0.11147735
0.05417005 -0.4194813 0.29789445 0.08570864 0.42777884 0.3658641 -0.09983817 -0.32833278
0.08371765 -0.032000765 -0.5318876 -0.09110428 -0.38615146 -0.20089537 0.40917775 -0.4949053
0.047849987 0.35720104 -0.008709861 -0.03664235 -0.41495857 -0.7251993 0.008735111 -0.72976196
-0.03989732 0.20119934 -0.5348441 0.097241275 0.43207675 0.4384826 -0.21435437 -0.053649634
-0.46262413 -0.26796848 0.050980695 0.0628372 -0.48139012 0.6032861 0.071221836 -0.3832666
-0.5389906 0.6212361 0.111691214 -0.020520627 -0.30275187 -0.09371156 -0.07233343 0.30083254
-0.18523616 0.60685563 0.17443827 0.656086 0.46657816 -0.07823392 0.2975016 0.07801822
0.14893095 0.11349146 0.010516044 0.19243307 0.04533593 0.009886873 -0.016982922 0.09220616
-0.022126144 -0.08012164 -0.12121262 -0.32440993 -0.36941418 0.292097 -0.12749276 0.36850667
0.5868356 -0.0078034564 0.6216952 -0.2099133 -0.21336892 -0.10816319 -0.10839339 -0.04107331
0.06529087 -1.3607495 0.6107987 -0.54401636 0.55036175 -0.5956162 0.36872458 0.9062853
-0.121591315 -0.27932468 -0.1605931 0.4025277 0.19460146 0.30718368 -0.013353828 0.74119985
0.33785272 0.17020589 0.27059206 0.12308004 -0.41916 0.4244658 -0.20270863 -0.20564798
0.50325584 0.5955368 0.49129364 -1.0171407 0.46933484 -0.49984774 -0.21929501 -0.06815511
-0.39701512 -0.22072117 -0.53242356 0.65978354 0.45117483 0.002634238 -0.18286091 -0.2541332
0.008573164 0.27473363 0.036466587 -0.6370231 0.16146022 0.16929813 0.10210886 0.27725318
0.22634022 0.35231787 -0.5820297 0.23849708 -0.23836178 0.43437386 -0.23990215 -0.47896302
00000000: 64ef 8e3e 9637 213f 4764 1dbe 48e3 de3e
00000010: b2a5 20bf 1432 1cbc 1fc7 a1be 3694 5b3f
00000020: fafa 41be f4ff 4c3f da53 903e d65a febe
00000030: d29a f1bd 2e49 6a3e 147a d9be de19 ef3e
00000040: aee3 ca3e 607e ad3e 0e7e f1bd 1b76 d4be
00000050: 58f6 11bf 95e0 493e 95aa 11bf d931 a1bc
00000060: 8574 95bd 80a5 e2be f1a7 0b3e bd7e b63e
00000070: 6a54 bf3e c4c2 f5bd cd19 933e ddfa 29bf
00000080: 8c37 0b3b 1515 c7bd 1325 fa3e fb09 dabe
00000090: f9cb 7cbf 3715 10bf a5d5 0cbf b955 babe
000000a0: e47f 31bf ae71 4a3e befb b8be 8e9c 93be
000000b0: 4abc 833e fe63 a9be 574c 8bbe a5f2 2b3f
000000c0: 9d76 debe 05dd 00bf eec4 03bf f2bb 0b3f
000000d0: 5df4 7abe 797a a53e d7a1 973c 357f 1e3e
000000e0: 093f 933c 5e33 8ebd c24c 143f 2e74 f6be
000000f0: d03c 92be 3657 c6be 14a4 ed3e 0348 e4bd
00000100: c9c0 f1bb 13a9 9b3d 0617 05bf 4210 a83e
00000110: c731 963e 6944 b53c 4125 6e3e d6f9 d03e
00000120: 5822 d23d a06c 5c3e d7f0 93be 7fc2 e4be
00000130: bd5e a83e 9fc9 403e 38fd 9f3e dffb 86be
00000140: 5b20 ec3e 84f0 d5bd c81e 12be f40a 09bf
00000150: 7aa5 fbbd d951 923c 8914 9b3d 81d2 59be
00000160: 280e 4dbe a68d 5bbe 84ea fc3d b329 dfbe
00000170: 5642 803e 28ba 283f 40c3 493d 1abf b7be
00000180: 1718 6abe 595a fabe 9bdf c4bc 8544 353e
00000190: e365 dcbe 20e3 fcbe 0cec 2e3f 5533 07bf
000001a0: 9cbe 47bd 6194 abbe bca1 653e be3a 1ebe
000001b0: 6f23 8b3e 1010 0b3d 9016 53be 42b7 c0bd
000001c0: c55a e2bd d3c1 a6be bcd2 ff3d 637f 5a3e
000001d0: a2c7 813e 4907 a43d 087c fcbc 3d4e e4bd
000001e0: 6ae1 5d3d 41c6 d6be 9f85 983e 0388 af3d
000001f0: d405 db3e 8a52 bb3e f477 ccbd 3c1b a8be
00000200: 2974 ab3d 3c13 03bd c929 08bf e194 babd
00000210: a5b5 c5be 84b7 4dbe bf7f d13e 3a64 fdbe
00000220: 59fe 433d 0ee3 b63e ceb3 0ebc 4a16 16bd
00000230: 7375 d4be a9a6 39bf b61d 0f3c aed1 3abf
00000240: 5f6b 23bd 3307 4e3e 8beb 08bf 6f26 c73d
00000250: 2a39 dd3e cb80 e03e b67f 5bbe b8bf 5bbd
00000260: 12dd ecbe 2a33 89be 22d1 503d cab0 803d
00000270: c478 f6be f570 1a3f c1dc 913d 853b c4be
00000280: 4afb 09bf 5409 1f3f 5dbe e43d e01a a8bc
00000290: 4b02 9bbe d9eb bfbd 8d23 94bd b906 9a3e
000002a0: 8cae 3dbe e45a 1b3f f29f 323e 41f5 273f
000002b0: 55e3 ee3e 1b39 a0bd 2152 983e 04c8 9f3d
000002c0: 5b81 183e 366e e83d 7c4b 2c3c 2d0d 453e
000002d0: 2bb2 393d 8dfc 213c c51f 8bbc 95d6 bc3d
000002e0: e341 b5bc d016 a4bd 523e f8bd 0f19 a6be
000002f0: db23 bdbe bd8d 953e 768d 02be e8ac bc3e
00000300: dc3a 163f 23b4 ffbb 6b27 1f3f 83f3 56be
00000310: 627d 5abe aa84 ddbd 5bfd ddbd 7d3c 28bd
00000320: 38b7 853d 0a2d aebf 4e5d 1c3f a844 0bbf
00000330: 82e4 0c3f 4e7a 18bf 78c9 bc3e 5002 683f
00000340: de04 f9bd a503 8fbe 8572 24be 1c18 ce3e
00000350: 9b45 473e 2e47 9d3e 04ca 5abc 46bf 3d3f
00000360: 08fb ac3e 744a 2e3e 0b8b 8a3e 6311 fc3d
00000370: 249c d6be 9553 d93e da92 4fbe 6295 52be
00000380: 60d5 003f 1a75 183f d78a fb3e ab31 82bf
00000390: a84c f03e 0bec ffbe df8e 60be e894 8bbd
000003a0: 9145 cbbe bb04 62be e94c 08bf 93e7 283f
000003b0: 6300 e73e 2ea3 2c3b e43f 3bbe bf1d 82be
000003c0: 7576 0c3c e3a9 8c3e fd5d 153d f213 23bf
000003d0: d455 253e 7d5c 2d3e 731e d13d 21f4 8d3e
000003e0: bbc5 673e 0263 b43e e6ff 14bf 9438 743e
000003f0: 1c15 74be 4066 de3e e9a8 75be a43a f5be

bias f4 [128]
0.1722283 -0.87051487 -0.20129962 -0.1802561 -0.10852014 -0.28376588 -0.577286 -0.7847064
-0.4659045 -0.15174542 -0.2630173 0.020932648 -0.5883931 -0.33854863 -0.24583724 -0.35531354
-0.41882426 0.16434363 1.1513273 -0.26144376 0.22500293 -0.13621184 0.0057379003 -0.29049593
-0.016400604 -0.38305354 0.32563162 -0.97911125 0.1017371 -0.6126322 1.1499288 -0.09961799
0.2104934 -0.58426106 0.41529053 -0.4771809 0.1617807 -0.5345133 -0.09535638 -0.4963452
-0.52155995 -0.10216713 1.0751513 -0.17611331 0.13889834 -1.0294688 0.27846164 -0.5058761
-0.516051 -0.466433 -0.90056336 -0.05965736 0.35101923 0.0112349 0.08000005 0.6244911
0.085409105 0.6540718 0.15340656 0.33664954 -0.19156298 0.5642889 0.0131957745 0.9263111
-0.6309657 -0.42852333 1.1971298 -0.08312615 -0.027980728 1.0485615 -0.54650885 -0.4843321
0.11272939 -0.24692877 -0.35549393 1.5576053 -0.245724 -0.29821125 -0.5254388 0.063892104
-0.5621385 0.12307666 0.035202157 -0.0974611 -0.24190418 -0.58154964 -0.34781468 -0.21092291
-0.6572962 -0.46198252 -0.54917026 0.26763007 0.1053341 0.25580424 0.5961565 0.20393017
-0.46137244 -0.12518796 -0.5204649 0.042606078 -0.73605335 0.21400543 0.28803572 -0.51436377
-0.83160925 -0.5141379 0.63176185 0.3002524 0.72327274 -0.810646 0.14906532 0.20256416
0.2797312 -0.49153563 -0.0017556065 -0.592878 -0.120017655 0.102465406 -0.5223718 0.1024297
0.19971624 -0.8806163 -0.45520633 -0.32874292 -0.06575226 -0.6355286 0.045081362 -0.57247007
00000000: 9e5c 303e 10da 5ebf 7d21 4ebe 0e95 38be
00000010: cf3f debd c349 91be 04c9 13bf 85e2 48bf
00000020: 098b eebe 2763 1bbe 34aa 86be f27a ab3c
00000030: eea0 16bf 3f56 adbe c2bc 7bbe a8eb b5be
00000040: 2270 d6be b249 283e b15e 933f f5db 85be
00000050: 2b67 663e 1e7b 0bbe ff04 bc3b e2bb 94be
00000060: 8f5a 86bc 981f c4be 30b9 a63e 09a7 7abf
00000070: 8a5b d03d 77d5 1cbf de30 933f 8404 ccbd
00000080: 958b 573e 2292 15bf f6a0 d43e 0e51 f4be
00000090: d7a9 253e ddd5 08bf 354a c3bd f520 febe
000000a0: f484 05bf 003d d1bd 8f9e 893f 0c57 34be
000000b0: 5e3b 0e3e a2c5 83bf 8692 8e3e 1981 01bf
000000c0: eb1b 04bf 4ed0 eebe 528b 66bf 475b 74bd
000000d0: cbb8 b33e 9612 383c 11d7 a33d a6de 1f3f
000000e0: f8ea ae3d 4071 273f 9c16 1d3e 545d ac3e
000000f0: 1629 44be 3d75 103f 1733 583c b922 6d3f
00000100: f886 21bf 6967 dbbe 8d3b 993f 0b3e aabd
00000110: d737 e5bc 4337 863f 01e8 0bbf 61fa f7be
00000120: abde e63d e5da 7cbe 4d03 b6be 9c5f c73f
00000130: 129f 7bbe 25af 98be 2883 06bf ddd9 823d
00000140: 4fe8 0fbf 9e0f fc3d 2330 103d af99 c7bd
00000150: bbb5 77be 70e0 14bf c414 b2be 2dfc 57be
00000160: 9044 28bf f988 ecbe 6c96 0cbf cf06 893e
00000170: 68b9 d73d c6f8 823e b69d 183f 12d3 503e
00000180: 0239 ecbe 4631 00be 303d 05bf b683 2e3d
00000190: fe6d 3cbf 3d24 5b3e 6b79 933e 58ad 03bf
000001a0: 58e4 54bf 8b9e 03bf 25bb 213f afba 993e
000001b0: 6728 393f 7f86 4fbf 94a4 183e fb6c 4f3e
000001c0: ee38 8f3e 8faa fbbe 611c e6ba dac6 17bf
000001d0: d1cb f5bd 62d9 d13d 29ba 05bf aac6 d13d
000001e0: 6a82 4c3e 1270 61bf ce10 e9be fe50 a8be
000001f0: 1fa9 86bd 01b2 22bf 3ca7 383d 668d 12bf

weight f4 [128, 128]
-0.08958731 -0.008703336 -0.013748929 0.004265584 -0.05356369 -0.035467982 0.012838402 0.0011530025
-0.053281978 -0.116193935 -0.08121763 0.0021925103 -0.044557426 0.043500103 -0.08641713 0.016999096
0.00782231 -0.06805001 -0.1447219 -0.112833664 -0.16414157 -0.06561697 0.0048541347 0.024959287
-0.056537442 0.047418453 -0.12709329 -0.12408324 -0.15805608 -0.18861857 -0.13036458 -0.05890288
-0.096096925 -0.04446369 0.09829224 -0.0038331598 0.05184554 -0.058986902 -0.10732335 -0.07067234
-0.09289635 -0.032731526 -0.13013898 -0.09336921 -0.15667737 0.07641416 -0.15946428 -0.18004334
-0.10153084 0.04174691 -0.07991874 -0.02664078 -0.16659263 -0.056773774 -0.027679956 -0.03131534
-0.048478145 -0.03447798 -0.029425979 -0.18675701 -0.01790618 0.02677185 -0.024972614 0.014837615
-0.032191914 -0.005807004 -0.13725303 -0.07508478 -0.00090044737 0.0686583 0.04760786 -0.1466184
-0.067986675 0.14613782 0.06862896 0.039701276 0.07762332 0.07323306 0.01984451 -0.16778679
-0.056269348 0.016157746 0.052942924 -0.13654932 -0.1537503 0.17428118 -0.08347914 -0.11420703
-0.069183275 -0.008066036 -0.04176951 0.032565717 -0.07509448 0.085867934 -0.014329758 0.0003810834
-0.04863451 -0.034684576 -0.07283804 -0.040706854 0.079934485 -0.021326683 -0.06478366 -0.116673835
-0.018955357 -0.05918394 -0.024873612 -0.024327053 -0.15587193 -0.002779842 -0.15537933 -0.051456597
-0.01666148 -0.14366053 -0.041835405 -0.106733486 0.07694374 -0.034912493 -0.10085938 0.07358918
-0.0930607 -5.3569674e-05 -0.09508643 -0.17889723 -0.1677424 0.030913526 -0.03685303 0.03226158
-0.1377139 0.027142664 -0.08362654 -0.017605659 0.05273917 0.04831823 -0.10103088 -0.039869547
-0.0844282 0.012471202 -0.06123132 -0.08527676 0.100904346 0.019315219 0.0028390442 0.17753343
-0.17942254 0.009217569 -0.13166402 -0.15218674 -0.107455015 -0.15005854 -0.17649643 0.026362667
0.052555237 -0.07546514 0.08408488 0.037034474 0.007940771 0.05743215 -0.103896394 0.018088236
-0.012303409 -0.16802658 -0.23129664 -0.05427909 -0.17960075 -0.018425163 -0.0713135 -0.0022417395
-0.092496224 0.021800952 -0.13628303 -0.076241754 -0.08143845 -0.012444514 -0.008369023 -0.0012880457
-0.1736843 -0.108364046 -0.025953516 0.032304205 -0.064165324 -0.014548816 -0.20795153 -0.044435065
-0.01518819 -0.19958948 -0.13229105 0.07729511 -0.04078534 -0.0050238986 0.04195761 -0.06644306
0.10846981 0.0874006 -0.18993735 0.09074972 0.016120346 -0.0056025716 0.009228791 -0.061569408
0.009545739 -0.038237333 -0.10112605 -0.10899595 -0.027852219 -0.08130486 -0.16593036 -0.24369785
-0.038855962 0.05710894 -0.091357805 -0.013185524 0.09380659 -0.15953594 -0.042149764 -0.0334505
-0.12854251 -0.04919161 -0.19716036 -0.051151637 -0.1247107 -0.040027227 -0.069602676 -0.11380233
0.12067372 -0.037628345 0.09678223 0.016812636 -0.061926402 -0.16865425 -0.096512035 0.0768607
0.07825848 -0.090126336 -0.113866314 -0.062299617 -0.11582467 -0.11880529 0.09523866 -0.0798118
-0.051268905 -0.1784124 -0.024254676 -0.06769818 -0.16270319 -0.06070935 -0.02595057 0.01701269
0.027543372 0.04531354 0.06492706 -0.19885163 -0.08334957 -0.09425012 0.08673259 0.2135214
00000000: 8d79 b7bd 7098 0ebc 3043 61bc 50c6 8b3b
00000010: 9a65 5bbd e046 11bd 2958 523c 5820 973a
00000020: 343e 5abd 16f7 edbd 6e55 a6bd 38b0 0f3b
00000030: d981 36bd 2a2d 323d 77fb b0bd b041 8b3c
00000040: 2529 003c ce5d 8bbd fa31 14be 5615 e7bd
00000050: ba14 28be 3162 86bd 6f0f 9f3b 6b77 cc3c
00000060: ce93 67bd da39 423d be24 02be 5b1f febd
00000070: 74d9 21be 3a25 41be 4b7e 05be 2544 71bd
00000080: 77ce c4bd 8f1f 36bd 714d c93d c035 7bbb
00000090: fd5b 543d 409c 71bd 58cc dbbd a9bc 90bd
000000a0: 7140 bebd 7e11 06bd 2743 05be 5b38 bfbd
000000b0: 0870 20be 077f 9c3d 9b4a 23be 485d 38be
000000c0: 67ef cfbd cffe 2a3d 70ac a3bd c43d dabc
000000d0: 4297 2abe 9e8b 68bd 13c1 e2bc 8444 00bd
000000e0: 0591 46bd c838 0dbd c00e f1bc 3b3d 3fbe
000000f0: fbaf 92bc a450 db3c 5e93 ccbc 7819 733c
00000100: abdb 03bd ae48 bebb 0f8c 0cbe 0dc6 99bd
00000110: 000c 6cba b99c 8c3d 7600 433d 2223 16be
00000120: 993c 8bbd 27a5 153e 578d 8c3d ce9d 223d
00000130: faf8 9e3d 37fb 953d f490 a23c 4dd0 2bbe
00000140: b07a 66bd 405d 843c aeda 583d 96d3 0bbe
00000150: b870 1dbe c476 323e 1df7 aabd 60e5 e9bd
00000160: f6af 8dbd 6827 04bc 8116 2bbd a163 053d
00000170: 22cb 99bd 87db af3d 5cc7 6abc 26cc c739
00000180: fb34 47bd 6a11 0ebd 1c2c 95bd 3bbc 26bd
00000190: b1b4 a33d 4cb5 aebc 4cad 84bd b1f2 eebd
000001a0: 4448 9bbc dc6a 72bd bfc3 cbbc 8749 c7bc
000001b0: e49c 1fbe 022e 36bb c21b 1fbe 27c4 52bd
000001c0: a87d 88bc bf1b 13be 9a5b 2bbd 1697 dabd
000001d0: ae94 9d3d 6700 0fbd 5d8f cebd edb5 963d
000001e0: 9c96 bebd 00b0 60b8 adbc c2bd d630 37be
000001f0: aac4 2bbe 5d3e fd3c 34f3 16bd b824 043d
00000200: df04 0dbe 4b5a de3c 6444 abbd be39 90bc
00000210: 0705 583d 56e9 453d 47e9 cebd 404e 23bd
00000220: b1e8 acbd 0354 4c3c b1cd 7abd 95a5 aebd
00000230: f0a6 ce3d f33a 9e3c 420f 3a3b 53cb 353e
00000240: 8bba 37be 4905 173c efd2 06be d7d6 1bbe
00000250: 6011 dcbd f2a8 19be 7bbb 34be 85f6 d73c
00000260: 2944 573d 788d 9abd b234 ac3d 76b1 173d
00000270: 021a 023c f93d 6b3d a2c7 d4bd c82d 943c
00000280: 3d94 49bc 290f 2cbe 07d9 6cbe c053 5ebd
00000290: 42e9 37be 5ef0 96bc d00c 92bd 26ea 12bb
000002a0: a96e bdbd e997 b23c c78d 0bbe a324 9cbd
000002b0: 34c9 a6bd 13e4 4bbc 3a1e 09bc a4d3 a8ba
000002c0: 4cda 31be f8ed ddbd 789c d4bc 6a51 043d
000002d0: 1c69 83bd 285e 6ebc 3ff1 54be 8b01 36bd
000002e0: e3d7 78bc 2f61 4cbe 4e77 07be e64c 9e3d
000002f0: 870e 27bd 849f a4bb bedb 2b3d 4d13 88bd
00000300: 6b25 de3d 16ff b23d f07e 42be fdda b93d
00000310: d10e 843c c795 b7bb 5b34 173c 3430 7cbd
00000320: bb65 1c3c c09e 1cbd 2d1b cfbd 4539 dfbd
00000330: 562a e4bc 2a83 a6bd a6e9 29be ee8b 79be
00000340: 6e27 1fbd 10eb 693d cd19 bbbd 1908 58bc
00000350: ab1d c03d 645d 23be 3ba5 2cbd 6403 09bd
00000360: a6a0 03be 247d 49bd 68e4 49be 6184 51bd
00000370: 5368 ffbd 97f3 23bd d98b 8ebd 3211 e9bd
00000380: c923 f73d 2e20 1abd c335 c63d a7ba 893c
00000390: 8aa6 7dbd b3b3 2cbe 1aa8 c5bd 2569 9d3d
000003a0: fb45 a03d 2894 b8bd be32 e9bd e22d 7fbd
000003b0: 7c35 edbd 3050 f3bd 7d0c c33d 5e74 a3bd
000003c0: 58ff 51bd bdb1 36be beb1 c6bc 58a5 8abd
000003d0: aa9b 26be 5eaa 78bd 4a96 d4bc 325e 8b3c
000003e0: a3a2 e13c b19a 393d 7af8 843d c39f 4bbe
000003f0: 2eb3 aabd 3506 c1bd dba0 b13d 5ba5 5a3e

bias f4 [128]
-0.092857786 -0.09588589 0.25698942 -0.116327725 -0.18583573 -0.07791776 -0.25227383 -0.1960511
-0.6647344 0.03189654 0.5850148 -0.13864887 -0.03221314 -0.0151722925 0.0050041107 -0.100587085
-0.044075575 -0.018389363 -0.08253189 -0.012943099 -0.045589104 -0.08156714 -0.081316784 -0.1455952
-0.013242164 -0.12052153 0.65526235 -0.13753468 -0.11684261 -0.042264 -0.04350093 -0.038452405
-0.014062685 -0.035642285 0.006087707 -0.07643077 0.77250123 -0.103036255 0.0005163283 -0.030515762
-0.13689058 -0.03780752 -0.010497404 -0.03609905 0.34127265 -0.063747324 -0.19991535 -0.057857703
-0.05375876 -0.08877387 0.02691875 -0.012544279 -0.20877431 -0.0898854 -0.07089041 -0.073324
-0.12462906 -0.13764533 -0.0026977137 -0.09909487 -0.12034986 -0.27026865 -0.2193336 -0.1461339
-0.071602724 -0.11940983 -0.13004948 -0.014986131 -0.17105523 -0.11443431 -0.22572945 -0.034388155
-0.12693854 -0.127257 -0.18996726 -0.16350485 -0.052548755 -0.108084835 -0.17330676 -0.01700728
0.006165628 -0.096564114 -0.059568144 0.20157939 -0.3209214 -0.042306285 -0.05964404 0.00265088
-0.083745345 -0.04399138 -0.0015080017 -0.19566827 -0.010675631 -0.036908954 -0.06912188 -0.04037476
-0.016393367 -0.07921347 -0.44324687 -0.187065 -0.11567471 -0.19455814 0.027318582 -0.121713
-0.13644414 -0.09997209 -0.09210464 -0.4360613 -0.09971229 -0.027732315 -0.056416843 -0.2138891
-0.23912339 -0.07811953 -0.06684139 -0.049438793 0.00906102 -0.31716007 -0.063050196 -0.092046775
-0.091558635 -0.012696455 -0.04013466 -0.14166488 -0.06616592 -0.0027475797 -0.00038016925 0.06459614
00000000: 392c bebd d25f c4bd 1e94 833e 3b3d eebd
00000010: b94b 3ebe 5993 9fbd 092a 81be 9fc1 48be
00000020: 092c 2abf f2a5 023d 88c3 153f f8f9 0dbe
00000030: edf1 03bd 3595 78bc 86f9 a33b 9a00 cebd
00000040: 9788 34bd 4aa5 96bc 7b06 a9bd 4b0f 54bc
00000050: a4bb 3abd ac0c a7bd 6a89 a6bd e816 15be
00000060: a9f5 58bc fed3 f6bd 46bf 273f e4d5 0cbe
00000070: 2e4b efbd 041d 2dbd 082e 32bd 4580 1dbd
00000080: 2d67 66bc a5fd 11bd 637b c73b bc87 9cbd
00000090: a4c2 453f ac04 d3bd 355a 073a 31fc f9bc
000000a0: 0b2d 0cbe 0fdc 1abd 4efd 2bbc 99dc 13bd
000000b0: 4abb ae3e f58d 82bd 9cb6 4cbe 33fc 6cbd
000000c0: 2532 5cbd 13cf b5bd b684 dc3c 8586 4dbc
000000d0: efc8 55be d615 b8bd fe2e 91bd e52a 96bd
000000e0: 853d ffbd e6f2 0cbe 20cc 30bb 40f2 cabd
000000f0: fd79 f6bd a760 8abe fd98 60be 20a4 15be
00000100: 73a4 92bd 248d f4bd b12b 05be 6488 75bc
00000110: 1a29 2fbe 895c eabd 9f25 67be 98da 0cbd
00000120: 2dfc 01be a94f 02be c786 42be d16d 27be
00000130: 5d3d 57bd 955b ddbd 5477 31be da52 8bbc
00000140: 0909 ca3b 68c3 c5bd bafd 73bd d46a 4e3e
00000150: cf4f a4be 5b49 2dbd 4f4d 74bd 63ba 2d3b
00000160: ae82 abbd 4e30 34bd 24a8 c5ba 435d 48be
00000170: d8e8 2ebc d82d 17bd c68f 8dbd 0160 25bd
00000180: 624b 86bc ac3a a2bd 41f1 e2be f88d 3fbe
00000190: dde6 ecbd 403a 47be 38cb df3c aa44 f9bd
000001a0: 03b8 0bbe 2bbe ccbd 5ca1 bcbd 6d43 dfbe
000001b0: f535 ccbd e12e e3bc 5915 67bd bf05 5bbe
000001c0: c3dc 74be 22fd 9fbd 24e4 88bd 5580 4abd
000001d0: ac74 143c ce62 a2be 7620 81bd 0583 bcbd
000001e0: 1883 bbbd cb04 50bc 3e64 24bd 9910 11be
000001f0: ff81 87bd bd10 34bb 7451 c7b9 fb4a 843d

weight f4 [5, 128]
0.1060867 -0.021865034 0.5606354 0.0029573669 0.24332865 -0.039270993 -0.09686798 -0.09531726
-0.12979013 0.019330591 1.0801969 -0.061692324 -0.056090605 -0.012686549 0.04986029 -0.06466765
-0.014528833 0.027121583 0.029999826 0.123710245 -0.004412377 -0.04271046 0.019792717 -0.014580684
0.14004794 -0.16507128 1.4143639 -0.0125909215 -0.019912625 -0.05172938 -0.068606906 -0.051619016
0.057983868 0.027087878 0.07759711 -0.059683327 0.8728922 0.016166009 0.014649162 -0.038623907
0.017070286 -0.09595054 0.0072000544 -0.10272705 0.25741813 0.0038122612 0.01791902 0.021747507
-0.041083507 -0.008892364 0.052720845 -0.0014985524 -0.06579565 -0.0016968085 0.09874865 -0.08691432
0.05928385 -0.11465876 -0.08540961 0.02522728 0.014248225 -0.007801672 -0.19306268 -0.015301081
-0.0104338825 0.02951415 0.038480893 0.023148678 0.089170374 0.13435686 -0.008928081 -0.0017505002
-0.05096397 0.03700978 0.1449957 -0.065671906 -0.0027729166 0.01927551 -0.09241429 -0.04042657
-0.05393712 0.0118788555 -0.005482685 1.1267388 -0.041087225 -0.013110591 0.04095359 -0.045073565
0.101967044 0.011003097 -0.017624818 -0.02738743 -0.019195655 -0.021487003 0.026587525 0.100078516
-0.055370457 -0.023871036 -0.22331491 0.06574391 -0.079841465 -0.07576364 -0.031169184 -0.0726954
0.12941831 0.111588545 0.19215928 -0.106346525 0.031016564 0.01896976 0.025057837 -0.0031869232
-0.02926501 0.12254572 0.043206282 -0.052547336 0.03330848 -0.0457581 -0.014861226 0.06199012
0.1286739 0.08919551 -0.13763711 0.122816995 0.08480142 0.076515034 0.09963155 0.97745395
0.067519575 -0.009735536 -0.5555959 0.074510865 0.27014235 0.07502756 0.3097486 0.084593065
0.2978871 0.03443786 0.92388046 0.09264206 0.020196065 0.014000704 -0.0263527 -0.01622724
0.02753176 0.04239477 0.07557585 -0.0013322186 0.0049249274 -0.01384111 0.059413057 0.06046317
-0.0068314485 0.16867922 0.9310187 -0.0045527597 0.047132514 -0.042214382 0.027986119 0.060227174
0.040271934 0.03990399 -0.12438022 0.14095916 0.92677677 0.04180543 0.035512347 -0.0075780456
0.030871054 0.0066391625 -0.019196888 0.054155502 -0.3512445 0.05117853 0.12363181 0.07002423
0.00618816 0.029752927 0.13730042 -0.010784089 -0.034420528 1.5122832e-05 0.051297426 0.010220696
-0.00058459176 0.01775543 -0.12097049 0.061058868 0.029090468 0.2530229 -0.009738997 -0.077734455
0.051144272 -0.07235075 0.068349406 0.024843778 0.028616391 0.031542573 0.070137106 -0.072623156
0.0070765847 -0.11436069 0.003686016 -0.057868462 0.048143875 0.058081705 -0.025389882 0.030245753
0.04560729 0.04558194 -0.11124021 -0.32094762 0.09853052 0.036071073 0.12664072 0.017847933
-0.02109736 0.097126186 0.044823166 0.1025452 -0.016553072 -0.05272469 0.09176553 -0.054779876
0.0018645297 0.06188525 0.14359987 0.053270474 -0.076948956 -0.012167177 0.011477998 -0.0070921555
-0.024223115 -0.012981204 -0.37494895 0.28029418 0.07620529 0.0631246 0.09178376 0.088663094
0.045624815 -0.14515857 0.009403435 -0.009866554 0.14624856 -0.026967304 -0.034272157 0.031054115
0.009802208 0.02818093 0.023312407 -0.0068900906 0.02352545 0.008316326 -0.017517898 -0.2981819
00000000: fc43 d93d 4d1e b3bc cd85 0f3f 62d0 413b
00000010: 252b 793e 9fda 20bd b862 c6bd b235 c3bd
00000020: b4e7 04be 305b 9e3c e443 8a3f 17b1 7cbd
00000030: 43bf 65bd 3edb 4fbc 4e3a 4c3d 7970 84bd
00000040: 580a 6ebc 152e de3c 32c2 f53c cc5b fd3d
00000050: b395 90bb 2af1 2ebd 5624 a23c d2e3 6ebc
00000060: ba68 0f3e 7208 29be e009 b53f 274a 4ebc
00000070: cd1f a3bc 30e2 53bd c781 8cbd 766e 53bd
00000080: 7e80 6d3d 66e7 dd3c 3ceb 9e3d 8176 74bd
00000090: dd75 5f3f 946e 843c 0a03 703c 1a34 1ebd
000000a0: fcd6 8b3c b781 c4bd 6fee eb3b 8f62 d2bd
000000b0: 4fcc 833e 21d7 793b e9ca 923c d427 b23c
000000c0: 2e47 28bd 47b1 11bc d0f1 573d 136b c4ba
000000d0: dfbf 86bd 7267 deba bb3c ca3d 2300 b2bd
000000e0: 9fd3 723d 36d2 eabd 3ceb aebd 71a9 ce3c
000000f0: 6371 693c 2ba5 ffbb 39b2 45be 63b1 7abc
00000100: e0f2 2abc a9c7 f13c 249e 1d3d 4ca2 bd3c
00000110: f59e b63d d894 093e 1647 12bc 0a71 e5ba
00000120: 99bf 50bd 9197 173d c179 143e fe7e 86bd
00000130: d2b9 35bb ade7 9d3c b443 bdbd 5596 25bd
00000140: 2bed 5cbd 889f 423c 18a8 b3bb fa38 903f
00000150: 144b 28bd cecd 56bc f4be 273d 0f9f 38bd
00000160: 19d4 d03d 5546 343c ec61 90bc 9b5b e0bc
00000170: 3540 9dbc 8305 b0bc 15ce d93c f7f5 cc3d
00000180: 22cc 62bd 318d c3bc aaac 64be bea4 863d
00000190: ec83 a3bd f829 9bbd 8456 ffbc 53e1 94bd
000001a0: 3c86 043e 8988 e43d 67c5 443e 35cc d9bd
000001b0: 7316 fe3c 7866 9b3c 1846 cd3c b3db 50bb
000001c0: 2dbd efbc 40f9 fa3d 12f9 303d e03b 57bd
000001d0: 796e 083d d86c 3bbd 807c 73bc 5ae9 7d3d
000001e0: 17c3 033e 23ac b63d bef0 0cbe 7a87 fb3d
000001f0: 5eac ad3d eab3 9c3d a00b cc3d 6c3a 7a3f
00000200: b447 8a3d cc81 1fbc 883b 0ebf 2799 983d
00000210: 1950 8a3e 0da8 993d 5e97 9e3e 213f ad3d
00000220: a884 983e b70e 0d3d 6e83 6c3f 1fbb bd3d
00000230: 3872 a53c 3563 653c 9ee1 d7bc fdee 84bc
00000240: 498a e13c 23a6 2d3d 83c7 9a3d d79d aeba
00000250: 4961 a13b d3c5 62bc 1b5b 733d 3ba8 773d
00000260: 58da dfbb 3fba 2c3e 3e57 6e3f 512f 95bb
00000270: 060e 413d fde8 2cbd 2543 e53c c5b0 763d
00000280: 2ff4 243d 5e72 233d 0fbb febd 9957 103e
00000290: 3e41 6d3f 2c3c 2b3d 6575 113d 4151 f8bb
000002a0: 4be5 fc3c 558d d93b cb42 9dbc 29d2 5d3d
000002b0: 52d6 b3be 94a0 513d ad32 fd3d dd68 8f3d
000002c0: 0cc6 ca3b 69bc f33c 7b98 0c3e bfaf 30bc
000002d0: 8afc 0cbd 12b8 7d37 401d 523d b574 273c
000002e0: 4a3f 19ba d673 913c 60bf f7bd dd18 7a3d
000002f0: 224f ee3c 388c 813e 5090 1fbc 3e33 9fbd
00000300: a87c 513d a12c 94bd c6fa 8b3d 2e85 cb3c
00000310: ec6c ea3c c932 013d 0ba4 8f3d 73bb 94bd
00000320: b2e2 e73b f035 eabd 1691 713b 7b07 6dbd
00000330: 8332 453d 15e7 6d3d 71fe cfbc f1c5 f73c
00000340: b6ce 3a3d 21b4 3a3d e8d1 e3bd 3f53 a4be
00000350: 5fca c93d 43bf 133d 1bae 013e d435 923c
00000360: 5fd4 acbc 18ea c63d 7f98 373d 3803 d23d
00000370: 4f9a 87bc d8f5 57bd 91ef bb3d dd60 60bd
00000380: 3c63 f43a 637b 7d3d d80b 133e 2432 5a3d
00000390: 6a97 9dbd d758 47bc 370e 3c3c 5065 e8bb
000003a0: 8e6f c6bc 1eaf 54bc 4ff9 bfbe b882 8f3e
000003b0: 8511 9c3d 7847 813d 20f9 bb3d ff94 b53d
000003c0: 16e1 3a3d 73a4 14be dd10 1a3c 54a7 21bc
000003d0: 2fc2 153e 89ea dcbc f660 0cbd 3365 fe3c
000003e0: 7199 203c b2db e63c a9f9 be3c 45c6 e1bb
000003f0: 72b8 c03c 3341 083c b281 8fbc 4cab 98be

bias f4 [5]
0.73102754 0.54133487 -0.27100766 0.050657395 -0.3157009
00000000: 9f24 3b3f ec94 0a3f 84c1 8abe 217e 4f3d
00000010: 8ca3 a1be
