models/simple_speaker_listener/policy_model0.pkl (torch_old, 41123 bytes, 6 tensors)

weight f4 [128, 3]
0	0xbe7f15ee	-0.2491071
1	0xbe954532	-0.29154354
2	0xbec31905	-0.38105026
3	0x3e877b12	0.26461083
4	0xbec8f2e5	-0.39247814
5	0xbecee4af	-0.40408847
6	0x3d772d16	0.06034573
7	0xbf8e7711	-1.1130086
8	0xbe8fab83	-0.2806054
9	0x3e3d871d	0.18508573
10	0xbe32876e	-0.17434475
11	0x3ec3a39e	0.38210768
12	0xbe61d00c	-0.2205202
13	0xbdaac889	-0.0833903
14	0xbbf7a07e	-0.007556974
15	0x3c0ca90d	0.008585227
16	0xbe191fed	-0.14953585
17	0x3f83d876	1.0300434
18	0x3de97e13	0.11401
19	0xbea2c5d5	-0.3179156
20	0x3ea58056	0.32324475
21	0xbdb27a7b	-0.087147675
22	0xbe83950f	-0.2569966
23	0x3ef908e1	0.48639587
24	0x3e0ff5c4	0.14058596
25	0x3daa5a06	0.08317952
26	0x3f11bfb2	0.5693313
27	0xbe0ab709	-0.13546385
28	0xbef4a1d1	-0.47779706
29	0xbead562b	-0.33854803
30	0xbe861e17	-0.26194832
31	0xbe7b3c89	-0.24534811
32	0xbd7d0609	-0.061773334
33	0x3e900e68	0.2813599
34	0x3de750dd	0.1129472
35	0xbe3fd01f	-0.18731736
36	0xbd3a0bdc	-0.045421466
37	0xbf50bbf8	-0.8153682
38	0x3ded28ee	0.11580072
39	0xbe1ffcc6	-0.15623769
40	0x3c996b3e	0.018727895
41	0xbeea0782	-0.45708853
42	0xbf2d0485	-0.6758502
43	0xbe79e8d1	-0.24405219
44	0x3e0be9d9	0.13663425
45	0x3de4857d	0.11158273
46	0x3ebde74a	0.37090522
47	0xbd3c0c88	-0.04591039
48	0x3e4cb7a6	0.19991931
49	0x3e948f3b	0.29015526
50	0xbe7ca9cb	-0.24674146
51	0xbe831c0c	-0.25607336
52	0xbeac6e64	-0.3367797
53	0xbde64f96	-0.112456486
54	0x3e513639	0.2043084
55	0x3eb60b38	0.35555434
56	0x3f148d81	0.5802842
57	0x3f0e6689	0.55625206
58	0xbe68c957	-0.22733055
59	0x3ea65f94	0.32494795
60	0x3d31d18d	0.043412734
61	0x3e9313f8	0.28726172
62	0xbed4e968	-0.41584325
63	0x3b0ece06	0.002179028
64	0xbf039f33	-0.51414794
65	0x3ece3057	0.40271255
66	0x3f21bf36	0.6318239
67	0x3b926e92	0.0044687474
68	0xbe204f41	-0.15655233
69	0xbd246553	-0.040135693
70	0xbe2e0aa0	-0.1699624
71	0xbe9ab40e	-0.30215496
72	0xbe632be5	-0.22184713
73	0xbc32110e	-0.010868324
74	0x3ed41118	0.41419291
75	0xbe8d90ab	-0.27649435
76	0xbe9c0c14	-0.30477965
77	0xbdeacb35	-0.1146454
78	0x3da5a379	0.080878206
79	0x3d037feb	0.032104414
80	0xbdb07081	-0.086152084
81	0xbe417c99	-0.18895186
82	0xbdcd1d15	-0.100153126
83	0x3dcd7cc0	0.1003356
84	0x3ea0bc0e	0.31393474
85	0xbf30a3e4	-0.6900008
86	0x3ec7fd51	0.39060453
87	0x3ccd808a	0.025085706
88	0xbe95a2c2	-0.29225737
89	0x3df0b794	0.11753765
90	0xbeb5bd5a	-0.35496026
91	0xbe34a7c6	-0.17642125
92	0xbd830155	-0.063967384
93	0xbea9b341	-0.33144572
94	0x3e8d2fed	0.27575627
95	0x3d903db9	0.07043023
96	0x3f2ac5d9	0.6670814
97	0xbd695069	-0.05696145
98	0xbdce2611	-0.10065854
99	0xbef315b1	-0.47477487
100	0xbc31912b	-0.010837833
101	0xbea1b547	-0.31583616
102	0x3d977bea	0.073966816
103	0xbe2086b7	-0.1567639
104	0xbcb8c445	-0.022554526
105	0x3e05e3c8	0.13075173
106	0xbdad5a9d	-0.08464549
107	0xbf065fff	-0.5249023
108	0x3cc3832b	0.023866257
109	0x3d0061d2	0.03134329
110	0xbea78136	-0.32715768
111	0x3e852d0a	0.26010925
112	0xbf065a9d	-0.52482015
113	0x3bcd3293	0.0062621324
114	0xbc275f71	-0.010215626
115	0x3e4fd980	0.20297813
116	0xbf2bc76f	-0.67101187
117	0xbdca5b2f	-0.09880673
118	0xba9e324a	-0.0012069431
119	0xbddb8ac9	-0.107198305
120	0x3de5ed2c	0.112268776
121	0xbe911935	-0.28339544
122	0xbedb3783	-0.4281579
123	0x3e17625d	0.14783616
124	0x3e83961f	0.2570047
125	0x3ea70770	0.32622862
126	0x3d3136a4	0.043265
127	0x3e27c12a	0.1638228
128	0xbe83e45d	-0.25760165
129	0x3e9818f4	0.29706538
130	0xbe87d598	-0.26530147
131	0x3d2d4ab3	0.042307567
132	0x3ebb06b7	0.3652856
133	0xbf29218e	-0.66066825
134	0x3e7c03f0	0.24610877
135	0xbd640063	-0.05566443
136	0x3dedf6a2	0.11619307
137	0xbf141d81	-0.5785752
138	0x3ecfd7ae	0.40594238
139	0xbf0a8146	-0.54103506
140	0x3dc8f094	0.09811512
141	0x3e9b1067	0.30285951
142	0xbeeffac6	-0.46871012
143	0x3e52998d	0.20566387
144	0x3ea5f69b	0.32414708
145	0xbe6b0f30	-0.22955012
146	0x3eb9fc85	0.3632547
147	0xbf2a9714	-0.66636777
148	0xbe4e2181	-0.20129968
149	0xbe9ddfa5	-0.3083469
150	0xbf08437c	-0.53227973
151	0x3ef9801d	0.48730555
152	0xbe09ff7c	-0.13476366
153	0xbd8359ef	-0.06413638
154	0x3e31cb64	0.17362744
155	0xbc9668fa	-0.018360604
156	0xbe9194a6	-0.28433722
157	0x3de11ea5	0.10992173
158	0x3eae87f5	0.34088102
159	0x3e9b2541	0.3030186
160	0x3e2418bd	0.16025062
161	0x3e363da6	0.17796955
162	0x3f246d09	0.64228874
163	0xbeac5324	-0.3365718
164	0xbd595f8b	-0.053069633
165	0x3c8efa2b	0.017453274
166	0xbed9d9ce	-0.42548984
167	0xbceb27df	-0.028705535
168	0xbe6fe28e	-0.23426268
169	0x3eb80d00	0.35947418
170	0x3de16db4	0.11007252
171	0xbe3f2009	-0.18664564
172	0xbd4259f8	-0.047449082
173	0xbe444ff8	-0.1917113
174	0xbeaf76d0	-0.34270334
175	0x3f293dee	0.6611012
176	0x3c747db9	0.014922553
177	0xbdafa4a2	-0.08576323
178	0xbf44c78f	-0.76867
179	0xbd67791e	-0.05651199
180	0x3f1a0c35	0.60174876
181	0xbe898f7c	-0.26867282
182	0xbe498c8a	-0.19682518
183	0x3ebcf359	0.3690441
184	0x3efda94b	0.49543223
185	0xbda2c950	-0.079485536
186	0xbe4eac10	-0.20182824
187	0xbf4fcd55	-0.81172687
188	0xbdaba215	-0.08380524
189	0x3d9d053e	0.076670155
190	0x3e230a6c	0.15921944
191	0xbdb7b978	-0.08970922
192	0xbeaae3bf	-0.3337688
193	0x3ea0fef1	0.31444505
194	0x3f23155a	0.63704455
195	0xbe1ddd8f	-0.15416549
196	0xbe357c88	-0.17723286
197	0xbe822665	-0.25419918
198	0x3ef83bba	0.48483068
199	0xbea681da	-0.32520944
200	0x3e964236	0.2934739
201	0x3d89c450	0.06726897
202	0x3f01fc61	0.50775725
203	0xbe1a8102	-0.15088275
204	0x3e962465	0.29324642
205	0xbe9ed535	-0.3102204
206	0x3e605a83	0.21909527
207	0x3f053118	0.52028036
208	0xbed08acb	-0.4073089
209	0x3e5e16e2	0.21688417
210	0x3e33f1b0	0.17572665
211	0xbe2101fd	-0.15723415
212	0x3f1b74a1	0.60724837
213	0xbe0cd376	-0.13752541
214	0x3e3c7ac1	0.18406202
215	0xbf3457cd	-0.70446473
216	0xbde505dc	-0.11182758
217	0xbe6035f0	-0.21895576
218	0x3ef9abc2	0.48763853
219	0x3e52b1c5	0.20575626
220	0x3eb48f8e	0.35265774
221	0xbe38c44f	-0.18043636
222	0xbf197b8d	-0.5995415
223	0xbda6084d	-0.08107052
224	0xbdf5fdf2	-0.12011327
225	0x3e62b8e1	0.22140838
226	0xbe44c73c	-0.19216627
227	0x3f090dd9	0.53536755
228	0x3cc7c778	0.024387106
229	0x3f2b03fe	0.66802967
230	0xbeca4501	-0.3950577
231	0xbdd6c550	-0.10486853
232	0x3f37ec5b	0.71845025
233	0x3f2a380c	0.6649177
234	0xbebf4f6d	-0.37365285
235	0xbde789e2	-0.11305596
236	0x3cba4e35	0.02274237
237	0x3d96798b	0.07347401
238	0x3e0d7364	0.1381355
239	0x3ecff175	0.40613905
240	0xbe59adce	-0.21257707
241	0x3d7a5112	0.06111247
242	0xbf3d80c1	-0.7402459
243	0x3f168286	0.5879291
244	0x3d3865cf	0.045018967
245	0xbe9d0b58	-0.30672717
246	0xbed7f525	-0.42179218
247	0xbdfc3356	-0.12314479
248	0x3df8757c	0.12131783
249	0xbcc65a2e	-0.024212923
250	0xbd6ce362	-0.057834037
251	0x3e0d77d0	0.13815236
252	0xbe69b374	-0.22822362
253	0x3de4cb07	0.11171537
254	0x3e861077	0.26184437
255	0xbe13fcdc	-0.14451927

bias f4 [128]
0	0x3e4550c7	0.19269095
1	0x3e1f56a8	0.155604
2	0x3e24fd4c	0.1611225
3	0x3b09dede	0.002103738
4	0x3cd4f36d	0.02599498
5	0xbe1c6201	-0.1527176
6	0xbe58d727	-0.21175824
7	0xbd371186	-0.044694446
8	0xbee55f3e	-0.44799227
9	0x3e138b66	0.14408645
10	0x3de27101	0.1105671
11	0xbe33eb24	-0.17570168
12	0x3c075d82	0.00826204
13	0x3e4a9c10	0.19786096
14	0x3d2bb5dd	0.041921485
15	0xbd0695b0	-0.032857597
16	0x3daf95da	0.08573504
17	0x3daaeb89	0.08345706
18	0xbd8616da	-0.06547327
19	0xbeca8761	-0.3955641
20	0xbd9a00a6	-0.07519655
21	0xbe60a367	-0.21937333
22	0xbe291dec	-0.1651532
23	0x3d7f269e	0.062292688
24	0xbddf3064	-0.10897902
25	0x3e0b1ae7	0.13584481
26	0xbd80fd3e	-0.06298302
27	0xbd46b60e	-0.048513465
28	0xbe6916b5	-0.22762568
29	0xbd52082f	-0.051277336
30	0x3db77d53	0.089594506
31	0x3e928fea	0.28625423
32	0xbe52668c	-0.20546931
33	0x3eab7b19	0.33492354
34	0xbd8b30f2	-0.06796445
35	0xbc44997b	-0.011999483
36	0xbbbd2b59	-0.0057729897
37	0xbe108f83	-0.14117245
38	0x3e463576	0.19356331
39	0x3cc4e94f	0.024037031
40	0x3c9d5f37	0.019210441
41	0xbe999fdb	-0.30004773
42	0xbd9e7360	-0.0773685
43	0xbe2c8449	-0.16847338
44	0xbeca468a	-0.39506942
45	0x3dd6b84f	0.10484373
46	0xbe548090	-0.20752168
47	0xbe822201	-0.25416568
48	0xbe8289d6	-0.25495785
49	0x3e6cda9e	0.23130271
50	0x3e7132ce	0.23554537
51	0xbe18d38f	-0.14924453
52	0xbe6282b0	-0.22120166
53	0xbe918a84	-0.28425992
54	0xbdea9c74	-0.11455622
55	0xbda9bb3d	-0.08287666
56	0x3d310af6	0.043223344
57	0x3d630c8c	0.055431888
58	0x3de798d0	0.113084435
59	0x3e0e21a4	0.1388002
60	0xbd9027f4	-0.070388705
61	0xbe31a970	-0.17349792
62	0x3df311fb	0.11868664
63	0xbe097dad	-0.13426848
64	0xbe5e677d	-0.21719165
65	0x3e03f4c3	0.12886338
66	0xbecae86b	-0.39630446
67	0xbe0bcc04	-0.13652045
68	0xbe7593e4	-0.23982197
69	0xbef775f3	-0.48332176
70	0xbdebf783	-0.115218185
71	0xbccf6438	-0.025316343
72	0x3d35cdb2	0.04438562
73	0xbe9a6dd5	-0.3016192
74	0x3e1e7d97	0.15477596
75	0xbe5d6ff4	-0.21624738
76	0x3cc25838	0.023723707
77	0xbd21fe2c	-0.039549038
78	0x3bf7f8fe	0.007567524
79	0xbebd44db	-0.36966595
80	0x3d416c44	0.04722239
81	0xbe24e1cf	-0.16101764
82	0xbcf761e4	-0.030198045
83	0xbde9db2f	-0.11418759
84	0x3d4837d9	0.048881385
85	0x3ea763ad	0.32693234
86	0xbd12c7d2	-0.035835095
87	0xbde2dc85	-0.11077217
88	0xbc8a47a3	-0.016879862
89	0x3e3e7216	0.18598208
90	0xbea7fb76	-0.32809037
91	0x3d9cb29f	0.07651257
92	0xbdf254f6	-0.11832611
93	0x3da0ff65	0.07861213
94	0xbe43cc08	-0.191208
95	0xbdff4e52	-0.1246611
96	0xbdbe9cd5	-0.09307257
97	0x3d177e0b	0.03698544
98	0xbe7ef962	-0.2489982
99	0xbe24847b	-0.16066162
100	0x3da4b29e	0.08041881
101	0xbe18a926	-0.14908275
102	0xbeaacae7	-0.33357927
103	0x3d94ea4f	0.07271253
104	0xbe0191a1	-0.1265321
105	0xbe0062ef	-0.1253774
106	0x3d1bc3e9	0.03802863
107	0x3e25b2e7	0.16181527
108	0xbe917923	-0.28412732
109	0xbde2beaa	-0.110715225
110	0xbd055705	-0.03255369
111	0xbe824a1f	-0.25447175
112	0xbec0b18a	-0.37635452
113	0xbd2a15d3	-0.04152472
114	0xbdfd1960	-0.123583555
115	0xbe56989f	-0.20956658
116	0xbe181edd	-0.14855523
117	0xbe968e85	-0.2940561
118	0x3d6b0c74	0.057384923
119	0xbd8e4646	-0.06946997
120	0x3e64e43b	0.22352688
121	0x3e0ac96f	0.13553403
122	0x3cbb22a5	0.022843668
123	0xbd63394e	-0.055474572
124	0xbed35b74	-0.4128071
125	0xbe24ded4	-0.16100627
126	0xbe214ddd	-0.15752359
127	0xbeb23c43	-0.348116

weight f4 [64, 128]
0	0x3e922ca5	0.28549686
1	0xbef5168c	-0.47868764
2	0x3e0d730d	0.1381342
3	0xbe9bcdfc	-0.3043059
4	0xbd7c8820	-0.061653256
5	0x3f01af33	0.5065796
6	0x3eafb40e	0.34317058
7	0x3e818ae1	0.2530127
8	0xbe7238e6	-0.23654518
9	0xbd562eed	-0.052290846
10	0xbe1185da	-0.14211217
11	0xbebcb7aa	-0.36858875
12	0x3ef6deb1	0.48216775
13	0x3ecbba00	0.39790344
14	0xbe31d67f	-0.1736698
15	0x3e83a930	0.25715017
16	0x3f0acf48	0.54222536
17	0x3e20bbfd	0.15696712
18	0x3e1630ce	0.14667055
19	0xbdb9afb3	-0.09066715
20	0xbe47aafe	-0.19498822
21	0x3d29bfe2	0.04144276
22	0xbe9cd01b	-0.30627522
23	0x3ec063cc	0.3757614
24	0xbd3297da	-0.04360185
25	0x3e99e0f1	0.3005443
26	0x3e9683d4	0.29397452
27	0xbeb4d2f0	-0.35317183
28	0x3ddf5142	0.109041706
29	0x3e94c475	0.29056135
30	0xbd49b50a	-0.049244918
31	0x3e5eaada	0.21744862
32	0xbf70fd8c	-0.9413688
33	0xbeb35a81	-0.35029987
34	0xbd94e41d	-0.07270072
35	0xbe9a3e6f	-0.30125758
36	0xbcddf5d7	-0.027094765
37	0xbe0f22af	-0.13978074
38	0xbeeb77ef	-0.4598994
39	0xbeac90a7	-0.3370411
40	0xbe1549c0	-0.14578915
41	0xbe20f024	-0.15716606
42	0xbe6288f0	-0.2212255
43	0xbe877bcc	-0.26461637
44	0xbe906026	-0.28198355
45	0xbe9d2c6f	-0.30697963
46	0x3bf2ae08	0.007406
47	0x3db8c2d7	0.09021538
48	0xbd010360	-0.03149736
49	0x3ee684e5	0.45023265
50	0x3e157d6d	0.14598627
51	0xbe0a0ca4	-0.13481385
52	0x3de0fb7b	0.10985466
53	0x3c59cc1d	0.013293293
54	0xbf3421c3	-0.70364016
55	0x3e8ba42f	0.272737
56	0x3e8608b8	0.26178527
57	0xbe8314d5	-0.2560183
58	0x3e815e11	0.2526708
59	0xbd767976	-0.060174428
60	0xbf092a27	-0.53579944
61	0xbf0382f9	-0.51371723
62	0x3de3ff89	0.11132724
63	0x3cc0d26c	0.023537837
64	0xbea3a89f	-0.31964585
65	0xbcf06a89	-0.029347675
66	0xbe519ba9	-0.20469536
67	0x3d40f57b	0.04710911
68	0x3e93ee1b	0.28892598
69	0xbe84b08c	-0.25915945
70	0x3f1efa8a	0.6210104
71	0xbd1e97e1	-0.03871906
72	0x3dc7f546	0.09763579
73	0xbe1bd6b2	-0.15218619
74	0x3e0fc0db	0.14038412
75	0x3eb770c2	0.35828215
76	0xbefc8575	-0.4932057
77	0x3edf42f6	0.43605775
78	0xbe868269	-0.2627137
79	0x3d58fb0b	0.05297379
80	0xbdb12374	-0.0864934
81	0xba5a3bf7	-0.00083249755
82	0x3e15bf26	0.14623699
83	0xbab576f7	-0.0013844658
84	0xbde26de9	-0.1105612
85	0xbe374b30	-0.17899776
86	0x3e961ff8	0.29321265
87	0xbe70cc7e	-0.23515508
88	0xbe51dd7a	-0.20494643
89	0x3dfa1d88	0.12212664
90	0x3e1ca436	0.15297017
91	0xbe526a68	-0.20548403
92	0x3f28608f	0.65772337
93	0x3e329676	0.17440209
94	0xbef61f93	-0.48070964
95	0xbe4c976d	-0.1997964
96	0xbe242141	-0.1602831
97	0x3eb2f296	0.34950703
98	0x3ea24c8c	0.31699026
99	0xbf2f16f6	-0.6839441
100	0xbdae7761	-0.085188635
101	0x3e11de68	0.14244998
102	0xbd295cec	-0.041348383
103	0x3e590c48	0.21196091
104	0xbcd06172	-0.02543709
105	0xbe357e5d	-0.17723985
106	0x3e4e021e	0.20117995
107	0x3dc5cdf0	0.0965842
108	0x3e5d2666	0.21596679
109	0xbeb31bed	-0.34982243
110	0x3e1d22f5	0.15345366
111	0xbf1bce36	-0.6086153
112	0x3e81d540	0.2535801
113	0xbead3069	-0.33825997
114	0xbf4026bf	-0.7505912
115	0xbd4b2588	-0.04959634
116	0x3e031a5b	0.12803023
117	0x3dd0ea1e	0.10200904
118	0x3ce1f1dc	0.027581148
119	0xbe834bce	-0.25643772
120	0xbe601091	-0.2188132
121	0x3e5fbb54	0.21848804
122	0x3f0a8ba1	0.54119307
123	0xbef3b309	-0.4759753
124	0x3ebdca06	0.37068194
125	0x3ed1e370	0.40993834
126	0xbd0cee65	-0.03440704
127	0xbe583801	-0.21115114
128	0xbb9605a4	-0.004578309
129	0xbe84fd10	-0.2597432
130	0x3e0ec23c	0.13941282
131	0xbe576f99	-0.21038665
132	0x3ea58d77	0.32334492
133	0xbe8990ca	-0.26868278
134	0x3f116125	0.56788856
135	0xbd7e554c	-0.062093064
136	0x3efef7ab	0.4979833
137	0x3ec171e4	0.37782204
138	0x3ea3efbe	0.32018846
139	0x3f16bc5a	0.5888115
140	0x3e70ed48	0.23528016
141	0x3e906e4e	0.28209156
142	0x3ec13dbb	0.3774241
143	0x3d185b95	0.037196714
144	0xbe08c2c0	-0.13355541
145	0x3eb8c105	0.36084762
146	0x3ed2ef65	0.4119827
147	0xbf2424a7	-0.6411843
148	0xbd290196	-0.041261278
149	0x3f034232	0.5127288
150	0x3a05b154	0.00050999713
151	0x3ecf4306	0.40480822
152	0xbde397fc	-0.11112973
153	0x3e448cc0	0.19194317
154	0xbd9a269c	-0.075268954
155	0x3f0f25a1	0.5591679
156	0x3e7f025d	0.24903245
157	0x3eac21c0	0.336195
158	0x3ebcd52e	0.36881393
159	0xbdabd71f	-0.083906405
160	0xbe1f7f89	-0.15575995
161	0xbeb5ef7a	-0.3553427
162	0x3f59b4f2	0.85041726
163	0x3e9aada4	0.30210602
164	0x3de1c447	0.11023765
165	0x3ed03b0c	0.4067005
166	0xb8e092fd	-0.00010708531
167	0x3ea72e0f	0.32652327
168	0x3e81cef4	0.25353205
169	0x3c61e247	0.013786859
170	0x3ea3e425	0.32009998
171	0xbe1a93f4	-0.15095502
172	0x3ee6f4c8	0.45108628
173	0x3ea34af1	0.31893113
174	0x3ea4c157	0.32178757
175	0x3eb4838d	0.35256615
176	0xbe1b6ac5	-0.15177448
177	0x3d992522	0.07477786
178	0x3e015a83	0.12632184
179	0x3ef739db	0.48286328
180	0x3dc8bb43	0.09801342
181	0x3e63b269	0.22236027
182	0x3e991ab2	0.2990318
183	0x3e876567	0.2644455
184	0xbe796fa1	-0.2435899
185	0x3ed6dc46	0.4196493
186	0xbd545aa6	-0.05184426
187	0x3e969bc5	0.29415718
188	0x3db58198	0.08862609
189	0x3eb4ec30	0.35336447
190	0x3f32c1f8	0.6982722
191	0x3f0283cb	0.5098235
192	0x3e66b623	0.22530417
193	0x3e6159f0	0.22006965
194	0xbe525f5e	-0.20544192
195	0xbeae6e2a	-0.34068424
196	0x3ec39998	0.3820312
197	0x3eff825a	0.49904138
198	0x3ebc9af0	0.36836958
199	0x3ec2c7b4	0.38042986
200	0xbeab246a	-0.3342622
201	0x3f0643e8	0.52447367
202	0x3d46db44	0.04854895
203	0xbdf4556e	-0.11930357
204	0xbe895fa8	-0.26830792
205	0xbedccb79	-0.43123987
206	0xbde26990	-0.11055291
207	0x3ed622d3	0.41823444
208	0x3f1a3010	0.6022959
209	0x3e695893	0.22787695
210	0x3e3c21a0	0.18372202
211	0x3e075945	0.13217647
212	0x3dd07383	0.10178282
213	0xbe35daa7	-0.1775919
214	0xbe9167df	-0.2839956
215	0xbcf90927	-0.030399872
216	0x3e900d6d	0.28135243
217	0x3ed971d6	0.42469662
218	0x3e9e08b3	0.30866012
219	0x3e4e0245	0.20118053
220	0xbf361c7a	-0.711372
221	0x3d458b7c	0.048228726
222	0x3e8c35f6	0.2738492
223	0x3ebcc302	0.3686753
224	0x3e58b46e	0.21162578
225	0x3e603d5a	0.21898404
226	0x3df6d6c8	0.12052685
227	0x3e311cde	0.17296168
228	0x3ea93e74	0.3305546
229	0x3e879a7b	0.26485047
230	0x3e40c72f	0.18825983
231	0xbeee9cee	-0.46604103
232	0xbe214101	-0.15747453
233	0x3debe04f	0.11517393
234	0x3dcd2ce8	0.10018331
235	0xbe805afe	-0.25069422
236	0x3e44f801	0.19235231
237	0x3ece71e9	0.40321282
238	0xbec93e2d	-0.3930525
239	0x3e80801b	0.25097737
240	0xbe0f6d99	-0.14006652
241	0x3d5396cb	0.05165748
242	0x3e42ba3e	0.19016358
243	0x3ef47330	0.4774413
244	0x3e07c09c	0.13257068
245	0x3e81bafd	0.25337973
246	0x3e140ea0	0.14458704
247	0x3e3e5b0d	0.1858942
248	0xbd95027f	-0.07275867
249	0x3df49abf	0.11943578
250	0x3eaab548	0.33341432
251	0xbf03cf7d	-0.51488477
252	0x3ecde9e3	0.40217504
253	0x3de7c94b	0.113176905
254	0xbe8454f9	-0.2584608
255	0x3ee9d9a1	0.4567385

bias f4 [64]
0	0x3d8c7969	0.06859095
1	0xbe93b88a	-0.2885173
2	0xbebf4d6e	-0.37363762
3	0x3ef3eb53	0.47640476
4	0xbdae9e3c	-0.085262746
5	0xbe8899f9	-0.26679972
6	0x3ec76b8e	0.38949245
7	0x3eff22d6	0.49831265
8	0xbe2bcf9c	-0.16778415
9	0x3ed37d94	0.41306746
10	0xbee60a34	-0.4492966
11	0x3ebcbf51	0.36864713
12	0x3e1678b6	0.14694485
13	0xbe16a0c2	-0.14709762
14	0xbd6cda89	-0.0578256
15	0x3e4d3626	0.20040187
16	0xbe8e5f97	-0.27807304
17	0xbe489540	-0.19588184
18	0x3b86d053	0.0041141897
19	0x3e7af674	0.24508077
20	0x3d3f6dcf	0.04673558
21	0xbe8ba2f0	-0.2727275
22	0x3e56d48c	0.20979518
23	0x3deec730	0.11659086
24	0x3d0cd66e	0.034384184
25	0x3c8c1fc8	0.017104998
26	0x3e0928e4	0.13394505
27	0xbe975feb	-0.29565367
28	0xbd8bbc54	-0.0682303
29	0x3e4d806c	0.2006852
30	0x3e6c54f9	0.2307929
31	0xbb0d1bee	-0.002153154
32	0x3e7b31e0	0.24530745
33	0xbe07e06f	-0.13269208
34	0x3eb59e44	0.3547231
35	0xbe3a9a09	-0.18222822
36	0xbf111d93	-0.5668575
37	0x3ea13fa7	0.31493875
38	0xbdf75951	-0.12077583
39	0xbec9bdf7	-0.39402744
40	0xba99640b	-0.0011702789
41	0xbe1b00a8	-0.15136969
42	0x3cbeafb1	0.023277136
43	0xbd9dc466	-0.07703476
44	0x3cf9e68a	0.030505437
45	0xbcee0e84	-0.029059656
46	0x3d277776	0.04088541
47	0x3e10f662	0.14156488
48	0x3e0a63b6	0.13514599
49	0xbb0965d9	-0.0020965247
50	0xbecc8277	-0.39943287
51	0xbe4e720b	-0.20160691
52	0xbcf2aa92	-0.02962235
53	0xbe90da6e	-0.2829165
54	0xbe0605b6	-0.13088116
55	0xbd28aff4	-0.041183427
56	0xbd282264	-0.041048422
57	0xbe35fa01	-0.1777115
58	0xbe4eec1f	-0.2020726
59	0x3d8012d9	0.06253595
60	0xbe5fd980	-0.21860313
61	0x3e10529e	0.14094016
62	0xbc3a4216	-0.011368295
63	0xbed33874	-0.41254008

weight f4 [3, 64]
0	0xbf2ce1f8	-0.675323
1	0xbd57f6ff	-0.05272579
2	0x3d86ea52	0.06587662
3	0xbee0ff05	-0.43944564
4	0x3f016a4c	0.5055282
5	0x3c0bef54	0.008540947
6	0x3e97841e	0.29592985
7	0x3ed4db56	0.4157359
8	0x3e35048d	0.17677517
9	0x3f1e7043	0.6189005
10	0x3e063efa	0.13109961
11	0xbcf64882	-0.030063871
12	0x3edd3f2a	0.43212253
13	0x3e6f17e7	0.23348962
14	0xbeae04a7	-0.33987924
15	0x3ed7063b	0.4199694
16	0x3e29f5ae	0.16597626
17	0xbe50bab6	-0.20383725
18	0x3e80bf61	0.2514601
19	0x3e10ffca	0.14160076
20	0xbd1f3e04	-0.038877502
21	0x3e260044	0.16211039
22	0x3e57274c	0.21011084
23	0x3edd87ce	0.43267673
24	0xbece3d3c	-0.40281093
25	0x3ecfe4e1	0.40604308
26	0x3b55abb2	0.003260356
27	0xbd7bdd39	-0.06149027
28	0xbc12f604	-0.0089697875
29	0x3e23f452	0.1601117
30	0xbe872019	-0.26391676
31	0xbd5aa1b1	-0.053376857
32	0x3f1433f0	0.5789175
33	0x3d834934	0.06410447
34	0xbb086e1a	-0.0020817579
35	0xbd308d84	-0.04310371
36	0xbdc5347a	-0.0962915
37	0xbf54f3fc	-0.8318479
38	0xbeb02b93	-0.34408244
39	0x3d84e985	0.06489853
40	0xbb8a4f1d	-0.004220857
41	0xbdaf926d	-0.085728504
42	0x3e4fd0a0	0.20294428
43	0x3e990372	0.2988544
44	0x3dafe1f0	0.08588016
45	0x3e246c7b	0.16057007
46	0x3e54a248	0.2076503
47	0x3d799a6b	0.06093828
48	0xbf285c5b	-0.65765923
49	0x3dc39d8c	0.09551534
50	0xbe064a90	-0.13114381
51	0x3e1c0bee	0.15238926
52	0x3d63c4ae	0.05560749
53	0x3d38d9ed	0.045129705
54	0x3e0158d6	0.12631544
55	0x3d78eef5	0.060774762
56	0x3e34d970	0.17661071
57	0x3dd10288	0.10205561
58	0x3e27bdd5	0.16381009
59	0x3d8c99ea	0.06865294
60	0x3ef7abdd	0.4837331
61	0xbc631e64	-0.013862226
62	0x3ef5f6f1	0.48039964
63	0xbd68b081	-0.056808952
64	0x3d4248f5	0.04743286
65	0xbcd954e6	-0.02652974
66	0x3eb6e57f	0.35721967
67	0x3f539933	0.8265564
68	0x3f1b2ef0	0.60618496
69	0xbd26d9fd	-0.040735234
70	0xbecfd5ad	-0.4059271
71	0x3dc46160	0.09588885
72	0xbbf4ecaf	-0.007474504
73	0xbdc967c2	-0.09834243
74	0x3f05b43b	0.52228135
75	0x3eaa4c27	0.33261225
76	0xbd1c047c	-0.038090214
77	0x3d571261	0.052507762
78	0x3e69dab7	0.2283734
79	0x3e2a9920	0.16659975
80	0x3e09a536	0.13441929
81	0x3d7120c3	0.058869135
82	0x3d949263	0.072544836
83	0xbf3bb7de	-0.73327434
84	0xbe73db54	-0.23814136
85	0x3e03a158	0.12854517
86	0xbdc7fe63	-0.09765317
87	0xbdd57820	-0.10423303
88	0x3e06f437	0.13179098
89	0x3e2f244b	0.17103688
90	0x3cc5e510	0.024157077
91	0x3da19f5e	0.07891725
92	0x3dbc1f83	0.09185698
93	0xbe8fb2cd	-0.28066102
94	0x3f00c57f	0.50301355
95	0xbde22458	-0.11042088
96	0xbe840489	-0.2578471
97	0xbc24c724	-0.010057244
98	0x3e261d6b	0.1622216
99	0xbccfe9b8	-0.02538
100	0xbdf3ac9f	-0.11898159
101	0x3e2036a6	0.15645847
102	0xbdf9b16f	-0.12192046
103	0xbe51ab6e	-0.20475551
104	0x3e254fe5	0.16143759
105	0x3e94f77c	0.29095066
106	0xbf3f0201	-0.7461243
107	0x3d4c159a	0.04982529
108	0x3dec323a	0.115330175
109	0xbe021788	-0.12704289
110	0xbd62b056	-0.05534395
111	0x3e01479a	0.1262497
112	0x3e9ab908	0.30219293
113	0x3ccea1ae	0.02522358
114	0x3bc179ad	0.0059043975
115	0x3e51ada2	0.20476392
116	0x3d44fa89	0.04809049
117	0xbcbbdaf9	-0.022931563
118	0xbe4d960d	-0.20076771
119	0x3d9791d7	0.074008636
120	0x3d897e31	0.06713522
121	0xbdc368c3	-0.09541466
122	0x3eaec5aa	0.3413518
123	0xbf10ba2d	-0.5653408
124	0x3ebf4b05	0.37361923
125	0xbc0c7304	-0.008572344
126	0x3f28a1a8	0.6587167
127	0xbd816c56	-0.063194916
128	0x3db6c18f	0.08923637
129	0xbe16ec04	-0.1473847
130	0x3eb8bc86	0.36081332
131	0xbd0fad3c	-0.03507732
132	0x3c0b2a78	0.008494012
133	0x3ac33632	0.0014893471
134	0x3e3ef97b	0.18649857
135	0xbe97a927	-0.2962124
136	0x3e32d540	0.17464161
137	0xbd5de8fc	-0.05417727
138	0x3e6a5999	0.22885741
139	0xbeee9ddb	-0.4660481
140	0xbd57a41c	-0.05264674
141	0x3c954125	0.01821954
142	0x3e24d7af	0.16097902
143	0x3dc631c2	0.09677459
144	0x3e3b078a	0.18264595
145	0x3e131991	0.14365222
146	0x3e720085	0.2363301
147	0xbe925e18	-0.28587413
148	0x3e189f96	0.14904627
149	0x3c8883af	0.016664354
150	0x3dbd20d8	0.0923478
151	0xbc14f6c7	-0.009092039
152	0x3e54b67e	0.2077274
153	0x3e4e56e2	0.2015033
154	0xbeb47627	-0.35246393
155	0xbe850bc8	-0.2598555
156	0x3de28190	0.11059868
157	0xbe7f552e	-0.24934837
158	0x3e8693db	0.2628468
159	0x3f02c1f5	0.51077205
160	0x3de3f5eb	0.111308895
161	0x3d35e992	0.044412203
162	0xbedb8c2b	-0.42880377
163	0xbd3e4d03	-0.046460163
164	0xbe261c1d	-0.16221662
165	0x3e82fba3	0.2558261
166	0xbd46734e	-0.048449807
167	0xbda141a2	-0.078738466
168	0xbebedf5a	-0.3727978
169	0x3dcf9f44	0.101377994
170	0xbe9b0e2a	-0.30284244
171	0xbae2f9d9	-0.0017316892
172	0x3d76947d	0.060200203
173	0xbd6e7477	-0.05821654
174	0x3d9e42c1	0.07727576
175	0x3de2d8bd	0.11076496
176	0x3ec8acd0	0.39194345
177	0x3c033e4e	0.00801046
178	0xbe92d5fb	-0.2867888
179	0x3dacf313	0.084448
180	0xbdd52a65	-0.10408477
181	0x3d30c68c	0.0431581
182	0x3e33e03b	0.17566006
183	0x3e237a4a	0.15964618
184	0x3b171978	0.0023055952
185	0xbeb31b5d	-0.34981814
186	0x3e693835	0.22775348
187	0x3e96a565	0.2942306
188	0x3eff3431	0.49844506
189	0x3e05d778	0.13070476
190	0x3e6863d9	0.22694339
191	0xbd798eac	-0.060927078

bias f4 [3]
0	0x3ec3a031	0.38208154
1	0xbeb4a057	-0.3527858
2	0x3d491925	0.049096245
