models/simple_spread/policy_model0.pkl (torch_old, 49324 bytes, 6 tensors)

weight f4 [128, 18]
-0.09452411 0.3535074 0.026091853 -0.059840158 0.1917349 -0.4993938 -0.2905 -0.5280441
-0.11992103 0.22869787 -0.67252916 -0.033440597 -0.20823002 -0.16823427 0.038915485 0.2082493
0.19677523 -0.24439397 -0.17869686 0.09515366 -0.1839654 0.34611836 0.22939703 -0.14974503
0.1090726 -0.3569631 0.16418226 0.26463774 -0.069477536 -0.21018793 -0.3475027 0.038279906
0.03179881 0.10321939 -0.17956236 -0.17044884 0.31893212 0.38700286 -0.080036975 0.15185192
-0.2019372 -0.16177174 -0.3364854 0.2901318 -0.33789533 -0.17202266 0.03972317 -0.27730864
-0.46298444 0.16031066 0.25171566 0.18097576 0.02622202 0.22873086 0.24218316 0.005975608
-0.025122732 -0.007855429 -0.2284178 -0.044486087 -0.020589849 0.59460753 0.13426566 -0.306563
-0.32856467 0.28499207 -0.1574487 0.53263104 0.08515477 -0.1794573 0.1884647 0.08345401
0.27208874 -0.16357411 0.09028428 -0.6586169 -0.5582265 -0.27698955 0.2810927 0.029875984
0.03802815 -0.49274433 -0.02496946 0.005169719 0.59232485 -0.0071056085 0.05273938 0.059557647
-0.23318295 -0.24070668 0.00259317 -0.25515923 0.14562514 0.1841203 0.001253183 -0.3595021
-0.43471578 -0.09155039 -0.58101183 0.6043085 0.072218545 0.24753411 -0.19456 0.56679785
-0.22383985 -0.023626804 0.26568294 -0.17569482 0.08546802 0.116224304 -0.28564617 0.24830852
0.2986053 -0.042482823 -1.22285 -0.1230232 0.75188756 0.16231026 -0.351375 0.41129488
0.008359809 -0.26720497 -0.11655478 0.12774679 -0.17144954 -0.28491142 0.0030479662 0.1321268
0.110854216 0.15739866 -0.27181852 0.6830341 -0.04502606 -0.15512957 -0.37639982 -0.72427034
-0.13846605 0.008494122 0.058154132 -0.08075856 0.096541554 0.023430109 -0.07680388 -0.061403126
-0.048782203 -0.44491202 -0.69708264 0.17463584 0.097782046 0.36728695 -0.0013454584 0.31956756
-0.40278757 0.351379 0.20294204 0.15332675 0.31511074 0.18476549 0.16345331 -0.20113009
0.12529635 -0.21276572 -0.1619209 0.19043161 -0.38431263 0.12421622 0.33100346 -0.20185892
0.259264 -0.11542206 0.44592726 0.26425868 0.23166588 -0.6585271 -0.44455773 0.026860958
0.24641794 -0.04067938 -0.12951386 0.22199959 -0.26714537 0.100572206 -0.49816716 0.37284845
0.21159746 -0.60017216 0.37806267 0.11825598 -0.21098754 0.0959129 0.3117951 -0.5456286
0.31040758 0.3570957 -0.24787873 0.2719227 0.18138725 0.16388711 0.08569073 -0.10943746
0.051411368 0.1479178 0.11573148 -0.21554935 0.02452569 0.38683078 0.10541081 0.54542434
-0.050254177 0.66651404 0.16937861 -0.39410344 -0.23344983 0.27614665 -0.036770165 -0.17028917
-0.1966736 -0.29918972 -0.02006184 -0.3009316 0.34539843 -0.029705046 -0.17854886 -0.5515979
-0.23948139 0.16197456 0.15791865 0.32457718 0.6613062 -0.4829987 -0.24054411 0.24631464
0.2382834 0.22973591 -0.15701957 -0.26922885 -0.50243956 -0.27013615 -0.012418826 0.04243549
0.36576086 0.16033041 0.7190583 -0.03385928 0.17974338 0.39469233 -0.98546326 -0.61008465
-0.2339713 0.1413449 0.19683352 0.12146264 -0.009850747 -0.36643866 0.28737408 0.08053505
00000000: db95 c1bd ecfe b43e 95be d53c f41a 75bd
00000010: 2756 443e 8bb0 ffbe 6abc 94be e62d 07bf
00000020: 2899 f5bd c62f 6a3e df2a 2cbf 02f9 08bd
00000030: 403a 55be 9b45 2cbe d865 1f3d 4e3f 553e
00000040: 727f 493e 6a42 7abe 4ffc 36be ecdf c23d
00000050: 6d61 3cbe 6d36 b13e 0ee7 6a3e c356 19be
00000060: 7561 df3d dec3 b6be 651f 283e 997e 873e
00000070: 3d4a 8ebd 813b 57be e0eb b1be 64cb 1c3d
00000080: 783f 023d b064 d33d 32df 37be 248a 2ebe
00000090: 124b a33e 3d25 c63e 6dea a3bd 127f 1b3e
000000a0: a0c8 4ebe 7ea7 25be d047 acbe 288c 943e
000000b0: 9e00 adbe b526 30be c3b4 223d 66fb 8dbe
000000c0: 4c0c edbe 7a28 243e e0e0 803e b651 393e
000000d0: 90cf d63c 6c38 6a3e ddfe 773e 08cf c33b
000000e0: 30ce cdbc 0fb4 00bc 5be6 69be 0b37 36bd
000000f0: 0bac a8bc 3338 183f f07c 093e d3f5 9cbe
00000100: a139 a8be 7bea 913e 3b3a 21be 825a 083f
00000110: a065 ae3d a8c3 37be e4fc 403e f0e9 aa3d
00000120: 374f 8b3e f97f 27be f7e6 b83d 1e9b 28bf
00000130: efe7 0ebf 93d1 8dbe 62eb 8f3e 7bbe f43c
00000140: 68c3 1b3d fc48 fcbe c18c ccbc bf66 a93b
00000150: 9aa2 173f 2ad6 e8bb 4005 583d b8f2 733d
00000160: 83c7 6ebe d07b 76be 2cf2 293b 3ba4 82be
00000170: c21e 153e 088a 3c3e d841 a43a a910 b8be
00000180: 1193 debe c57e bbbd 31bd 14bf f6b3 1a3f
00000190: 51e7 933d 9579 7d3e bd3a 47be aa19 113f
000001a0: 4636 65be 008d c1bc 9807 883e 58e9 33be
000001b0: db09 af3d 0207 ee3d 3740 92be 9744 7e3e
000001c0: cbe2 983e 7802 2ebd 5986 9cbf 96f3 fbbd
000001d0: b47b 403f a934 263e 6de7 b3be 3e95 d23e
000001e0: 95f7 083c 17cf 88be 46b4 eebd 0ed0 023e
000001f0: 7890 2fbe e9df 91be 63c0 473b 3f4c 073e
00000200: 8907 e33d 1d2d 213e cc2b 8bbe 53db 2e3f
00000210: 3f6d 38bd 49da 1ebe 7ab7 c0be c869 39bf
00000220: 0bca 0dbe ee2a 0b3c 0733 6e3d be64 a5bd
00000230: 94b7 c53d 80f0 bf3c 5a4b 9dbd d881 7bbd
00000240: d9cf 47bd 82cb e3be 0274 32bf bdd3 323e
00000250: f441 c83d 090d bc3e 185a b0ba 5c9e a33e
00000260: 2c3a cebe f3e7 b33e 0ad0 4f3e b001 1d3e
00000270: 3256 a13e 2a33 3d3e 4e60 273e 0cf5 4dbe
00000280: b04d 003e 42df 59be 98ce 25be 8100 433e
00000290: a0c4 c4be 1365 fe3d 4979 a93e 1bb4 4ebe
000002a0: 40be 843e 6762 ecbd 9450 e43e ea4c 873e
000002b0: d239 6d3e 3b95 28bf 129d e3be 830b dc3c
000002c0: fc54 7c3e 6c9f 26bd 489f 04be dc53 633e
000002d0: 47c7 88be cdf8 cd3d c40f ffbe fee5 be3e
000002e0: 01ad 583e e2a4 19bf 6e91 c13e 3130 f23d
000002f0: 1e0d 58be fc6d c43d 9ba3 9f3e 51ae 0bbf
00000300: beed 9e3e 3fd5 b63e ecd3 7dbe 7439 8b3e
00000310: 94bd 393e 06d2 273e 9f7e af3d bf20 e0bd
00000320: ba94 523d c477 173e a004 ed3d f8b8 5cbe
00000330: 1aea c83c af0e c63e 9fe1 d73d eea0 0b3f
00000340: 53d7 4dbd aaa0 2a3f 9671 2d3e edc7 c9be
00000350: 790d 6fbe 1863 8d3e 509c 16bd 4960 2ebe
00000360: ce64 49be 652f 99be ba58 a4bc b513 9abe
00000370: 10d8 b03e ff57 f3bc 83d5 36be 8535 0dbf
00000380: 9c3a 75be a9dc 253e 6db5 213e fb2e a63e
00000390: 5d4b 293f 9b4b f7be 3251 76be e839 7c3e
000003a0: 9000 743e e43f 6b3e bdc9 20be 5dd8 89be
000003b0: e19f 00bf 494f 8abe 5578 4bbc d6d0 2d3d
000003c0: 0245 bb3e a82d 243e 3414 383f 07b0 0abd
000003d0: a60e 383e 1d15 ca3e 5247 7cbf 822e 1cbf
000003e0: 2c96 6fbe b8bc 103e ba8e 493e 68c1 f83d
000003f0: 0765 21bc d99d bbbe b222 933e 8fef a43d

bias f4 [128]
0.0015094172 0.27017862 -0.81151295 0.21674278 0.051318474 -0.13806506 -0.27506718 0.06290704
-0.059254516 -0.26490754 -0.012272379 0.32793623 0.055578627 -0.037964266 0.0697817 -0.27311063
0.013797163 -0.41368243 0.13740629 -0.1999918 -0.07340931 -0.13551755 -0.39582503 -0.38023585
0.039667744 0.039108068 -0.140498 0.36395636 0.14337535 0.07308006 -0.49333364 -0.19993229
0.04978612 0.22934125 -0.54348224 0.037568465 0.022302052 0.3470352 -0.2258616 0.003423408
0.28837448 0.24098092 -0.06074078 -0.035160422 -0.114605345 -0.23755446 0.07663538 -0.23288181
-0.094685465 -0.42160845 -0.13897328 -0.31550583 -0.41357186 0.19464004 -0.09529257 -0.057027947
-0.4616804 -0.07364324 -0.11018691 -0.44565633 -0.11015647 -0.23073979 -0.0860461 -0.09779797
-0.21906704 0.15669638 -0.62743324 0.30782858 -0.19444486 -0.26089096 -0.031486798 -0.059147824
-0.09957412 0.06345448 0.08630778 -0.01399318 -0.3523697 -0.15747751 -0.38579905 -0.20553869
0.27238265 -0.16460985 0.14933793 0.3637016 0.15693523 -0.098195314 -0.11269638 -0.38818866
0.06287526 -0.096412145 -0.32118022 0.08481724 0.11089006 0.20446134 0.04519651 -0.39478418
0.13343832 -0.076401636 0.09635575 0.04329955 -0.41532868 0.23589775 -0.046506684 -0.04970337
0.23670144 0.21866705 -0.23526531 -0.6198973 0.12801462 0.36788496 -0.07110129 -0.055705126
-0.24802144 0.3810394 0.06455115 0.18244113 -0.11700757 -0.09426689 -0.263732 0.00020272956
0.12764639 -0.11602466 0.0652406 0.15692435 -0.43407494 0.20820037 -0.39079574 0.17859924
00000000: a3d7 c53a da54 8a3e 50bf 4fbf d2f1 5d3e
00000010: 5233 523d ed60 0dbe 9bd5 8cbe 68d5 803d
00000020: ddb4 72bd f6a1 87be 1712 49bc 42e7 a73e
00000030: 6aa6 633d 6b80 1bbd b5e9 8e3d 28d5 8bbe
00000040: 7f0d 623c 2fce d3be 3cb4 0c3e a7ca 4cbe
00000050: 9f57 96bd 1dc5 0abe 94a9 cabe 46ae c2be
00000060: a57a 223d c82f 203d b5de 0fbe 7d58 ba3e
00000070: fdd0 123e 00ab 953d 3a96 fcbe 0dbb 4cbe
00000080: 88ec 4b3d 6fd8 6a3e a721 0bbf 64e1 193d
00000090: cbb2 b63c 99ae b13e 4348 67be 415b 603b
000000a0: d2a5 933e b4c3 763e 53cb 78bd 6004 10bd
000000b0: 35b6 eabd 7a41 73be 03f3 9c3d 9278 6ebe
000000c0: 74ea c1bd 10dd d7be 034f 0ebe fb89 a1be
000000d0: b1bf d3be b84f 473e c028 c3bd 2396 69bd
000000e0: 6061 ecbe 44d2 96bd ada9 e1bd 112d e4be
000000f0: b799 e1bd 0d47 6cbe f038 b0bd 4d4a c8bd
00000100: 1c53 60be 0475 203e 779f 20bf b59b 9d3e
00000110: 8e1c 47be 8093 85be 4df8 00bd fd44 72bd
00000120: 84ed cbbd 6cf4 813d 22c2 b03d a743 65bc
00000130: cd69 b4be c941 21be 7487 c5be bc78 52be
00000140: bd75 8b3e 7c8f 28be 0bec 183e 1937 ba3e
00000150: a1b3 203e a01a c9bd 5ccd e6bd aac0 c6be
00000160: bfc4 803d bb73 c5bd bc71 a4be a9b4 ad3d
00000170: 541a e33d 505e 513e fa1f 393d 2721 cabe
00000180: 0ea4 083e 7678 9cbd 2a56 c53d de5a 313d
00000190: f6a5 d4be 2e8f 713e cb7d 3ebd c395 4bbd
000001a0: dd61 723e 41ea 5f3e 64e9 70be 97b1 1ebf
000001b0: 4416 033e 6b5b bc3e 8e9d 91bd 0f2b 64bd
000001c0: 55f9 7dbe 9917 c33e 6533 843d d9d1 3a3e
000001d0: aaa1 efbd 000f c1bd e107 87be cd93 5439
000001e0: bcb5 023e 569e edbd dd9c 853d c7b0 203e
000001f0: 123f debe 7a32 553e 6116 c8be b8e2 363e

weight f4 [64, 128]
0.3359589 -0.04663658 0.30345362 -0.07605875 -0.06157288 0.14211985 -0.5811502 -0.32404476
-0.20964615 -0.56120604 -0.7254186 0.37093595 -0.16914 0.084123574 -0.13883702 -0.043524776
-0.13388085 0.2138448 -0.2633323 -0.29524612 0.005686368 0.29537007 -0.4913576 0.48447627
-0.4554942 -0.5129878 0.06641658 0.22050759 -0.107949354 -0.05045554 0.5313803 0.17905238
-0.022662716 0.2509133 0.017557072 0.20672062 -0.33124918 -0.34485915 -0.13832578 0.24395767
0.3132801 -0.6037435 -0.22078446 0.19181016 0.075836524 -0.25024915 -0.07706077 -0.47099856
-0.027203437 0.22601153 0.12763123 -0.63674974 -0.44683847 -0.1918077 -0.56839234 0.15468451
0.57708085 0.055459257 -0.0004879663 -0.15211673 0.39122036 -0.024592213 0.13453604 -0.14148054
-0.060749877 0.43784148 -0.45924577 0.21911342 0.4371816 0.4016658 0.2657475 0.022352643
-0.13422358 -0.44816005 0.10558413 -0.68110394 -0.52818704 0.287905 -0.3674729 -0.5647999
0.10859344 -0.28337657 0.039066415 0.037433714 -0.1380007 0.27799127 -0.7828804 -0.1652804
-0.083220996 -0.14662986 0.424813 0.3201528 -0.15741156 0.5761358 -0.13193992 -0.14068197
0.5280499 -0.63244075 -0.18318178 0.13485634 -0.6836017 0.3066383 -0.08183996 -0.12228427
-0.08108247 -0.42937115 -0.43703243 -0.35431513 -0.064838834 -0.7014563 -0.024689693 0.283842
-0.07792372 0.1817778 -0.32777822 0.10570615 -0.35834923 0.390378 -0.5462882 -0.1317692
-0.20671897 0.099515155 -0.20697497 0.11245408 0.6374601 0.10435244 -0.4760105 -0.46125975
-0.123612404 -0.12904845 -0.09304291 0.08974083 -0.3048346 0.14615142 0.037000764 -0.21105206
-0.47293705 -0.2153965 -0.91989934 0.42217132 -0.38586652 0.21806496 -0.049821608 -0.0438672
-0.05859167 -0.3066537 -0.23038392 -0.045634635 -0.022603247 0.1331069 -1.0166954 0.22680998
0.09461649 0.27484477 0.58352923 -0.17740141 0.24572732 0.39265218 -0.19810401 -0.7750963
-0.70275396 0.17949916 0.3965601 -0.34318 -0.06320245 -0.042475555 -0.45536646 0.46629813
0.39748558 -0.12708557 -0.1016084 0.102771476 0.15531303 -1.4588565 0.49206913 0.08134526
0.24887311 0.13448928 0.059846014 -0.06484114 -0.5229022 0.011887832 -0.32617626 0.24237919
0.02570545 0.07344996 0.19483884 -0.41480434 0.058006655 0.2921723 -0.16743329 -0.18165433
0.35416362 -0.05347829 -0.28848797 0.41567937 -0.002088155 0.1069076 -0.098169126 0.21435353
-0.22813809 0.2627921 0.052630976 -0.03091976 -0.41488704 -0.34102705 -0.23666011 -0.38287342
0.14239912 0.17988959 -0.039458774 0.7517787 0.16666256 0.30648124 0.27684912 0.1363729
-0.58042043 -0.22761199 0.097607195 0.21764944 0.24258824 -0.025198137 -0.023754226 -0.65200907
0.19071798 0.06440606 0.23329036 0.081611305 -0.46041328 -0.43577218 -0.07283921 0.21060175
0.40909514 -0.32281035 -0.015442973 -0.08676859 0.05872321 -0.32171643 0.07924348 -0.08609056
0.0349281 -0.16664717 0.4543202 -0.30820587 0.18109922 -0.20019448 -0.46838686 0.11131571
-0.749039 -0.019342469 0.21347935 0.041140884 0.14749482 0.28420317 0.023028878 -0.12090108
00000000: ce02 ac3e 0006 3fbd 465e 9b3e b1c4 9bbd
00000010: d833 7cbd de87 113e 42c6 14bf 32e9 a5be
00000020: 7bad 56be 33ab 0fbf 09b5 39bf 51eb bd3e
00000030: 0933 2dbe fb48 ac3d 4b2b 0ebe 0947 32bd
00000040: 1018 09be 22fa 5a3e 7ed3 86be 802a 97be
00000050: b654 ba3b bf3a 973e 3993 fbbe 460d f83e
00000060: 8936 e9be 2b53 03bf 6a05 883d becc 613e
00000070: 8d14 ddbd 78aa 4ebd 8a08 083f 8259 373e
00000080: 29a7 b9bc b577 803e d9d3 8f3c 92ae 533e
00000090: 7e99 a9be 6191 b0be 46a5 0dbe 0ad0 793e
000000a0: 4066 a03e ef8e 1abf 5215 62be e269 443e
000000b0: 2e50 9b3d a820 80be 09d2 9dbd b926 f1be
000000c0: bed9 debc 916f 673e c3b1 023e 0802 23bf
000000d0: 03c8 e4be 3d69 44be 2982 11bf 9e65 1e3e
000000e0: 92bb 133f 3f29 633d bad5 ffb9 7dc4 1bbe
000000f0: 094e c83e 9c75 c9bc d1c3 093e 46e0 10be
00000100: ddd4 78bd c22c e03e 4322 ebbe 455f 603e
00000110: 44d6 df3e 24a7 cd3e 0e10 883e e41c b73c
00000120: e871 09be 3c75 e5be 7e3c d83d d45c 2ebf
00000130: 4437 07bf 4968 933e 6825 bcbe ba96 10bf
00000140: 3d66 de3d bc16 91be 1b04 203d 1854 193d
00000150: 0e50 0dbe df54 8e3e da6a 48bf 443f 29be
00000160: c56f aabd 2326 16be 1781 d93e 11eb a33e
00000170: 7f30 21be a37d 133f 421b 07be ef0e 10be
00000180: 472e 073f a3e7 21bf 0194 3bbe c817 0a3e
00000190: 8500 2fbf b2ff 9c3e b59b a7bd 2d70 fabd
000001a0: 910e a6bd 89d6 dbbe b7c2 dfbe cb68 b5be
000001b0: 39ca 84bd a492 33bf 0a42 cabc bd53 913e
000001c0: 7996 9fbd f623 3a3e 8cd2 a7be 777c d83d
000001d0: 8d79 b7be a0df c73e 8bd9 0bbf 81ee 06be
000001e0: 23ae 53be 9ace cb3d 3ff1 53be 534e e63d
000001f0: 9630 233f bbb6 d53d a6b7 f3be 3d2a ecbe
00000200: 8028 fdbd 4725 04be 488d bebd 0aca b73d
00000210: 4813 9cbe b8a8 153e 1d8e 173d 081e 58be
00000220: ce24 f2be e690 5cbe 867e 6bbf d726 d83e
00000230: 4c90 c5be 6c4c 5f3e be11 4cbd 18ae 33bd
00000240: d2fd 6fbd b701 9dbe c3e9 6bbe 62eb 3abd
00000250: 722a b9bc 2d4d 083e 1323 82bf e040 683e
00000260: 4ac6 c13d 74b8 8c3e 2c62 153f b7a8 35be
00000270: f19f 7b3e b509 c93e c7db 4abe b66c 46bf
00000280: afe7 33bf a1ce 373e ed09 cb3e 4ab5 afbe
00000290: 4970 81bd d9fa 2dbd cb25 e9be a1be ee3e
000002a0: 3b83 cb3e b822 02be 1118 d0bd da79 d23d
000002b0: 610a 1f3e cfbb babf 7cf0 fb3e 5898 a63d
000002c0: 98d8 7e3e 8fb7 093e 1821 753d 6ecb 84bd
000002d0: ebdc 05bf 2ec5 423c 9300 a7be 4032 783e
000002e0: 3c94 d23c ef6c 963d d583 473e 3c61 d4be
000002f0: 6398 6d3d 9c97 953e a273 2bbe 9803 3abe
00000300: ef54 b53e 0d0c 5bbd b2b4 93be edd3 d43e
00000310: 6dd9 08bb 5ff2 da3d e50c c9bd 7e7f 5b3e
00000320: 089d 69be b08c 863e 9493 573d 704b fdbc
00000330: 136c d4be 199b aebe 0757 72be fc07 c4be
00000340: 13d1 113e fa34 383e 869f 21bd 9274 403f
00000350: 97a9 2a3e 1ceb 9c3e 2bbf 8d3e 56a5 0b3e
00000360: 6f96 14bf 1e13 69be 48e6 c73d 7fdf 5e3e
00000370: 0d69 783e 536c cebc 3998 c2bc 11ea 26bf
00000380: 934b 433e 53e7 833d abe3 6e3e d423 a73d
00000390: 4abb ebbe 881d dfbe b92c 95bd fca7 573e
000003a0: eb74 d13e 6647 a5be 8604 7dbc bbb3 b1bd
000003b0: c087 703d 04b8 a4be 684a a23d 3f50 b0bd
000003c0: c410 0f3d 8ea5 2abe a89c e83e 29cd 9dbe
000003d0: 1372 393e c8ff 4cbe 67d0 efbe 7ef9 e33d
000003e0: 05c1 3fbf 1974 9ebc 559a 5a3e 5883 283d
000003f0: e208 173e 1483 913e 0fa7 bc3c fc9a f7bd

bias f4 [64]
0.13835177 0.34761235 0.12019411 -0.09313826 0.0498272 0.0535138 0.14910229 0.29666385
0.13838422 0.42023894 0.098198764 0.033299223 0.3279522 0.06549158 0.12842797 0.14261994
0.017311985 0.2663837 0.36496347 0.15647788 0.012346762 0.10981329 0.27437252 0.20358135
0.013257006 0.12775066 0.084487095 0.24297428 0.056020144 -0.07055888 -0.10029808 0.07337263
0.24493024 -0.0042146295 0.18877107 0.16825555 0.0011183914 0.30364868 0.13413876 0.1031535
-0.17597748 -0.052870184 0.09860479 -0.008773807 -0.017760575 -0.0013120453 -0.033011056 0.091511205
0.32298976 0.25476012 -3.8931466e-05 0.22086874 0.0043098317 0.09156322 0.057273448 0.07245917
0.14100285 -0.062971584 0.25093365 -0.047169514 0.15285507 0.20595938 0.077894025 0.27044696
00000000: 16ac 0d3e 3ffa b13e 5428 f63d 46bf bebd
00000010: 9b17 4c3d 4931 5b3d 45ae 183e 53e4 973e
00000020: 98b4 0d3e 8f29 d73e 6f1c c93d c464 083d
00000030: 5ae9 a73e 7320 863d 9f82 033e f60a 123e
00000040: ddd1 8d3c 7263 883e 7edc ba3e bd3b 203e
00000050: 134a 4a3c cae5 e03d 8e7a 8c3e a177 503e
00000060: ea33 593c 12d1 023e 9207 ad3d 40ce 783e
00000070: 6175 653d 2d81 90bd 1469 cdbd 6444 963d
00000080: fece 7a3e e01a 8abb 344d 413e 2f4b 2c3e
00000090: fd96 923a d777 9b3e ac5b 093e 2442 d33d
000000a0: 7133 34be 688e 58bd 4ff1 c93d 04c0 0fbc
000000b0: a07e 91bc eff8 abba 9a36 07bd 3a6a bb3d
000000c0: ea5e a53e eb6f 823e 584a 23b8 6a2b 623e
000000d0: 7d39 8d3b 7f85 bb3d 9097 6a3d 7965 943d
000000e0: 0d63 103e 3ff7 80bd 607a 803e d234 41bd
000000f0: 0a86 1c3e 04e7 523e e786 9f3d 0678 8a3e

weight f4 [5, 64]
-0.99850184 -0.022272876 0.54368424 0.1269193 -0.26379868 0.36707672 0.31274122 0.8885566
-0.007068631 -0.97392327 -0.034860283 0.2980208 -0.107069425 -0.59527427 -0.4943823 -0.1336207
0.10940549 0.43074778 -0.43143559 -0.1888652 0.2173936 -0.8216319 -0.46895945 -1.1664646
-0.34100085 0.40584475 0.30667886 -0.05141463 0.3817389 0.17089598 -0.6414952 0.47601527
0.6324472 -0.630297 -0.7113962 0.67262906 0.36823577 0.688268 -0.4749413 0.42778918
0.060908366 -0.5515157 0.22310227 -0.52869225 -0.15520124 0.7034604 0.41320178 -0.3138581
0.08586608 0.50779384 0.4496101 0.13356586 0.5826548 0.7958985 -1.0654426 0.567082
-0.70194644 -0.2186828 0.4524289 -0.19048856 0.6447628 -0.37325394 -0.28903103 -0.62176746
-0.08970501 0.28649974 0.5263635 -1.0700873 -0.3890867 0.4402006 -0.67053413 0.026752034
0.68677443 -0.38101164 -0.9807564 0.27375725 0.15013371 0.65333825 0.86079156 0.72179264
0.6429209 1.0022755 0.7548101 0.24309854 -0.044372704 0.1295744 -1.2435489 0.38228244
0.5306461 0.35569414 0.4180668 -1.2337735 0.5565407 -0.9988024 -0.7665685 -0.32665414
0.63461083 -1.1650023 0.83949625 -1.2443211 -1.0038631 -1.0166928 0.84230584 -0.52784216
0.70505834 0.5025331 0.9116531 -0.6652875 -0.2721089 1.0718812 0.37641284 -0.16489868
-0.8568862 -1.2913338 0.52227473 0.6136221 -0.654434 -0.81106174 1.2400118 0.28551254
0.89606386 0.029403929 0.38100025 -0.64647305 -0.7882188 -0.33319598 -1.22024 1.3435953
0.5765344 0.20293212 -0.1622444 -0.20785463 1.1040726 -0.49833214 0.5727578 -0.5811761
-0.8265546 1.0321684 1.0202438 -0.64871466 -1.3983756 -1.3593296 -1.3388 -1.0715424
0.11908827 -1.4471396 -0.2651998 -0.105504856 0.82746893 0.11626491 1.0332109 0.61105233
0.53242457 0.24272367 0.40215555 0.86861664 -0.021311125 0.46933097 0.37927416 0.014718079
0.08929454 1.139922 -0.19134437 0.8998796 0.6258859 0.96124536 -0.3588264 0.80966896
-1.244018 0.09974421 -1.1632892 0.8339107 -0.6868293 -1.0858991 -1.0893353 -0.08315475
0.65349525 0.6904522 -1.2972541 0.054063812 0.6810536 -1.0073568 -0.33541694 -0.14809409
-0.46604985 -1.2546577 -0.5959377 0.8584686 -0.2287164 0.08470465 0.56744754 -0.24644995
0.010238347 -0.74461937 -1.4759938 0.85429066 0.14537442 0.68199587 0.75865483 1.0058541
-0.13586245 0.47341835 -0.5796688 0.8652736 0.6596048 -0.1712591 0.58300996 0.9873856
0.9968389 0.49131736 0.62169486 -1.1995093 -0.5322581 -0.333262 -0.7108711 0.70926553
0.47479707 -0.06875496 -1.252638 0.3914262 -0.5996448 0.39010143 0.7546417 -0.96221685
-0.3885713 -0.77642137 -1.10647 -0.383506 -0.0051026284 0.018761346 0.31616747 -0.32885346
0.39904 -0.80283123 -0.19912487 -0.10794175 0.9210515 -0.38880563 -0.6610576 -0.75597775
-1.1309457 0.052191447 -0.8986128 0.49509487 -0.05222553 0.92972857 1.0752673 0.265269
0.31812987 0.23913814 -0.035083946 -0.15192387 1.1791569 0.7882758 0.7904861 -0.09802138
00000000: d19d 7fbf 9b75 b6bc e42e 0b3f 22f7 013e
00000010: 9f10 87be 7bf1 bb3e 9e1f a03e 7278 633f
00000020: f99f e7bb 0953 79bf a8c9 0ebd 2f96 983e
00000030: 3747 dbbd e563 18bf ad1f fdbe ddd3 08be
00000040: fc0f e03d f98a dc3e 20e5 dcbe e165 41be
00000050: 6e9c 5e3e 7856 52bf 741b f0be b64e 95bf
00000060: aa97 aebe e2ca cf3e 0305 9d3e 2698 52bd
00000070: 4873 c33e 5bff 2e3e 0839 24bf 46b8 f33e
00000080: 0fe8 213f 255b 21bf 101e 36bf 6b31 2c3f
00000090: 6689 bc3e 5532 303f 822b f3be 2f07 db3e
000000a0: 0d7b 793d 2230 0dbf ec74 643e 6058 07bf
000000b0: 13ed 1ebe fb15 343f 2f8f d33e 02b2 a0be
000000c0: 8eda af3d c7fe 013f 4c33 e63e 7dc5 083e
000000d0: dd28 153f 01c0 4b3f 6c60 88bf 492c 113f
000000e0: c3b2 33bf 62ee 5fbe c3a4 e73e 6f0f 43be
000000f0: 2d0f 253f 241b bfbe e0fb 93be 272c 1fbf
00000100: 43b7 b7bd 18b0 923e c2bf 063f 9ff8 88bf
00000110: 5f36 c7be f961 e13e 20a8 2bbf 1527 db3c
00000120: 73d0 2f3f f513 c3be da12 7bbf e929 8c3e
00000130: a7bc 193e 2d41 273f d65c 5c3f 67c7 383f
00000140: 7796 243f 904a 803f 3c3b 413f d3ee 783e
00000150: 27c0 35bd 27af 043e 9c2c 9fbf 86ba c33e
00000160: 6cd8 073f 8b1d b63e da0c d63e 4aec 9dbf
00000170: 7479 0e3f 84b1 7fbf d53d 44bf 363f a7be
00000180: db75 223f cc1e 95bf 3ae9 563f ea45 9fbf
00000190: 967e 80bf fd22 82bf 5ba1 573f aa20 07bf
000001a0: b47e 343f 02a6 003f 1962 693f 4850 2abf
000001b0: dc51 8bbe 6733 893f 2fb9 c03e 33db 28be
000001c0: e55c 5bbf 6d4a a5bf ccb3 053f 5716 1d3f
000001d0: fd88 27bf bea1 4fbf b5b8 9e3f b32e 923e
000001e0: 7164 653f 82e0 f03c 7712 c33e 427f 25bf
000001f0: b5c8 49bf aa98 aabe d330 9cbf eefa ab3f
00000200: c297 133f 70cd 4f3e 6523 26be d8d7 54be
00000210: 4052 8d3f 6425 ffbe 41a0 123f f5c7 14bf
00000220: 1599 53bf 181e 843f 5997 823f 2a12 26bf
00000230: f9fd b2bf 83fe adbf cc5d abbf 4d28 89bf
00000240: 8de4 f33d df3b b9bf 45c8 87be ee12 d8bd
00000250: 01d5 533f 4c1c ee3d 4140 843f ed6d 1c3f
00000260: fa4c 083f 8e8c 783e 55e7 cd3e a95d 5e3f
00000270: ab94 aebc 264c f03e 3930 c23e 1924 713c
00000280: 0ee0 b63d f7e8 913f c7ef 43be 825e 663f
00000290: 0f3a 203f 2d14 763f 18b8 b7be 7746 4f3f
000002a0: fb3b 9fbf b146 cc3d a9e6 94bf 2c7b 553f
000002b0: 0cd4 2fbf befe 8abf 576f 8bbf 0a4d aabd
000002c0: 774b 273f 7ac1 303f 6c0c a6bf 0472 5d3d
000002d0: 8759 2e3f 11f1 80bf c5bb abbe faa5 17be
000002e0: 169e eebe a098 a0bf 608f 18bf 99c4 5b3f
000002f0: a234 6abe a279 ad3d 3e44 113f 605d 7cbe
00000300: bdbe 273c 609f 3ebf 5ded bcbf cbb2 5a3f
00000310: 08dd 143e 4897 2e3f 3437 423f d4bf 803f
00000320: 871f 0bbe e463 f23e 2d65 14bf 9282 5d3f
00000330: dcdb 283f 8c5e 2fbe 2440 153f 4dc5 7c3f
00000340: d630 7f3f f38d fb3e 6527 1f3f 8589 99bf
00000350: 1142 08bf 51a1 aabe a6fb 35bf 6d92 353f
00000360: 9a18 f33e 67cf 8cbd 7156 a0bf 0469 c83e
00000370: 5282 19bf 60bb c73e 3330 413f d853 76bf
00000380: d1f2 c6be 8dc3 46bf cfa0 8dbf e65a c4be
00000390: f333 a7bb 65b1 993c b4e0 a13e 7b5f a8be
000003a0: f94e cc3e 5986 4dbf 64e7 4bbe 9010 ddbd
000003b0: 08ca 6b3f 8811 c7be 123b 29bf c287 41bf
000003c0: d4c2 90bf b3c6 553d 7d0b 66bf 137d fd3e
000003d0: 70ea 55bd b102 6e3f 5ca2 893f 57d1 873e
000003e0: ebe1 a23e a1e0 743e 2fb4 0fbd ee91 1bbe
000003f0: 9dee 963f 71cc 493f 4c5d 4a3f 6fbf c8bd

bias f4 [5]
0.106291465 0.062478278 -0.13329849 0.022653636 0.11806994
00000000: 57af d93d 39e9 7f3d 667f 08be 1e94 b93c
00000010: a7ce f13d
