models/simple_spread/policy_model1.pkl (torch_old, 152076 bytes, 6 tensors)

weight f4 [128, 18]
0	0x3e3474e6	0.17622718
1	0x3e2a8551	0.16652419
2	0xbe61bf44	-0.22045618
3	0xbb1f9ec6	-0.002435611
4	0x3e9a2399	0.30105284
5	0xbe5fdbc6	-0.2186118
6	0x3b68e595	0.0035537232
7	0x3d1c2c2a	0.038128056
8	0x3e8f411f	0.2797937
9	0xbe528b76	-0.20561013
10	0x3c8d46f4	0.017245747
11	0xbea1207f	-0.31470105
12	0x3e98a64f	0.29814383
13	0x3e2186d0	0.15774083
14	0x3e422045	0.18957622
15	0xbe5e12b1	-0.21686818
16	0xbe14988c	-0.14511317
17	0x3e2e5e57	0.17028175
18	0x3ea35b1d	0.3190545
19	0xbe2bba22	-0.16770223
20	0x3d7be54a	0.061497964
21	0xbdb31689	-0.087445326
22	0x3dc4bacf	0.096059434
23	0xbd6a3f46	-0.05718925
24	0xbe9f4904	-0.31110394
25	0xbce67493	-0.028131759
26	0xbe013128	-0.12616408
27	0x3dfda4ac	0.12384924
28	0x3daae1ac	0.08343825
29	0x3cb82fb3	0.022483682
30	0xbea8c28e	-0.32960933
31	0xbe7b701c	-0.24554485
32	0xbe2e8fe4	-0.17047077
33	0xbce044f0	-0.027376622
34	0x3e3ed26f	0.18634962
35	0xbd8d4dac	-0.0689958
36	0x3eaee832	0.34161526
37	0xbe70fe59	-0.23534526
38	0xbe7d03f8	-0.24708545
39	0x3e58aef9	0.21160497
40	0x3dbd8038	0.092529714
41	0xbcd06612	-0.025439296
42	0xbc44ef3f	-0.012019931
43	0x3d5527df	0.052039977
44	0x3d965818	0.07341021
45	0xbe0d66d3	-0.13808756
46	0x3e2a26cd	0.16616364
47	0xbdc00e1e	-0.09377693
48	0xbdfdcd40	-0.12392664
49	0x3e5b78da	0.2143282
50	0xbdcaf5f8	-0.09910196
51	0x3e53fdc9	0.2070228
52	0xbe472d93	-0.19450979
53	0x3e0cc40f	0.13746665
54	0x3e0c8b85	0.13725097
55	0xbdb355a6	-0.087565705
56	0x3dac91af	0.084262244
57	0xbe38605d	-0.1800551
58	0xbcbaef4e	-0.022819187
59	0x3d1f3c35	0.038875777
60	0xbe917d21	-0.28415778
61	0xbe0822e7	-0.13294564
62	0x3be9ece9	0.0071388376
63	0xbdd22f03	-0.10262873
64	0x3c9e44f9	0.019319998
65	0x3e7dcfe8	0.24786341
66	0x3a5ae090	0.00083495025
67	0xbe74af83	-0.23895077
68	0x3dae5682	0.08512594
69	0xbe666fb9	-0.22503556
70	0x3cf1e0c8	0.02952613
71	0x3d7bd6fc	0.061484322
72	0xbd34a30a	-0.0441008
73	0x3e7404a5	0.23829897
74	0xbe4c303c	-0.19940275
75	0x3e3ddf52	0.18542221
76	0x3e2aa56f	0.1666467
77	0x3d552e08	0.052045852
78	0xbd646ede	-0.055769794
79	0x3e065a4f	0.13120387
80	0x3e86ba7e	0.26314157
81	0xbd170846	-0.036873125
82	0x3e265579	0.16243543
83	0xbd4f07cc	-0.050544545
84	0xbe81c068	-0.25342107
85	0x3db355de	0.08756612
86	0x3deb35c6	0.11484866
87	0xbe44956e	-0.19197628
88	0xbe1d41de	-0.15357158
89	0xbdecc121	-0.11560274
90	0xbd5cd0df	-0.053910132
91	0x3e03d7bb	0.12875263
92	0x3b279680	0.0025571883
93	0x3e5355b4	0.20638162
94	0x3e3428de	0.17593715
95	0x3e036ab6	0.12833676
96	0x3d25efe6	0.040511988
97	0xbe48833f	-0.19581316
98	0x3eba5755	0.36394754
99	0xbcb9c7a6	-0.022678208
100	0x3c908f8f	0.01764658
101	0xbe54c3a3	-0.20777754
102	0x3d3aacc6	0.045574926
103	0x3cca62fd	0.024705404
104	0xbe496c4c	-0.19670218
105	0x3da6ad6e	0.08138548
106	0xbe711d35	-0.23546298
107	0xbe3a7f7d	-0.18212695
108	0xbdbbdb8f	-0.09172737
109	0xbe1a399c	-0.15061039
110	0xbd011ba8	-0.031520516
111	0xbdce71df	-0.10080313
112	0x3d4e9481	0.050434593
113	0x3de25340	0.11051035
114	0xbd6480a2	-0.055786736
115	0xbc1b20be	-0.009468256
116	0x3e1c2219	0.15247382
117	0xbda8b76c	-0.0823811
118	0xbe1f3f22	-0.15551427
119	0x3ea9b992	0.3314939
120	0xbe91a7a6	-0.28448218
121	0xbe625207	-0.22101603
122	0xbc867360	-0.016412437
123	0x3e6b8fef	0.23004125
124	0xbdc92388	-0.0982123
125	0x3dbefff2	0.093261614
126	0x3e8e4653	0.27788028
127	0xbea4f3c8	-0.3221724
128	0x3dc399c7	0.09550815
129	0x3ca9760d	0.020686174
130	0x3e6511ea	0.22370115
131	0xbe3b5de9	-0.18297543
132	0xbe2d1046	-0.16900739
133	0x3bcdfba8	0.0062861033
134	0x3d64030e	0.055666976
135	0x3e5dd538	0.21663368
136	0x3d965106	0.07339673
137	0x3e0ac0ba	0.13550082
138	0xbe78b479	-0.24287595
139	0xbcfe2078	-0.031021342
140	0x3e5d147d	0.21589847
141	0x3dc96722	0.09834124
142	0x3c2bb040	0.010479033
143	0x3d9a5d62	0.075373426
144	0x3e481f1f	0.19543122
145	0x3dbee516	0.093210384
146	0xbdeb7f33	-0.11498871
147	0xbe453933	-0.19260101
148	0x3e567941	0.20944692
149	0x3eb72622	0.3577128
150	0x3d27e64b	0.04099111
151	0x3e42ca09	0.19022383
152	0xbe36049b	-0.17775194
153	0xbbf70bfb	-0.00753927
154	0xbab1a3f3	-0.0013552889
155	0x3eb8a391	0.3606229
156	0xbd1f70fe	-0.038926117
157	0x3e613cfd	0.21995921
158	0xbe4a9f01	-0.19787218
159	0x3de800aa	0.11328252
160	0x3e64f511	0.2235911
161	0x3e30a3cd	0.17249985
162	0x3b9d8490	0.0048070624
163	0xbe48d210	-0.19611382
164	0xbea334a0	-0.31876087
165	0xbe41cd96	-0.18926081
166	0x3e752777	0.23940836
167	0x3e03d184	0.12872893
168	0x3ea4eb6e	0.3221087
169	0x3dae6a21	0.08516336
170	0xbe150e3f	-0.14556216
171	0xbaa8e6ec	-0.0012886203
172	0x3defe350	0.11713278
173	0x3e5bf88d	0.21481533
174	0x3e60eea7	0.21966039
175	0x3c3c9642	0.011510434
176	0x3d3ec1cc	0.046571538
177	0x3e349fb1	0.17639042
178	0x3d0214fc	0.031758294
179	0xbdbc8726	-0.09205465
180	0x3e96e202	0.29469305
181	0x3d1b84a9	0.03796831
182	0xbdc3841c	-0.09546682
183	0xbd718d53	-0.058972668
184	0x3e254bc7	0.16142188
185	0x3e718649	0.23586382
186	0x3cbad174	0.022804953
187	0xbd7adcd2	-0.061245747
188	0x3b2483f7	0.0025103071
189	0xbdab8b2a	-0.08376153
190	0x3e1f4968	0.15555346
191	0x3d9ee0f9	0.07757754
192	0xbcbc09ec	-0.02295395
193	0x3ca6964e	0.020335343
194	0xbe1b4968	-0.15164721
195	0xbc5fe810	-0.013666168
196	0x3dba8d5a	0.09108992
197	0x3e15c295	0.14625008
198	0x3e2e5073	0.17022876
199	0x3d2a08e1	0.041512374
200	0x3e3979bb	0.18112843
201	0xbdb0fad9	-0.086415954
202	0xbd3901d8	-0.045167774
203	0xbd1a291f	-0.037636872
204	0xbdb0e206	-0.086368605
205	0xbe8be2ab	-0.2732137
206	0x3d57a744	0.05264975
207	0x3d5f8e88	0.054579288
208	0xbcca0fd2	-0.024665747
209	0x3e608e6d	0.21929331
210	0xbe5e0047	-0.21679793
211	0xbcc538be	-0.024074908
212	0xbd9faeca	-0.0779701
213	0xbd5adf58	-0.053435653
214	0x3e394e9d	0.18096395
215	0xbd9a6576	-0.075388834
216	0x3e1f7aca	0.15574184
217	0xbe45c551	-0.19313551
218	0xbcdccf8c	-0.026954435
219	0xbcbae341	-0.022813441
220	0xbe4f9f52	-0.2027562
221	0x3e936e02	0.28794867
222	0x3e28140b	0.16413896
223	0x3e9e90c7	0.3096983
224	0x3d5dd973	0.054162454
225	0x3e445fa1	0.19177105
226	0x3e22d4ae	0.15901443
227	0x3e479b9c	0.19492954
228	0x3edaa842	0.42706496
229	0xbdea1b86	-0.11431031
230	0x3e023f5f	0.12719487
231	0x3e416ef5	0.18889983
232	0xbd883358	-0.06650418
233	0x3ab98180	0.0014152974
234	0xbc77e332	-0.015129851
235	0xbe3e73bf	-0.18598841
236	0xbddf8160	-0.10913348
237	0xbeb9237d	-0.36159888
238	0x3de4c989	0.11171252
239	0x3ebd67d5	0.3699328
240	0xbe0547ca	-0.13015667
241	0x3e858554	0.26078284
242	0xbd834190	-0.064089894
243	0x3d6174c4	0.055042997
244	0xbe7c41ec	-0.24634522
245	0x3dea8ef2	0.11453046
246	0xbe587125	-0.21136911
247	0xbe51dac8	-0.20493615
248	0xbd08d200	-0.033403397
249	0xbc9dad50	-0.01924768
250	0xbe2d4226	-0.16919765
251	0xbdfae11c	-0.122499675
252	0x3edae738	0.4275453
253	0x3daf68ef	0.08564936
254	0x3dd695f8	0.10477823
255	0x3e214899	0.1575035

bias f4 [128]
0	0xbe5ce4f5	-0.21571715
1	0xbe17814c	-0.14795417
2	0xbe0090f9	-0.12555303
3	0xbe3c4768	-0.18386614
4	0xbe89d252	-0.26918274
5	0xbea322c1	-0.31862453
6	0xbdae2dea	-0.08504851
7	0xbe0a6cd3	-0.13518076
8	0xbeb5cc0e	-0.35507244
9	0x3d24c18a	0.040223636
10	0xbe464e1a	-0.19365731
11	0xbe782d2e	-0.24235985
12	0xbe6e2626	-0.2325674
13	0xbdc5d7f5	-0.09660331
14	0xbe45a1d4	-0.19300014
15	0xbe1a6605	-0.1507798
16	0xbd8dede7	-0.06930142
17	0x3e8e86ef	0.2783732
18	0xbe22d4dd	-0.15901513
19	0xbd114327	-0.035464432
20	0x3d852683	0.06501486
21	0xbe6d3b80	-0.23167229
22	0xbea94ceb	-0.33066496
23	0xbd37ccde	-0.04487311
24	0xbd3334ab	-0.0437514
25	0xbdbfe438	-0.09369701
26	0x3e140a4e	0.14457056
27	0x3daf10d3	0.08548131
28	0xbb29aa4a	-0.0025888854
29	0xbdccb1b1	-0.099948294
30	0xbe99312f	-0.29920337
31	0xbead5478	-0.33853507
32	0x3e34a673	0.1764162
33	0x3e64479f	0.22292946
34	0xbe91baad	-0.28462735
35	0x3e4e5d24	0.20152718
36	0x3dfcf849	0.12352044
37	0xbea9ad55	-0.33140054
38	0x3c2b83e3	0.010468456
39	0xbef33694	-0.47502577
40	0xbe54dee9	-0.20788158
41	0x3e88af1c	0.26696098
42	0xbe2c8996	-0.1684936
43	0xbe1668af	-0.14688371
44	0x3cd73499	0.026270198
45	0xbebc5b6e	-0.36788505
46	0xbdde6328	-0.10858756
47	0x3e789196	0.24274287
48	0x3bdd6f79	0.0067576733
49	0xbe11487e	-0.1418781
50	0xbe44ddd4	-0.19225246
51	0xbe1b9374	-0.15192968
52	0xbe0f3d13	-0.13988142
53	0xbe96b90c	-0.29438055
54	0xbeae6782	-0.34063345
55	0xbd4acea3	-0.04951347
56	0xbed02c5c	-0.40658844
57	0xbdf70f8f	-0.120635144
58	0xbe828b9b	-0.25497136
59	0xbe136eac	-0.14397687
60	0xbe86d9f6	-0.26338166
61	0xbea056f9	-0.31316355
62	0xbe914e89	-0.2838023
63	0xbe897ee1	-0.26854613
64	0x3c1b0877	0.009462467
65	0x3e387c10	0.18016076
66	0xbe5fd3b4	-0.21858102
67	0x3ea112be	0.31459612
68	0x3c64023d	0.013916549
69	0xbee9fab5	-0.45699087
70	0xbd502e06	-0.05082514
71	0x3eb0fbd9	0.34567145
72	0x3e119f8c	0.14221019
73	0xbe0077c0	-0.12545681
74	0xbd6449fc	-0.05573462
75	0xbee52cab	-0.4476064
76	0x3d28030b	0.041018527
77	0xbe1a2675	-0.15053733
78	0x3ec09f41	0.376215
79	0xbe77db72	-0.24204805
80	0x3c84215d	0.01612919
81	0xbe8956b4	-0.26823962
82	0xbea0d12e	-0.3140959
83	0xbe016471	-0.12635972
84	0x3dd7b15b	0.10531875
85	0xbe96b381	-0.29433826
86	0xbcc0c4a8	-0.023531273
87	0xbe0102b1	-0.12598683
88	0x3e8b025f	0.27150247
89	0xbe87c9cc	-0.26521146
90	0xbd25cb74	-0.04047723
91	0xbe7b15ee	-0.24520084
92	0x3ea50fac	0.3223852
93	0x3d1ca2b0	0.03824109
94	0x3c93b456	0.018030327
95	0xbe1fe0d4	-0.15613109
96	0xbe0e7d43	-0.13914971
97	0xbba1881f	-0.004929557
98	0xbdb2aad9	-0.08723993
99	0xbd02f226	-0.031969212
100	0xbd8f8fd7	-0.07009857
101	0xbe2d4c4e	-0.16923639
102	0x3db95b16	0.090505764
103	0xbe77a4d6	-0.24183974
104	0xbe430e48	-0.19048417
105	0xbeb46e64	-0.3524047
106	0x3d983141	0.074312694
107	0xbe9eb6c4	-0.30998814
108	0xbeb7b567	-0.35880587
109	0x3ec2c944	0.38044178
110	0xbde46252	-0.111515656
111	0x3c80bbd4	0.015714563
112	0x3e3680c7	0.17822562
113	0x3d0c7bf7	0.03429791
114	0x3e8092f8	0.25112128
115	0xbe7777ce	-0.24166796
116	0xbe35b6f1	-0.17745568
117	0x3e3d145d	0.18464799
118	0x3d85a6fc	0.0652599
119	0xbc7a1759	-0.015264356
120	0xbe2ed1a1	-0.17072155
121	0x3c387548	0.011258431
122	0x3e63f7f8	0.22262561
123	0xbe5b58dc	-0.21420616
124	0xbea0fa18	-0.31440806
125	0xbea3782e	-0.31927627
126	0x3c775d40	0.015097916
127	0xbe749f38	-0.23888862

weight f4 [256, 128]
0	0x3d71eeba	0.059065558
1	0xbd3b5307	-0.045733478
2	0x3dd325ab	0.10309919
3	0xbd2d0c4c	-0.042248055
4	0x3e087bf4	0.13328534
5	0xbca1faa6	-0.019772839
6	0xbbd2ba59	-0.006430906
7	0xbd59154a	-0.05299882
8	0x3e03b7f8	0.12863147
9	0x3d90824c	0.07056102
10	0x3e605d07	0.21910487
11	0xbc98ebcc	-0.018667124
12	0xbc265b9a	-0.010153675
13	0x3cc3b407	0.023889555
14	0x3db1567c	0.08659074
15	0x3e18fe31	0.14940716
16	0x3db79c87	0.08965402
17	0x3e390656	0.18068823
18	0xbd8f3a18	-0.069935024
19	0x3d8d63da	0.06903811
20	0xbbd6ab46	-0.006551179
21	0x3e5c0eec	0.21490067
22	0x3e13b162	0.14423135
23	0x3b7a87b1	0.003822785
24	0xbd524083	-0.051331054
25	0x3d2a362b	0.041555565
26	0x3df14beb	0.11782058
27	0xbdb81265	-0.089878835
28	0xbe3898e1	-0.18027069
29	0x3df9d169	0.12198145
30	0x3e07b5d5	0.13252957
31	0xbd72f076	-0.059311353
32	0x3d477945	0.048699636
33	0xbe621fba	-0.22082415
34	0x3e8ce6ab	0.27519736
35	0xbd1fcdc1	-0.03901458
36	0xbd0e1125	-0.03468432
37	0x3da22b86	0.07918458
38	0xbe316a01	-0.17325594
39	0xbeaa8956	-0.33307904
40	0x3df618cd	0.12016449
41	0x3e3ce686	0.18447313
42	0xbe101ec9	-0.14074244
43	0xbdedc680	-0.116101265
44	0x3e16ecf8	0.14738834
45	0x3ddf3fd2	0.10900845
46	0x3e9a4507	0.3013079
47	0xbd78ceda	-0.060744144
48	0x3e72b4a0	0.23701715
49	0x3e5a42e8	0.21314585
50	0xbdeef619	-0.11668033
51	0x3e709a93	0.23496465
52	0xbc6f7762	-0.014615865
53	0xbe689629	-0.22713532
54	0xbe3cfb9b	-0.18455355
55	0xbddedc99	-0.108819194
56	0xbe267c37	-0.16258322
57	0xbddcbb46	-0.10777907
58	0x3de80a78	0.11330122
59	0xbe3d7500	-0.18501663
60	0xbd38f224	-0.0451528
61	0x3d8c5963	0.06852987
62	0x3caec7c3	0.021335488
63	0xbc8b0669	-0.01697083
64	0x3db5c1f3	0.088748835
65	0xbeb1612e	-0.34644455
66	0xbe5230c0	-0.20526409
67	0xbe67192d	-0.22568198
68	0xbe79ef39	-0.24407662
69	0xbdceab42	-0.100912586
70	0x3df8e8e1	0.12153793
71	0xbe2bdeb6	-0.16784176
72	0xbcdf65f4	-0.027270295
73	0x3dc82dd6	0.097743675
74	0xbdb2e0c4	-0.08734277
75	0xbdd3abf8	-0.10335535
76	0x3e162d76	0.1466578
77	0x3dab4b0f	0.08363926
78	0xbe932327	-0.28737757
79	0x3d02fdc9	0.03198031
80	0x3de04722	0.109510675
81	0x3de910f0	0.11380184
82	0x3e71507b	0.23565857
83	0xbe02af6c	-0.1276223
84	0x3e6264bd	0.22108741
85	0x3d665c89	0.056240592
86	0x3e659995	0.22421868
87	0xbcd1d05b	-0.025612047
88	0xbc355627	-0.011067904
89	0x3dc6fbb7	0.097159795
90	0x3e3b84f0	0.1831243
91	0x3e707428	0.2348181
92	0xbe725d7a	-0.23668471
93	0x3e23369f	0.15938805
94	0x3dde8e89	0.1086703
95	0x3e21f98d	0.15817852
96	0x3e710e53	0.2354062
97	0x3d0a5d34	0.03378029
98	0x3e128b14	0.14310867
99	0x3e204a87	0.1565343
100	0x3e35f997	0.17770992
101	0xbd569183	-0.052384865
102	0x3e5a2cf6	0.21306214
103	0x3da4b4bd	0.080422856
104	0x3d95bd77	0.07311528
105	0x3e44f4ec	0.19234055
106	0xbe86978d	-0.262875
107	0xbddf331f	-0.108984224
108	0xbd70bf8c	-0.058776423
109	0x3e7fa0e6	0.24963722
110	0xbd9be4ad	-0.07611976
111	0x3e45824d	0.19287987
112	0xbe805037	-0.250612
113	0x3e7a3501	0.24434282
114	0x3dcb3228	0.09921676
115	0x3bdf7446	0.006819281
116	0xbcd4ea2f	-0.025990574
117	0x3e324bc8	0.17411721
118	0x3d7722ba	0.060335852
119	0xbe3cf240	-0.18451786
120	0x3e3b12c7	0.18268882
121	0xbe485473	-0.19563465
122	0xbc31c8c6	-0.010851091
123	0x3e1c405b	0.15258925
124	0x3c6399f0	0.013891682
125	0x3e258f87	0.16168033
126	0x3c8c5d96	0.017134469
127	0xbcd905ff	-0.026492117
128	0x3d3df269	0.04637376
129	0xbd056931	-0.03257102
130	0xbd349d55	-0.044095356
131	0xbd122821	-0.0356828
132	0xbd4f9f70	-0.05068916
133	0x3d03efd8	0.032211155
134	0xbc8775bc	-0.016535632
135	0xbda359e7	-0.07976132
136	0xbd54df53	-0.05197079
137	0x3be68cff	0.007035851
138	0xbb4acae7	-0.0030943693
139	0xbc7572d4	-0.01498099
140	0x3d11a937	0.035561766
141	0xbdcfab86	-0.101401374
142	0xbb896250	-0.004192628
143	0xbce76115	-0.028244535
144	0xbd396644	-0.045263544
145	0xbdbe84f3	-0.09302702
146	0xbd29eed3	-0.041487526
147	0xbdcb7619	-0.09934635
148	0x3d40b63f	0.047048803
149	0xbd94907a	-0.07254119
150	0xbd9f642a	-0.07782777
151	0x3c3bca44	0.011461798
152	0xbdcb2f09	-0.099210806
153	0xbd3daceb	-0.046307486
154	0xbdbf6273	-0.093449496
155	0x3c80881d	0.015689904
156	0xbdbdc93c	-0.09266898
157	0xbd8a288f	-0.06746017
158	0xbd00c151	-0.03143436
159	0x3a79d232	0.0009529918
160	0xbd052e2c	-0.032514736
161	0x3d54f4a4	0.05199112
162	0x3d5a4281	0.05328608
163	0xbcb8f46e	-0.02257749
164	0xbd6b56b9	-0.057455752
165	0x3ce4b00b	0.027915975
166	0xbdb5e57f	-0.088816635
167	0xbd4f31fe	-0.050584786
168	0x3cc94931	0.024571033
169	0xbc851a3a	-0.016247857
170	0xbd47d75f	-0.04878938
171	0x3d34fcc6	0.044186376
172	0xbd5c88f5	-0.05384155
173	0xbc754bca	-0.014971683
174	0xbdaaf2bc	-0.08347079
175	0xbdf0da0e	-0.11760341
176	0xbd989adf	-0.07451414
177	0xbb696b20	-0.003561683
178	0xbc758f18	-0.0149877295
179	0x3d08389c	0.033257112
180	0xbd856130	-0.06512678
181	0x3d0b9552	0.03407795
182	0x3d10a9d3	0.035318207
183	0x3cd9f565	0.026606271
184	0xbce61c9c	-0.028089814
185	0x3d44daaa	0.048060097
186	0xbd100f24	-0.03517069
187	0xbc4ad297	-0.01237931
188	0x3d56bcbc	0.052426085
189	0xbdacaba1	-0.08431173
190	0x3d03b5ba	0.03215573
191	0xbd997b85	-0.074942626
192	0xbdcec82c	-0.100967735
193	0xbd1d129e	-0.038347833
194	0xbdcf5162	-0.101229444
195	0xbd94b540	-0.07261133
196	0xbdca6a48	-0.09883553
197	0xbc160119	-0.009155535
198	0xbd86d120	-0.06582856
199	0xbda73e9a	-0.08166237
200	0xbdbdb0e0	-0.09262252
201	0x3c8ed365	0.017434785
202	0xbc47ee7c	-0.012202855
203	0x3ced1ad2	0.028943453
204	0xbda77481	-0.08176518
205	0x3bba3e6e	0.0056837117
206	0x3cd05231	0.025429817
207	0x3cd6ba6c	0.02621194
208	0xbdb2171f	-0.08695816
209	0x3cd1c754	0.025607742
210	0xbd23c51a	-0.039982893
211	0xbca3540d	-0.01993754
212	0xbb7c23d7	-0.003847351
213	0xbcb3b0fb	-0.021934977
214	0xbd203e5b	-0.039121967
215	0xbd016d4f	-0.031598385
216	0xbdfb2383	-0.12262633
217	0xbd57ff7f	-0.052733894
218	0x3d3eb8db	0.04656301
219	0xbc5e3b7a	-0.013563985
220	0xbbfa5824	-0.0076399017
221	0x3d26e08a	0.04074148
222	0xbdab4a9c	-0.0836384
223	0xbc88520c	-0.016640685
224	0x3cf6be6b	0.030120095
225	0xbd9e67c4	-0.077346355
226	0xbdef9eb9	-0.11700196
227	0x3b321341	0.002717212
228	0xbd88700a	-0.06661995
229	0x3d09ae84	0.033613697
230	0x3d49cd06	0.04926779
231	0xbd3a94cf	-0.04555207
232	0xbdc9856e	-0.09839903
233	0xbcec2adb	-0.028829029
234	0xbdf4420e	-0.119266614
235	0x3ce5dcf5	0.028059462
236	0xbdfda75d	-0.12385438
237	0xbd7b9d0d	-0.061429072
238	0xbd3156d2	-0.04329569
239	0xbce7afa6	-0.028281998
240	0xbb309c4d	-0.0026948631
241	0xbb83e220	-0.004024759
242	0x3d252deb	0.040326994
243	0x3ba26f98	0.0049571507
244	0x3a9f9437	0.0012174909
245	0x3d115a34	0.035486415
246	0xbcf4077f	-0.02978873
247	0x3dc9a3b2	0.098456755
248	0xbdc56645	-0.09638647
249	0xbc801a27	-0.01563747
250	0xbd66058d	-0.056157637
251	0xbdf77951	-0.12083686
252	0xbd99de5d	-0.075131156
253	0xbdd69386	-0.104773566
254	0xbcb3fc80	-0.021970987
255	0xbdf73ae3	-0.120717786

bias f4 [256]
0	0xbb1f065e	-0.002426527
1	0x3ca6ace6	0.020346116
2	0xbc8901e4	-0.016724534
3	0xbdd94a69	-0.10609896
4	0x3c72a3b1	0.014809535
5	0xbd269c32	-0.040676303
6	0xbdc6a2b3	-0.09699001
7	0xbd6c8d2b	-0.057751816
8	0xbdc8f3cd	-0.09812126
9	0x3d5799b1	0.052636806
10	0xbe122407	-0.14271556
11	0xbb1bc96d	-0.0023771182
12	0xbcea9fdc	-0.02864068
13	0xbe588ca5	-0.21147402
14	0xbd7dffac	-0.062011406
15	0x3d80fd1a	0.06298275
16	0xbc0b146d	-0.008488757
17	0xbde742a2	-0.11292006
18	0xbe9030fd	-0.28162375
19	0xbd23d940	-0.040002108
20	0xbde3c6ac	-0.11121878
21	0xbd15f7ae	-0.03661316
22	0x3c683006	0.014171606
23	0xbe03c62a	-0.12868562
24	0xbe47a30a	-0.19495788
25	0x3cb2edd2	0.021841917
26	0x3e0cd111	0.13751628
27	0x3dfc77a0	0.12327504
28	0xbe313b6b	-0.17307822
29	0xbdb6ef60	-0.08932376
30	0xbd6a6214	-0.05722244
31	0xbe1ddded	-0.15416689
32	0x3c220099	0.009887838
33	0xbc05dbdf	-0.008170097
34	0xbd77bce7	-0.060482886
35	0xbdf5c496	-0.120003864
36	0xbcb4213a	-0.0219885
37	0xbdf66da3	-0.1203263
38	0xbd60309d	-0.05473386
39	0x3c9f2cc8	0.019430533
40	0xbd5065b6	-0.05087825
41	0xbe2ce5fb	-0.16884606
42	0xbb1a4410	-0.0023539104
43	0xbd45bd2a	-0.048276104
44	0x3d10589e	0.035240762
45	0xbd421935	-0.04738732
46	0xbd4ef8af	-0.050530132
47	0xbd7b281f	-0.06131756
48	0x3d5dc4f9	0.054142926
49	0xbdb81dcd	-0.08990059
50	0xbdb0c405	-0.08631138
51	0x3d4f56d7	0.050619926
52	0xbd923cf1	-0.0714053
53	0xbe4f4f59	-0.20245112
54	0xbe579949	-0.21054567
55	0xbd30e239	-0.043184493
56	0xbd8626cd	-0.065503694
57	0x3ba63c40	0.0050731003
58	0xbc14b5aa	-0.009076515
59	0xbdabee22	-0.083950296
60	0xbd2b3d4a	-0.041806497
61	0xbe06de4e	-0.1317074
62	0x3dfac6b4	0.12244931
63	0xbdaf7052	-0.08566345
64	0xbdb71e73	-0.089413546
65	0xbdf8b426	-0.121437356
66	0xbd2fb0d7	-0.042893257
67	0xbdf715c6	-0.120647
68	0x3c381c9e	0.011237292
69	0x3ccb7d29	0.024839954
70	0xbdbf681f	-0.093460314
71	0xbda87959	-0.0822627
72	0x3e434102	0.19067767
73	0xbd18dc8e	-0.037319712
74	0x3cde83bb	0.027162423
75	0xbddb70f2	-0.10714902
76	0xbc42f228	-0.011898555
77	0x3db99f11	0.09063543
78	0xb900cdbe	-0.00012283676
79	0x3e0ccb17	0.13749348
80	0xbe26e2e6	-0.16297492
81	0x3c78ebef	0.01519297
82	0x3d75cb15	0.060008127
83	0xbdd61073	-0.10452356
84	0x3cd8cee5	0.026465843
85	0xbd9d9d6b	-0.07696041
86	0x3d2a9916	0.0416499
87	0xbdf52318	-0.11969584
88	0xbe324817	-0.17410313
89	0xbdbdf24a	-0.092747286
90	0xbd923335	-0.07138673
91	0xbd234767	-0.039863016
92	0xbe1444be	-0.14479348
93	0x3c1ea2a1	0.009682328
94	0xbd9ec89e	-0.077531084
95	0xbd88c41e	-0.066780314
96	0xbdadc5b3	-0.08484974
97	0x3c3d10b3	0.011539626
98	0xb95f9c5e	-0.00021325189
99	0xbcbef67a	-0.023310889
100	0xbdfe9185	-0.124300994
101	0xbc28b655	-0.010297378
102	0x3d81e933	0.06343307
103	0xbd2bf1ff	-0.041978832
104	0xbd786e24	-0.060651913
105	0xbdf7a910	-0.12092793
106	0xbe26eedc	-0.16302055
107	0xbd358427	-0.044315483
108	0xbe12bcf4	-0.14329892
109	0x3df79e72	0.12090768
110	0xbdba1a2c	-0.09087023
111	0xbd14bedf	-0.03631484
112	0xbdd6c537	-0.104868345
113	0xbd9290cc	-0.07156524
114	0x3d29fad2	0.041498967
115	0xbdbebc87	-0.093133025
116	0xbde6c7a7	-0.112685494
117	0xbdf5294f	-0.119707696
118	0xbd52ec78	-0.051495045
119	0x3c45012c	0.012024205
120	0xbd865506	-0.06559186
121	0xbe1f867a	-0.15578642
122	0x3cba5da0	0.022749722
123	0xbdf12293	-0.11774173
124	0xbe4b6d5d	-0.19865938
125	0xbd2e64bf	-0.042576548
126	0x3ca521ea	0.020157773
127	0xbd35bc2e	-0.044368915
128	0x3c98d903	0.018658167
129	0xbdd11423	-0.10208919
130	0xbd12280c	-0.035682723
131	0xbd9a8310	-0.075445294
132	0x3e06b2ed	0.13154192
133	0x3aec5f90	0.0018033851
134	0xbe3cc2c0	-0.18433666
135	0xbd9e8d48	-0.07741791
136	0x3c57f79a	0.013181591
137	0xbdd47959	-0.10374708
138	0xbd8d3a98	-0.068959415
139	0x3d6ae276	0.057344876
140	0x3d818792	0.06324686
141	0xbcf66659	-0.0300781
142	0xbdd7f88b	-0.10545453
143	0xbbca2a2e	-0.006169579
144	0xbe6610fb	-0.22467415
145	0xbbc49a45	-0.0059998357
146	0xbe191ecb	-0.14953153
147	0x3d810e9a	0.06301613
148	0xbe140a6c	-0.144571
149	0xbc1ab870	-0.009443387
150	0xbc29017c	-0.010315295
151	0xbd787b82	-0.06066466
152	0xbd9e9356	-0.07742946
153	0xbe30f342	-0.17280295
154	0xbdeb1b74	-0.11479846
155	0xbcefedf4	-0.02928827
156	0x3c94e8f0	0.01817748
157	0x3d8cb173	0.06869783
158	0x3cb89f52	0.022536907
159	0xbd316981	-0.043313507
160	0xbccf4700	-0.02530241
161	0xbd35f20f	-0.0444203
162	0xbdc1b11c	-0.09457609
163	0xbe2e243b	-0.17006008
164	0xbda805dc	-0.082042426
165	0xbe064a3a	-0.13114253
166	0xbdd69818	-0.10478228
167	0xbe49e082	-0.19714549
168	0xbcdf9282	-0.02729154
169	0x3e3de118	0.18542898
170	0xbb592627	-0.0033134313
171	0xbd950094	-0.07275501
172	0x3d998eda	0.0749795
173	0xbd978c74	-0.07399836
174	0xbdd48f15	-0.10378853
175	0xbc150952	-0.00909646
176	0x3c399808	0.011327751
177	0x3d836308	0.06415373
178	0x3ca58773	0.020206189
179	0xbe5392c7	-0.2066146
180	0x3b9df54a	0.0048205005
181	0xbcc73019	-0.024314927
182	0xbc4415a4	-0.01196805
183	0xbdc243fa	-0.09485622
184	0x3c6f67d5	0.014612158
185	0xbd6fad99	-0.058515165
186	0x3d694b9c	0.056956872
187	0xbe616319	-0.22010459
188	0xbd271876	-0.040794812
189	0xbcb84611	-0.022494348
190	0xbbbfc85c	-0.005852742
191	0xbe0e0584	-0.13869292
192	0xbe2b4092	-0.1672385
193	0x3df38706	0.11890988
194	0xbcd346cf	-0.0257906
195	0xbc0d24cb	-0.008614729
196	0xbe135601	-0.14388277
197	0xbd28b6ab	-0.04118983
198	0xbda28a44	-0.07936528
199	0x3d582cce	0.052777104
200	0x3e85c063	0.26123342
201	0xbd6b5c4a	-0.05746106
202	0xbdb3ec90	-0.08785355
203	0xbdbae42f	-0.09125554
204	0xbd4a27a8	-0.049354225
205	0xbd475458	-0.04866442
206	0xbd60a05e	-0.054840438
207	0xbe789ea4	-0.24279267
208	0xbce50d02	-0.027960304
209	0x3e5f4e30	0.2180717
210	0x3cc15ec4	0.023604758
211	0xbe1fbfbc	-0.15600485
212	0xbd94c3df	-0.07263922
213	0x3ccbaf7f	0.024863956
214	0xbe112e34	-0.14177781
215	0x3dbef6b8	0.093244016
216	0xbdcf8e4e	-0.10134564
217	0xbdc6e912	-0.097124234
218	0xbd17f02f	-0.03709429
219	0x3b384c1d	0.002812154
220	0xbdcfc481	-0.10144902
221	0x3b3f4ab7	0.002918882
222	0xbdef2c57	-0.11678379
223	0xbdf23803	-0.1182709
224	0xbcd48544	-0.025942452
225	0xbd5e68cc	-0.05429916
226	0xbdc4f9ae	-0.09617935
227	0xbd79b840	-0.06096673
228	0xbd96feff	-0.073728554
229	0x3e627d86	0.22118196
230	0x3da00974	0.07814303
231	0xbd3efceb	-0.04662792
232	0xbd7b6fb0	-0.06138581
233	0xbd0d471d	-0.034491647
234	0xbc098e03	-0.008395675
235	0xbcfaa56f	-0.030596463
236	0xbd889f59	-0.06671018
237	0x3d64654c	0.055760667
238	0xbd856ce1	-0.06514908
239	0xbd46d472	-0.048542447
240	0x3b0db923	0.0021625243
241	0xbda81376	-0.08206837
242	0xbdfd6ead	-0.12374625
243	0x3da69f0f	0.08135807
244	0x3c9e2eda	0.01930945
245	0xbe3c4024	-0.18383843
246	0xbe16b091	-0.14715792
247	0xbdbb39f1	-0.09141911
248	0xbc6f362b	-0.014600317
249	0xbd82a39b	-0.063788615
250	0x3d47b53a	0.048756815
251	0xbc29fb77	-0.010374895
252	0xbd9116e2	-0.07084443
253	0xbe427ea3	-0.1899362
254	0x3d56aab2	0.05240888
255	0x3dc577ba	0.09641977

weight f4 [5, 256]
0	0xbdb04d97	-0.08608549
1	0xbd0da262	-0.03457869
2	0x3d701976	0.05861803
3	0xbc03fd8f	-0.008056059
4	0xbc4a275d	-0.0123384865
5	0xbc8f682b	-0.017505726
6	0x3d03b74e	0.032157235
7	0x3c9bf095	0.019035617
8	0xbc257ea8	-0.010100998
9	0xbd3c58c3	-0.045983087
10	0x3e680998	0.2265991
11	0x3cfb8ea7	0.03070767
12	0x3c0a3eb7	0.008437804
13	0xbd8cd374	-0.06876269
14	0x3d56c8f6	0.052437745
15	0x3dd4f045	0.1039739
16	0xbc954d3f	-0.01822531
17	0x3bc214a5	0.005922871
18	0xbd36b1b7	-0.044603076
19	0x3d213aa8	0.03936258
20	0xbe0988ca	-0.13431087
21	0xbdc5c168	-0.0965603
22	0x3ae6e0ca	0.00176146
23	0xbd5f1610	-0.0544644
24	0xbd23468e	-0.039862208
25	0xbc72e9ce	-0.014826251
26	0xbdc437d4	-0.09580961
27	0xbdd37ea2	-0.10326888
28	0x3d58ab0b	0.052897494
29	0xbd7d1f90	-0.06179768
30	0x3d153b4a	0.036433496
31	0x3c5ddc40	0.013541281
32	0xbdfb713e	-0.122774586
33	0xbcfb3bc3	-0.030668145
34	0xbd55411e	-0.052064054
35	0xbd5b8b93	-0.053599905
36	0xbc419418	-0.011815093
37	0x3bfe4ab7	0.0077603715
38	0xbcb28394	-0.021791257
39	0xbd901f7a	-0.07037254
40	0xbcebfa7a	-0.02880596
41	0xbd8d404a	-0.06897028
42	0x3d4fb625	0.050710816
43	0x3d0ff2da	0.03514371
44	0xbb98d6a2	-0.004664258
45	0xbc862830	-0.016376585
46	0x3e051aeb	0.1299855
47	0x3c81c825	0.015842507
48	0x3caab662	0.02083892
49	0xbdfb7335	-0.12277833
50	0xbda0029f	-0.07813
51	0x3d8d451f	0.068979494
52	0xbd57c448	-0.052677423
53	0xbd4f3d3f	-0.05059552
54	0x3cb0404c	0.021515034
55	0x3cc6403f	0.024200557
56	0xbb949eee	-0.0045355475
57	0xbc0fe659	-0.0087829465
58	0x3c60fa64	0.013731573
59	0xbdd178c3	-0.102281116
60	0xbd8ebb84	-0.069693595
61	0x39f30cc2	0.00046358077
62	0x3b3ed83f	0.0029120592
63	0xbdf0f5e0	-0.11765647
64	0xbd69bcb7	-0.057064738
65	0x3c40b7ba	0.011762554
66	0xbb68e2ab	-0.0035535495
67	0xbcbe8c15	-0.023260156
68	0x3d214be2	0.039379008
69	0x3d44fb9d	0.04809152
70	0xbd0ea5e1	-0.034826163
71	0x3de95137	0.113924436
72	0xbdc5a8e7	-0.09651356
73	0xbdbb0475	-0.091317095
74	0x3c76d3ee	0.015065176
75	0x3d57207b	0.05252121
76	0x3c8c6f61	0.017142953
77	0x3d8a2bbf	0.06746625
78	0x3bf309b6	0.007416929
79	0xbdd2974c	-0.10282764
80	0xbcf10f65	-0.029426286
81	0x3b86168d	0.0040920437
82	0xbdedcc62	-0.116112486
83	0xbce7f499	-0.028314875
84	0xbd8cd380	-0.06876278
85	0x3cde7635	0.027155975
86	0x3e0347f0	0.1282041
87	0xbd5427a5	-0.05179562
88	0x3e067cf2	0.131336
89	0xb9b29e77	-0.0003406887
90	0x3bbd1a46	0.0057709543
91	0x3c90c06a	0.017669875
92	0xbba79c18	-0.0051150434
93	0x3e322b8b	0.17399423
94	0xbd35884e	-0.044319443
95	0x3cdf260b	0.02723982
96	0x3c81d049	0.015846388
97	0x3d83a7c6	0.064284846
98	0xbb5c16c7	-0.0033582912
99	0xbd7e9ed6	-0.062163197
100	0xbc07f8bc	-0.008299049
101	0xbdcee633	-0.10102501
102	0xbd4d9c26	-0.050197743
103	0x3c826830	0.015918821
104	0xbd3aa62c	-0.04556863
105	0xbc2111f7	-0.009830943
106	0xbca020cb	-0.019546887
107	0xbdcf2357	-0.101141624
108	0xbc9f5f7e	-0.019454714
109	0xbdbf2832	-0.093338385
110	0xbd2fc356	-0.042910896
111	0x3c3b5092	0.011432784
112	0x3b1d3857	0.002398988
113	0xbd2a34c6	-0.041554235
114	0x3c1c729e	0.009548811
115	0x3dc812a9	0.09769184
116	0x3cc92af1	0.024556609
117	0xbd440a7b	-0.047861557
118	0x3c3080a7	0.010772861
119	0xbd3f0bb6	-0.046642028
120	0xbc9069b2	-0.017628524
121	0xbdd5dcb9	-0.1044249
122	0x3d901b3f	0.07036447
123	0xbc75002e	-0.014953656
124	0xbd57add3	-0.052656006
125	0x3cec2798	0.028827474
126	0x3d240090	0.0400396
127	0xbd57a590	-0.052648127
128	0x3d3af8a5	0.045647282
129	0x3d041de2	0.03225506
130	0xbc60480a	-0.01368905
131	0xbd65fca3	-0.056149136
132	0xbda8eb78	-0.08248037
133	0xbca06a20	-0.019581854
134	0xbd3318d9	-0.04372487
135	0xbd5afb2f	-0.053462204
136	0xbd5fb090	-0.054611742
137	0xbcdcbdc7	-0.026945962
138	0xbb483f6e	-0.0030555385
139	0x3dc21ce7	0.09478169
140	0x3dbf9dc9	0.09356267
141	0xbe12c3eb	-0.1433255
142	0xbdcef624	-0.10105541
143	0x3d0283d3	0.031864
144	0xbd44fb38	-0.048091143
145	0xbd04c114	-0.032410696
146	0xbd41a299	-0.047274206
147	0x3d1b9307	0.037982013
148	0xbdfc1701	-0.12309075
149	0xbd97acad	-0.07405982
150	0xbd860231	-0.06543387
151	0x3c0ca06e	0.008583171
152	0xbcea19a0	-0.028576672
153	0xbb5b4556	-0.0033458075
154	0x3acf8d1f	0.0015834904
155	0xbd595c41	-0.053066496
156	0xbb20cccc	-0.002453613
157	0x3e66766b	0.2250611
158	0xbd359204	-0.044328704
159	0xbdc36605	-0.09540943
160	0x3d93b44c	0.07212123
161	0xbc3ac478	-0.011399381
162	0xbd91593d	-0.07097099
163	0xbda0b22f	-0.07846486
164	0x3d5e49b1	0.054269496
165	0x3bb67cb4	0.005569065
166	0xbd32e494	-0.04367502
167	0xbd91c7f4	-0.07118216
168	0x3c0eaf8b	0.008708845
169	0xbdbb892a	-0.09157021
170	0x3b4bd51c	0.0031102365
171	0xbd32bd3b	-0.043637495
172	0x3ca8bdb4	0.02059827
173	0xbd603baa	-0.0547444
174	0xbcb7dd41	-0.02244437
175	0x3d02e273	0.03195424
176	0x3cd3516e	0.025795665
177	0xbc034857	-0.008012853
178	0x3d83abfa	0.06429286
179	0xbd150372	-0.03638024
180	0xbd93c9b8	-0.07216209
181	0x3bcb4b41	0.0062040393
182	0x3d2c624f	0.042085942
183	0x3be3a6bc	0.0069473665
184	0xbdfc2b47	-0.12312942
185	0x3d234b33	0.039866637
186	0xbc096d83	-0.008387926
187	0x3c9f4f6c	0.019447051
188	0x3cead5c0	0.028666377
189	0x3d66f094	0.056381777
190	0x3c009f49	0.007850477
191	0x3ce131bd	0.027489537
192	0xbd9bdf25	-0.07610921
193	0x3d4fc0e2	0.050721057
194	0xbdc61912	-0.096727505
195	0x3cd3d41b	0.025857976
196	0x3d5d87b3	0.05408449
197	0x3ca36761	0.019946756
198	0xbd5a9eb2	-0.053374
199	0xbdda6a65	-0.106648244
200	0x3dbcef17	0.0922529
201	0x3d22f769	0.03978673
202	0xbdb462d1	-0.0880791
203	0x3d49d3ed	0.049274374
204	0xbca651c0	-0.020302653
205	0x3b6eb105	0.003642143
206	0x3b9891b1	0.0046560396
207	0xbd08f31b	-0.03343497
208	0xbdc24185	-0.09485153
209	0xbdf7472e	-0.12074123
210	0xbcf0ce4d	-0.029395247
211	0xbdbd9211	-0.092563756
212	0x3d87ee80	0.06637287
213	0x3cebdeac	0.028792702
214	0xbdb1f884	-0.08689979
215	0x3be8a116	0.007099281
216	0xbccef3a1	-0.025262656
217	0xbc8bf267	-0.01708336
218	0xbc0fe752	-0.008783178
219	0xbc032e31	-0.008006618
220	0xbb06eb84	-0.0020587156
221	0x3d1af2f6	0.03782936
222	0x3c58cc85	0.013232355
223	0xbbb765bb	-0.005596844
224	0xbcf96c7f	-0.030447243
225	0x3a8164b2	0.0009871928
226	0xbd80eec9	-0.06295545
227	0xbd2a9dcc	-0.041654393
228	0xbd4a7f9b	-0.0494381
229	0xbcc00547	-0.023440016
230	0xbde3a505	-0.11115459
231	0xbcf06435	-0.029344657
232	0xbd9cab76	-0.07649891
233	0xbdb4d397	-0.0882942
234	0x3d132bd6	0.035930477
235	0xbc515045	-0.012775485
236	0xbd19f27c	-0.037584767
237	0x3dbc3c85	0.09191231
238	0xbd4b6ece	-0.04966622
239	0xbce41872	-0.027843688
240	0xbcfd4796	-0.030917924
241	0xbd6b122b	-0.057390373
242	0x3e12d897	0.14340435
243	0xbd95c24e	-0.07312451
244	0x3d286927	0.041115906
245	0xbcebd226	-0.02878673
246	0xbdcd4866	-0.100235745
247	0x3cc921a6	0.024552178
248	0x3c832efc	0.016013615
249	0xbd80f071	-0.062958606
250	0x3cf7035f	0.030152975
251	0xbd45f050	-0.048324883
252	0xbc90a7a5	-0.017658064
253	0xbe1c9c24	-0.15293938
254	0x3e1d0c7e	0.15336797
255	0xbdbd6d95	-0.09249417

bias f4 [5]
0	0xbdb7926b	-0.08963474
1	0x3e18357c	0.14864153
2	0xbd27080a	-0.04077915
3	0xbd8310d1	-0.06399692
4	0xbd0ce992	-0.034402438
