models/simple_spread/policy_model1.pkl (torch_old, 49324 bytes, 6 tensors)

weight f4 [128, 18]
0.15480453 -0.008741456 -0.3691062 -0.023805065 -0.3648079 0.3853927 0.1837321 -0.5500618
0.19526128 -0.8050557 -0.14365649 0.43450138 0.30400622 0.17513117 0.048993886 0.048208743
-0.14538394 -0.17226504 -0.27852115 0.33162326 -0.50589144 0.42373112 0.33702588 -0.41190532
-0.1962899 0.27556252 0.08793414 0.18699741 -0.6356758 0.018173259 0.4012469 -0.63987285
0.0060870647 -0.07843158 0.11278561 0.28060657 0.0032645932 -0.029383333 0.41437066 -0.44969288
-0.04664911 0.51973116 -0.40314782 -0.0563783 0.7302031 0.019188425 -0.25140318 -0.094233744
-0.47721794 -0.090631016 0.045575827 0.026487768 0.24400163 -0.12947401 0.13070211 0.1311878
-0.08749749 -0.14288984 0.061039627 -0.11680686 0.2956975 -0.5289875 -0.035344 -0.076963395
-1.0226456 0.09981499 -0.21212062 -0.20788577 0.16487685 -0.15059808 0.23864067 -0.26537728
-0.2599763 -0.010830292 -0.39167783 -0.07859535 0.13025282 0.2447919 0.2207488 0.087212026
0.06245314 -0.48189768 -0.06305249 0.13984478 -0.24909472 0.19371064 -0.121946976 -0.18590325
-0.06392199 0.07745084 0.12763728 0.0128704095 -0.41570035 0.3033725 0.01544884 0.38270095
-0.77711326 -0.2273651 0.07656332 -0.07594122 -0.213529 0.09276306 -0.16445853 0.0733119
-0.13087665 -0.035248697 0.04660946 0.20889348 -0.3253562 0.11732835 -0.3078114 0.20331134
-0.7031689 -0.05572898 0.5761913 -0.662582 -0.5283933 0.3172756 -0.062156692 -0.69905394
0.4377273 -0.0369986 0.010417163 0.27349663 0.15094578 0.18493706 -0.1305218 0.08099877
0.22562619 -0.18282627 0.47538543 0.060741127 0.44738564 0.9064819 -0.7315593 -0.42965165
-0.037070762 -0.27140942 -0.1480322 0.17108685 0.12452215 -0.2389129 0.08515364 0.24986184
0.035065223 0.28020644 0.016438501 -0.07455222 0.37448797 0.053243313 -0.23612083 -0.36842743
-0.29571736 0.028907133 -0.4710539 -0.98676765 0.4102525 0.23233834 0.19230902 -0.18666165
0.1130006 0.032895565 0.23687369 -0.4020292 0.23942076 0.13972199 -0.16767788 0.73810434
-0.0014427755 -0.14461966 -0.19716859 0.3234383 0.1939014 0.5784138 0.36669347 0.22092956
-0.13533539 -0.055597454 -0.074493065 0.19804156 -0.06361992 -0.14901406 -0.296167 -0.1626911
-0.44505897 0.22514093 0.075880505 -0.3993296 -0.2755038 -0.0044959905 0.16465525 0.20442426
0.6392628 -0.43158972 -0.0094281435 0.22260392 0.28079653 -0.17598583 0.047902275 -0.21969517
-0.19646771 -0.067450024 -0.5840866 0.026470067 -0.33790642 -0.042597633 0.64186984 -0.0048021115
0.32340792 -0.08455997 -0.52681786 -0.3319867 -0.0904537 0.0347009 -0.022249252 -0.011146039
0.15349048 -0.026925847 0.049273677 -0.013520253 0.5381346 0.33983174 -0.46831667 -0.7160081
0.03349753 0.043256294 -0.20214938 -0.3351246 -0.050121166 0.4308492 -0.20704314 0.11645776
0.15126747 0.16697434 0.22732754 -0.05010585 -5.140947e-05 0.10074371 0.1387106 -0.025255747
-0.19871446 -0.17907807 -0.1914968 -0.15323257 -0.08190972 -0.19331595 -0.029170858 0.85972667
-0.08424856 0.112375766 -0.15510923 -0.07197769 0.21034883 -0.018359257 -0.04744026 0.07132869
00000000: 1485 1e3e 5338 0fbc 7dfb bcbe d702 c3bc
00000010: 1ac8 babe 3152 c53e 4524 3c3e dad0 0cbf
00000020: 93f2 473e 2118 4ebf b01a 13be f776 de3e
00000030: b4a6 9b3e 9655 333e d0ad 483d 8876 453d
00000040: 87df 14be 3f66 30be 539a 8ebe 86ca a93e
00000050: 1a82 01bf 49f3 d83e a88e ac3e 41e5 d2be
00000060: 3800 49be 8816 8d3e d016 b43d 407c 3f3e
00000070: a6bb 22bf 16e0 943c 3c70 cd3e b5ce 23bf
00000080: 0076 c73b bca0 a0bd 24fc e63d aaab 8f3e
00000090: c9f2 553b 51b5 f0bc 6428 d43e 253e e6be
000000a0: 2313 3fbd 1a0d 053f 6469 cebe efec 66bd
000000b0: 97ee 3a3f 0b31 9d3c ebb7 80be 9ffd c0bd
000000c0: e955 f4be c19c b9bd b8ad 3a3d e0fc d83c
000000d0: 90db 793e d694 04be c6d6 053e 1856 063e
000000e0: e231 b3bd b751 12be b004 7a3d 6f38 efbd
000000f0: aa65 973e ba6b 07bf dfc4 10bd fc9e 9dbd
00000100: 0de6 82bf cd6b cc3d 2636 59be 02e0 54be
00000110: 7ad5 283e 6236 1abe 385e 743e 88df 87be
00000120: 9d1b 85be 8971 31bc ff89 c8be 99f6 a0bd
00000130: ff60 053e baaa 7a3e f90b 623e 389c b23d
00000140: ddce 7f3d 4bbb f6be aa21 81bd 7833 0f3e
00000150: b012 7fbe 155c 463e 56bf f9bd 6c5d 3ebe
00000160: 88e9 82bd 8c9e 9e3d 59b3 023e 69de 523c
00000170: add6 d4be a453 9b3e 221d 7d3c 61f1 c33e
00000180: e5f0 46bf 66d2 68be 3bcd 9c3d 1287 9bbd
00000190: 59a7 5abe 8ffa bd3d d167 28be 8d24 963d
000001a0: 8704 06be f060 10bd 90e9 3e3d 2ce8 553e
000001b0: 1695 a6be d949 f03d 7599 9dbe d930 503e
000001c0: e102 34bf 1244 64bd 4681 133f f99e 29bf
000001d0: c944 07bf f371 a23e 0498 7ebd 33f5 32bf
000001e0: cb1d e03e d88b 17bd c0ac 2a3c c007 8c3e
000001f0: 8891 1a3e 2460 3d3e 82a7 05be afe2 a53d
00000200: 8d0a 673e cf36 3bbe b865 f33e b0cb 783d
00000210: bb0f e53e 330f 683f 7847 3bbf 4dfb dbbe
00000220: 83d7 17bd 2df6 8abe c195 17be 6431 2f3e
00000230: 7805 ff3d 95a5 74be 0865 ae3d c8db 7f3e
00000240: 8da0 0f3d 3877 8f3e 09aa 863c d6ae 98bd
00000250: e3bc bf3e a915 5a3d a9c9 71be 85a2 bcbe
00000260: 4468 97be a7ce ec3c fa2d f1be ce9c 7cbf
00000270: 9e0c d23e 1aea 6d3e a8ec 443e 3b24 3fbe
00000280: dc6c e73d 80bd 063d 048f 723e c5d6 cdbe
00000290: b72a 753e 4813 0f3e c0b3 2bbe 68f4 3c3f
000002a0: 831b bdba 2d17 14be 90e6 49be b499 a53e
000002b0: 178e 463e ed12 143f 3fbf bb3e 5c3b 623e
000002c0: 5c95 0abe 28ba 63bd d28f 98bd 68cb 4a3e
000002d0: 294b 82bd 2497 18be 33a3 97be 7f98 26be
000002e0: c5de e3be 588b 663e 3d67 9b3d ee74 ccbe
000002f0: d60e 8dbe 1a53 93bb 639b 283e 9854 513e
00000300: baa6 233f 54f9 dcbe 8078 1abc 48f2 633e
00000310: 90c4 8f3e a135 34be 2d35 443d c5f7 60be
00000320: d52e 49be 3d23 8abd b386 15bf c1d7 d83c
00000330: 1202 adbe db7a 2ebd 9551 243f 085b 9dbb
00000340: b995 a53e c72d adbd 89dd 06bf 29fa a9be
00000350: ca3f b9bd 8822 0e3d 1044 b6bc e09d 36bc
00000360: 9c2c 1d3e 9893 dcbc 32d3 493d 0d84 5dbc
00000370: 30c3 093f 6dfe ad3e 34c7 efbe 4f4c 37bf
00000380: b534 093d 832d 313d 3f00 4fbe 7495 abbe
00000390: da4b 4dbd 4498 dc3e 1e03 54be 6881 ee3d
000003a0: dce5 1a3e 52fb 2a3e 8dc8 683e cb3b 4dbd
000003b0: 80a0 57b8 b852 ce3d 270a 0e3e 24e5 cebc
000003c0: ce7b 4bbe 3e60 37be bd17 44be 00e9 1cbe
000003d0: 49c0 a7bd 9ef4 45be b9f7 eebc 0c17 5c3f
000003e0: 828a acbd 4425 e63d f4d4 1ebe 0a69 93bd
000003f0: af65 573e 2766 96bc b850 42bd c714 923d

bias f4 [128]
-0.11888342 0.21468201 -0.22550412 0.33879876 -0.054762423 0.25945196 -0.082131386 0.22944309
-0.31094757 -0.23825505 0.12069942 0.08779119 0.2786698 0.13293701 0.06614925 -0.73969376
0.18168223 -0.1320429 0.22324231 0.42952636 0.16788684 0.48761454 0.0043760086 -0.20018968
-0.122872494 0.23626229 -0.30250138 0.3586635 0.2688808 0.35365224 0.09245426 0.1251335
0.10483849 0.49063894 -0.24291018 0.29778084 0.06559338 -0.089862965 0.02840862 -0.22911367
-0.018293623 0.005239836 -0.2805973 -0.10101752 -0.40534925 -0.07107039 0.16553047 0.12080075
0.25829732 -0.16692677 -0.09283484 0.29305723 0.1664705 0.1234088 -0.013281756 -0.15276004
0.1863672 -0.251383 -0.40023845 -0.0054824515 -0.12260928 0.27554384 0.5373777 0.030546583
0.02909423 -0.55445755 0.1131702 -0.2127104 0.074780904 -0.11448616 0.15824132 -0.051600873
0.13389409 -0.13383411 -0.023018502 0.10796484 -0.2552552 -0.08052707 0.06819496 0.11326869
0.15818997 0.1739037 -0.22227679 -0.04408484 -0.07758169 0.32884306 -0.49315408 -0.007020539
-0.19391915 0.053841945 0.18790592 -0.33094382 -0.20243932 -0.060964745 0.21431066 0.06911843
0.06377983 0.05454799 -0.3270035 0.10749976 -0.11386931 -0.05446204 -0.28000522 0.3884917
0.07668589 -0.014548505 -0.34080923 0.07851041 -0.069635004 0.13837124 -0.2715221 -0.45144784
0.17616919 -0.00456978 -0.15332127 -0.38731027 0.052023306 -0.045517813 -0.49535573 -0.07528311
0.14515181 -0.21992558 0.14056632 0.14427379 -0.5878889 -0.19230035 0.015422695 0.13250113
00000000: 2779 f3bd 9ad5 5b3e 8dea 66be 0877 ad3e
00000010: 904e 60bd e3d6 843e 8034 a8bd 21f3 6a3e
00000020: 8534 9fbe 22f9 73be 4231 f73d decb b33d
00000030: cfad 8e3e a420 083e 4279 873d 925c 3dbf
00000040: e80a 3a3e 4136 07be a299 643e e1ea db3e
00000050: 87ea 2b3e 9da8 f93e 9f64 8f3b 86fe 4cbe
00000060: 93a4 fbbd beee 713e 76e1 9abe bea2 b73e
00000070: bfaa 893e e811 b53e a958 bd3d ff22 003e
00000080: 90b5 d63d 0735 fb3e 72bd 78be bb76 983e
00000090: d255 863d 130a b8bd 32b9 e83c c69c 6abe
000000a0: 82dc 95bc eeb2 ab3b 73aa 8fbe 46e2 cebd
000000b0: f089 cfbe 5a8d 91bd d280 293e 6266 f73d
000000c0: 8c3f 843e daee 2abe 3120 bebd 990b 963e
000000d0: 3e77 2a3e c1bd fc3d b99b 59bc 216d 1cbe
000000e0: 0bd7 3e3e 46b5 80be 0eec ccbe 23a6 b3bb
000000f0: 931a fbbd 1514 8d3e 9691 093f d43c fa3c
00000100: 0657 ee3c eef0 0dbf c7c5 e73d c1d0 59be
00000110: bb26 993d b877 eabd 030a 223e 705b 53bd
00000120: 881b 093e cf0b 09be 4c91 bcbc ac1c dd3d
00000130: cfb0 82be 60eb a4bd cda9 8b3d 6af9 e73d
00000140: 8dfc 213e d013 323e 879c 63be 4e92 34bd
00000150: 26e3 9ebd 1e5e a83e b17e fcbe 8d0c e6bb
00000160: be92 46be 5f89 5c3d 696a 403e 7871 a9be
00000170: 414c 4fbe 2bb6 79bd 4174 5b3e f78d 8d3d
00000180: 009f 823d b76d 5f3d 016d a7be d628 dc3d
00000190: 5034 e9bd 9713 5fbd d85c 8fbe 62e8 c63e
000001a0: 7e0d 9d3d da5c 6ebc 8c7e aebe 11ca a03d
000001b0: cc9c 8ebd 31b1 0d3e f204 8bbe 2c24 e7be
000001c0: b265 343e 18be 95bb 4000 1dbe 884d c6be
000001d0: 6416 553d e370 3abd 449f fdbe 082e 9abd
000001e0: ada2 143e 2c34 61be 9ef0 0f3e 82bc 133e
000001f0: e37f 16bf 62ea 44be 79af 7c3c 60ae 073e

weight f4 [64, 128]
-0.46735683 0.4961381 -0.13376385 0.05371431 -0.41096318 0.18938877 -0.0727777 0.16355309
-0.30079594 0.3841234 -0.12541613 0.26074755 -0.15226084 -0.25086886 0.40682015 -0.5835348
0.21311092 -0.32805783 0.1693792 0.45675614 -0.24149959 -0.14185907 -0.2141303 -0.50026923
-0.045483336 -1.0267631 -0.38486147 -0.12210167 0.68438905 0.32479247 0.49054614 -0.051310617
0.21097222 0.17307293 0.042456336 0.24650554 0.24652898 -0.4195416 0.30994394 -0.20700441
-0.69704586 -0.12767032 -0.06262297 -0.13837703 -0.14683673 0.07329316 0.03404114 -0.43557584
-0.17722872 0.58487636 0.31961715 0.14615037 0.067102425 0.10871592 0.64566594 0.07840961
-0.1475359 -0.18887578 0.188652 0.20826432 -0.020621259 -0.1851643 -0.41361633 -0.7313642
0.015294558 -0.6164506 0.37229466 -0.25228453 0.041143045 0.8056879 0.09667097 0.061389294
-0.36485738 0.3592697 0.15739605 0.14452963 -0.36222622 0.31333044 -0.14631608 0.25570783
0.480118 0.081524245 -0.1893546 -0.15262458 -0.47335446 0.12267215 -0.008883003 -0.006870593
-0.5550455 -0.38442937 0.011829199 0.4059349 -0.19855729 0.20391928 0.044491857 0.261091
-0.34578007 -0.4339863 0.031071294 -0.22575732 -0.2976959 0.2209852 -0.59487355 -0.46240598
-0.13708748 -0.19153474 -0.58395 -0.5172011 -0.38167125 -0.13981579 0.02025619 -0.490867
0.35074326 0.7764299 0.17770915 -0.23672195 0.09021134 -0.1316582 -0.12290565 -0.15346186
-0.024989258 0.46862632 0.316436 -0.022935849 -0.7146337 0.06634674 0.07436931 -0.21607694
-0.058884453 -0.14837256 0.23663464 0.72904086 0.009061485 -0.16250765 0.11133655 -0.13847327
0.318843 -0.11994404 -0.6651655 0.40554798 0.28985003 -0.4432325 0.44514084 0.07453597
0.38849926 0.46519685 -0.49928468 -0.36005723 -0.34434322 0.45816547 0.25911635 0.022958115
-0.8254747 -0.29084286 -0.51010585 -0.19985354 -0.10247871 -0.2906929 -0.20764858 0.15227589
0.056456774 -0.072040044 -0.40184388 0.33101085 0.43221214 0.46040896 0.35620403 0.42005864
-0.11005739 0.14051613 0.2218808 -0.059542596 -0.15733075 0.05989184 -0.2479182 -0.2990341
-0.042668253 0.025625464 -0.10935747 0.5392963 -0.43293756 -0.00020076451 0.5297787 -0.35634172
0.45349404 -0.14575651 0.044788327 -0.12777352 -0.034870844 0.14213513 -0.21858296 0.29300988
0.018756635 -0.01687424 -0.44361976 0.5087664 0.44073102 0.04098815 0.036266916 -0.72871643
0.15888116 0.22068544 -0.032843698 0.26756158 0.03653761 -0.035867833 -0.22786057 0.29810163
-0.33430058 0.44969615 0.5366012 -0.035185155 -0.111138865 0.22979303 -0.35450172 -0.23244748
0.57160884 -0.07480713 -0.22881955 0.36140117 0.09422793 -0.070289396 -0.21014337 0.27247298
0.34219745 0.16218683 0.42213985 -0.09121486 0.11214248 -0.29355064 -0.30764967 0.23607422
-0.17131414 -0.36487725 -0.3802461 -0.1285088 -0.52822924 0.17561977 -0.020454083 0.21917304
0.053355247 -0.014466962 0.66680557 0.1481556 0.012137897 -0.16393264 -0.31600493 0.020993432
-0.3361631 -0.7486911 -0.0063285725 0.48647672 -0.6763192 0.07109789 -0.07522975 -0.24635181
00000000: 6549 efbe d005 fe3e 64f9 08be 8903 5c3d
00000010: c469 d2be 21ef 413e 7a0c 95bd 767a 273e
00000020: ed01 9abe d3ab c43e 166d 00be b480 853e
00000030: 44ea 1bbe e271 80be bb4a d03e 8962 15bf
00000040: c039 5a3e 32f7 a7be be71 2d3e f1db e93e
00000050: ab4b 77be 8143 11be f944 5bbe a511 00bf
00000060: bc4c 3abd f96c 83bf 900c c5be 7110 fabd
00000070: 1f34 2f3f 334b a63e dd28 fb3e 152b 52bd
00000080: 1a09 583e 083a 313e b2e6 2d3d f36b 7c3e
00000090: 1872 7c3e 28ce d6be f9b0 9e3e f7f8 53be
000000a0: 9971 32bf 02bc 02be 7940 80bd b5b2 0dbe
000000b0: 5e5c 16be b91a 963d b96e 0b3d cc03 dfbe
000000c0: 727b 35be 75ba 153f dca4 a33e 71a8 153e
000000d0: ff6c 893d 74a6 de3d 5d4a 253f 3895 a03d
000000e0: a713 17be a768 41be fd2d 413e 3e43 553e
000000f0: eaed a8bc b69b 3dbe 85c5 d3be af3a 3bbf
00000100: 0796 7a3c b5cf 1dbf 689d be3e 702b 81be
00000110: 9c85 283d 9041 4e3f 6efb c53d 5773 7b3d
00000120: 96ce babe 33f2 b73e 6e2c 213e 93ff 133e
00000130: b775 b9be d96c a03e e2d3 15be 23ec 823e
00000140: 07d2 f53e 2ff6 a63d 2ce6 41be 9e49 1cbe
00000150: 845b f2be 893b fb3d 048a 11bc b622 e1bb
00000160: 7617 0ebf edd3 c4be 42cf 413c b3d6 cf3e
00000170: 9a52 4bbe 37d0 503e 183d 363d b8ad 853e
00000180: 160a b1be 7433 debe 3a89 fe3c ed2c 67be
00000190: 996b 98be f249 623e a249 18bf 7ac0 ecbe
000001a0: a960 0cbe af21 44be bf7d 15bf 4b67 04bf
000001b0: 6a6a c3be df2b 0fbe 4ff0 a53c eb52 fbbe
000001c0: 9f94 b33e 1cc4 463f 63f9 353e 3d67 72be
000001d0: b9c0 b83d 68d1 06be f5b5 fbbd 1b25 1dbe
000001e0: 46b6 ccbc caef ef3e e603 a23e f6e3 bbbc
000001f0: 3cf2 36bf cde0 873d f04e 983d 4643 5dbe
00000200: d330 71bd faee 17be 5a50 723e 6ca2 3a3f
00000210: 9f76 143c 6868 26be 6b04 e43d f0cb 0dbe
00000220: 643f a33e 39a5 f5bd 4948 2abf fca3 cf3e
00000230: 3967 943e 5fef e2be 80e9 e33e 51a6 983d
00000240: 60e9 c63e 482e ee3e 3ea2 ffbe 6c59 b8be
00000250: c14d b0be aa94 ea3e e6aa 843e a812 bc3c
00000260: 4f52 53bf 5be9 94be 4c96 02bf 68a6 4cbe
00000270: 5ce0 d1bd b3d5 94be d4a1 54be 36ee 1b3e
00000280: 383f 673d bb89 93bd 7bbe cdbe 417a a93e
00000290: e94a dd3e b9ba eb3e 6060 b63e ed11 d73e
000002a0: c565 e1bd 76e3 0f3e b834 633e f0e2 73bd
000002b0: 501b 21be 2551 753d 45de 7dbe ff1a 99be
000002c0: e8c4 2ebd 7eec d13c cff6 dfbd 530f 0a3f
000002d0: fea9 ddbe 5084 52b9 949f 073f 6c72 b6be
000002e0: 5f30 e83e 3241 15be f773 373d 10d7 02be
000002f0: bbd4 0ebd df8b 113e 36d4 5fbe 6405 963e
00000300: 84a7 993c d93b 8abc 2122 e3be 843e 023f
00000310: 7fa7 e13e 31e3 273d 9e8c 143d 298d 3abf
00000320: beb1 223e 5dfb 613e 1d87 06bd d5fd 883e
00000330: 76a8 153d 26ea 12bd 4854 69be c7a0 983e
00000340: 7229 abbe 933e e63e b25e 093f 4f1e 10bd
00000350: c69c e3bd dd4e 6b3e 4081 b5be b606 6ebe
00000360: f554 123f 7b34 99bd ac4f 6abe 9309 b93e
00000370: 93fa c03d e3f3 8fbd d32f 57be 9481 8b3e
00000380: 8134 af3e 4e14 263e b722 d83e dbce babd
00000390: f5aa e53d 454c 96be 4284 9dbe 71bd 713e
000003a0: f96c 2fbe 31d1 babe 9eaf c2be d097 03be
000003b0: 083a 07bf abd5 333e 528f a7bc e66e 603e
000003c0: 088b 5a3d d606 6dbc c5b3 2a3f 1ab6 173e
000003d0: 08de 463c f5dd 27be 66cb a1be 6bfa ab3c
000003e0: 921d acbe 38aa 3fbf ea5f cfbb 7a13 f93e
000003f0: 4123 2dbf c59b 913d 0e12 9abd a643 7cbe

bias f4 [64]
0.19705972 0.10962437 0.07236064 0.33592078 0.04682065 0.01688539 0.027813815 0.020542597
0.058109857 0.45210332 0.30748007 -0.0758484 0.30324858 0.017021626 0.012965828 -0.0039011217
0.0644915 0.003098143 0.039284453 0.15078485 0.16040477 0.28523922 0.38729566 0.21441187
0.29519787 -0.13567394 0.16066068 0.07218875 0.29681325 0.25419298 0.08260064 0.03273003
0.18220304 0.023707936 0.0007756526 0.14330359 0.029929481 0.0706473 0.098669924 0.31586334
0.28378895 0.23871431 -0.07522918 0.16070482 0.045719568 0.22877705 -0.040852275 0.27536875
-0.041992262 -0.070260994 0.16252156 0.33197632 -0.047834847 0.18404356 0.1031132 0.1332268
-0.16849181 0.14425348 0.25220487 0.062386602 -0.04882451 0.17755866 0.23918293 -0.011894339
00000000: 06ca 493e be82 e03d d131 943d cffd ab3e
00000010: 03c7 3f3d 3b53 8a3c ccd9 e33c f348 a83c
00000020: 9a04 6e3d 167a e73e 076e 9d3e 6856 9bbd
00000030: 6643 9b3e f070 8b3c a06e 543c f6a9 7fbb
00000040: 1f14 843d 370a 4b3b bce8 203d 5867 1a3e
00000050: 2641 243e e00a 923e 9e4b c63e c98e 5b3e
00000060: 2d24 973e 1cee 0abe 3c84 243e b2d7 933d
00000070: e8f7 973e 9525 823e 862a a93d ed0f 063d
00000080: 6f93 3a3e 2537 c23c 2a55 4b3a 2dbe 123e
00000090: ac2e f53c 88af 903d 7513 ca3d d7b8 a13e
000000a0: c94c 913e 8671 743e c211 9abd ce8f 243e
000000b0: 7144 3b3d 8844 6a3e b754 27bd 22fd 8c3e
000000c0: 1400 2cbd ffe4 8fbd 0d6c 263e cdf8 a93e
000000d0: 79ee 43bd ea75 3c3e 032d d33d 9b6c 083e
000000e0: 1e89 2cbe 2fb7 133e ff20 813e 1889 7f3d
000000f0: 36fc 47bd f0d1 353e 5fec 743e 79e0 42bc

weight f4 [5, 64]
-0.08271072 -0.3391017 -0.37826824 0.13260098 0.086046346 -0.99808127 0.8045569 -0.10990646
0.37335986 -0.1224048 0.2725099 0.37603664 0.96367127 0.66948396 -0.22796646 -1.2735124
0.454415 -0.8409137 -1.1608826 -0.83069444 -0.67709714 -0.3679109 -0.06651161 0.27831414
0.27277943 0.13458465 0.004402335 0.37217823 0.21423252 0.11366762 0.12614338 -0.22683841
0.91780174 0.53399116 -0.012073922 0.6489654 -0.09775027 0.1648821 -0.74962145 0.93844426
-0.32843363 0.70652884 0.40743318 -0.7257057 -0.35787216 0.43965328 -0.2978095 0.18927886
-0.060748085 0.10400384 -0.8546146 -0.67047375 -0.8292889 0.23895295 -0.32713917 0.3855726
0.4419117 -0.36704895 0.57255083 -0.4249846 -0.7734326 0.27511773 0.5763087 0.68753994
-0.11201979 0.47534585 0.22627583 -0.9156533 -1.1505436 -0.21642376 0.7674796 -0.092072055
1.0240014 -1.4534444 -0.7514796 -0.07425135 -0.66678447 -0.9991987 0.82347846 0.8220943
0.39417103 0.036839183 1.1106685 0.48865038 0.553153 1.0075176 0.38293105 0.7295917
-0.7803655 -0.42703184 -0.7115408 -1.0961953 -1.1848712 -0.14348182 1.1218553 -0.11672258
0.39821246 0.12507726 0.92795104 -0.7148041 -0.8353287 0.41167536 0.821354 -0.25356126
-1.4738339 0.11532588 0.85566485 -1.2680569 0.30995977 0.64531493 -0.35806736 -1.2274761
-0.9284889 0.9419103 0.35658526 -0.3692875 0.09011699 0.17214195 0.31096056 0.49714372
0.43565014 0.30437857 -0.2496612 0.60743845 -1.0473924 -0.23589617 0.724322 0.43885383
0.43436536 0.28279567 -0.9188897 1.0050818 -0.09004903 1.1778654 -0.23156229 -0.14147286
-0.29717273 0.6930555 0.32823035 0.00438647 -1.0958167 1.1603843 -1.3002325 -0.8134771
-1.0475351 -0.15947038 0.3095481 0.20005399 -0.50174576 0.5686907 -0.9946098 -0.8817809
0.5599944 0.35393468 -0.22968066 -0.7163319 0.5398957 0.41313496 -1.3499078 -0.5717186
-1.278638 0.24959438 -0.74043137 0.1219852 0.3920867 0.35251576 -0.9449826 -0.3945333
0.5547433 0.29434916 -0.006956099 0.5178382 1.069843 -0.41481152 0.51293516 0.7402845
1.2703619 -0.7173359 0.021805279 0.954397 0.82668203 0.0954807 0.62837476 -1.0510595
-0.21195436 -0.088339016 -0.47202703 -1.2189767 0.33412942 -0.14548466 -0.5122958 -0.6155902
0.6547076 0.5887548 1.2140553 -0.8875927 0.82038516 -0.53248876 -0.0034793797 -0.85982674
-1.3522325 0.5997438 0.35841268 -1.5296421 -0.08512409 0.0031827844 -0.952111 -0.379028
-0.2532682 -0.23490378 0.3840996 0.078203924 0.768835 -0.562027 0.66369325 0.30804047
-1.1759307 -0.988257 0.6018931 -0.16922264 0.026061563 0.20112711 -0.7307231 0.6364314
-0.29744545 -1.3814465 -0.76076555 0.61173064 0.546951 0.5086156 0.35389015 0.81012523
-0.0850295 0.76067036 0.16779676 -0.20021702 0.020177012 -1.0250558 -0.81866956 0.026667407
-1.1317137 -0.777515 -0.71205163 0.8417352 -1.1447074 0.74262494 0.25788555 0.5658536
-1.1514674 0.6089231 -1.5448543 0.53819793 -0.11306253 1.2416136 -0.21244122 -0.91861093
00000000: 3d64 a9bd bd9e adbe 60ac c1be 8dc8 073e
00000010: 1139 b03d 4182 7fbf 71f7 4d3f a316 e1bd
00000020: 0629 bf3e 5eaf fabd 6b86 8b3e e087 c03e
00000030: 29b3 763f 4d63 2b3f 0a70 69be 7402 a3bf
00000040: 15a9 e83e 1f46 57bf cd97 94bf 64a8 54bf
00000050: 3d56 2dbf d15e bcbe 3d37 88bd 317f 8e3e
00000060: bfa9 8b3e 8fd0 093e 7641 903b 258e be3e
00000070: c55f 5b3e 92ca e83d bb2b 013e 5448 68be
00000080: 0ef5 6a3f a5b3 083f b3d1 45bc 9922 263f
00000090: 4b31 c8bd dad6 283e 31e7 3fbf e23d 703f
000000a0: 7428 a8be 13df 343f 159b d03e d9c7 39bf
000000b0: 053b b7be 3c1a e13e 7d7a 98be 51d2 413e
000000c0: fcd2 78bd f7ff d43d 06c8 5abf 2ba4 2bbf
000000d0: 474c 54bf 15b0 743e c97e a7be c669 c53e
000000e0: 4042 e23e d7ed bbbe b192 123f 9597 d9be
000000f0: aeff 45bf 3bdc 8c3e f888 133f 9e02 303f
00000100: a26a e5bd 8860 f33e dab4 673e 4168 6abf
00000110: 0345 93bf 319e 5dbe 8b79 443f 4690 bcbd
00000120: 7a12 833f 770a babf f860 40bf 1711 98bd
00000130: 63b2 2abf 7ccb 7fbf 7ccf 523f c674 523f
00000140: c9d0 c93e afe4 163d 632a 8e3f 6230 fa3e
00000150: 6f9b 0d3f 56f6 803f 8a0f c43e 86c6 3a3f
00000160: 09c6 47bf eba3 dabe 8a27 36bf 2150 8cbf
00000170: dca9 97bf e6ec 12be f498 8f3f 3f0c efbd
00000180: 81e2 cb3e 4114 003e 338e 6d3f 67fd 36bf
00000190: 1ad8 55bf 1dc7 d23e 4144 523f c8d2 81be
000001a0: 97a6 bcbf fa2f ec3d da0c 5b3f b04f a2bf
000001b0: 0cb3 9e3e 5c33 253f 9b54 b7be f01d 9dbf
000001c0: 73b1 6dbf 0921 713f 5892 b63e 4013 bdbe
000001d0: 428f b83d fb45 303e 3936 9f3e 9f89 fe3e
000001e0: 890d df3e 82d7 9b3e 30a7 7fbe 1681 1b3f
000001f0: f410 86bf c48e 71be 2b6d 393f 73b1 e03e
00000200: 2365 de3e 98ca 903e 5b3c 6bbf 85a6 803f
00000210: a06b b8bd 4bc4 963f aa1e 6dbe 43de 10be
00000220: 0627 98be 166c 313f cf0d a83e 61bc 8f3b
00000230: b943 8cbf 7987 943f 056e a6bf 0940 50bf
00000240: a115 86bf 344c 23be 177d 9e3e f4da 4c3e
00000250: 6972 00bf b795 113f bf9e 7ebf 65bc 61bf
00000260: cb5b 0f3f ed36 b53e 6831 6bbe 8761 37bf
00000270: 9b36 0a3f 6d86 d33e c7c9 acbf 265c 12bf
00000280: 69aa a3bf ab95 7f3e e98c 3dbf 60d3 f93d
00000290: 97bf c83e f27c b43e 61ea 71bf 4500 cabe
000002a0: a803 0e3f efb4 963e fdef e3bb 0b91 043f
000002b0: 9ef0 883f 2d62 d4be b84f 033f 4983 3d3f
000002c0: 389b a23f 53a3 37bf fca0 b23c 5d53 743f
000002d0: 6fa1 533f 638b c33d 2bdd 203f 1e89 86bf
000002e0: 900a 59be 16eb b4bd 87ad f1be 6e07 9cbf
000002f0: 0313 ab3e eef9 14be d125 03bf 5297 1dbf
00000300: eb9a 273f a2b8 163f 2a66 9b3f 4639 63bf
00000310: c304 523f 2f51 08bf 4e06 64bb 9b1d 5cbf
00000320: f415 adbf cf88 193f de81 b73e 50cb c3bf
00000330: 8a55 aebd 4396 503b 8cbd 73bf f50f c2be
00000340: 5fac 81be 9e8a 70be b4a8 c43e 6129 a03d
00000350: 5fd2 443f 00e1 0fbf cde7 293f 7bb7 9d3e
00000360: e684 96bf 69fe 7cbf ab15 1a3f b348 2dbe
00000370: 0f7f d53c 44f4 4d3e ab10 3bbf 2bed 223f
00000380: c54a 98be 3dd3 b0bf 88c1 42bf 619a 1c3f
00000390: fb04 0c3f a234 023f 1731 b53e 5e64 4f3f
000003a0: f223 aebd 4bbb 423f ead2 2b3e b105 4dbe
000003b0: 434a a53c 0735 83bf 5494 51bf 9b75 da3c
000003c0: ffdb 90bf 390b 47bf 0449 36bf f57b 573f
000003d0: c685 92bf ab1c 3e3f 9309 843e c8db 103f
000003e0: 4963 93bf 62e2 1b3f c9bd c5bf 57c7 093f
000003f0: 548d e7bd 32ed 9e3f 318a 59be 162a 6bbf

bias f4 [5]
0.08779081 0.002229259 0.22062908 0.29751164 -0.12093484
00000000: abcb b33d c218 123b 97ec 613e 7253 983e
00000010: afac f7bd
