models/simple_spread/policy_model2.pkl (torch_old, 152076 bytes, 6 tensors)

weight f4 [128, 18]
000000 5c a9 d0 3d 0b 05 3c bd 5f 1c 41 bc b7 85 57 3e
       0.10188553 -0.045903247 -0.011786549 0.21047102
000010 ec b3 4a 3e 4d 9a 88 3c ff 57 6d 3a 61 1f 06 be
       0.19795197 0.016675139 0.0009053945 -0.13097908
000020 ce 9f 2b 3e 79 fc 38 3c 76 12 d2 3d 63 72 2a 3e
       0.1676018 0.011290663 0.102574274 0.16645198
000030 3b cd 4f 3e 4d 28 ad 3d b8 42 70 be 8e ef 07 be
       0.20293133 0.084549524 -0.23462951 -0.13274977
000040 a7 b3 4e 3e e8 a6 be 3c 4e d2 2d be dc 84 65 bd
       0.2018572 0.023272946 -0.16974756 -0.056034908
000050 3f fa 03 3e 39 0d 73 3d e6 77 61 be 16 c9 fd 3d
       0.1288843 0.059338782 -0.22018394 0.1239187
000060 86 5f 99 3e 3a 1a be 3e 8f c1 76 3d 04 39 81 3d
       0.2995569 0.37129384 0.060243186 0.06309703
000070 0f aa 20 be 85 9e fe bd e1 a3 32 bd e8 83 cd 3e
       -0.15689872 -0.12432579 -0.04361332 0.401397
000080 9f c5 20 3e 7e 17 b3 3d fe c8 b3 bd 88 25 30 bd
       0.15700386 0.08744715 -0.087785706 -0.043004543
000090 0d 0d 3d be 83 b8 c7 3c f6 9b 25 bd 95 a4 86 be
       -0.1846201 0.024379974 -0.04043194 -0.2629744
0000a0 bb 6c 4b be d3 37 41 3e 09 46 0d 3e 51 1f f1 3d
       -0.19865696 0.18868951 0.13796248 0.11773551
0000b0 cd 65 17 3e 5c 21 53 be 3a f4 51 3e 59 24 d6 3c
       0.14784928 -0.20618194 0.20503321 0.026140379
0000c0 4a 79 6a 3c 9e 3f f3 bd 31 6e 2a 3e 2e 40 c4 3d
       0.014311144 -0.118773684 0.16643597 0.09582554
0000d0 2a 1c c1 bd b8 84 bd 3c 75 b6 06 3e 7a 57 b6 3d
       -0.094292 0.023134574 0.1315554 0.089034036
0000e0 fd 3c 2e 3c 4b 1f d6 3c db 90 06 be 2c 19 b7 3d
       0.010634658 0.026137969 -0.13141195 0.08940348
0000f0 86 42 14 be e1 e5 cb bd 6d ed 42 3e bb eb 2c 3d
       -0.14478502 -0.09955955 0.19035883 0.042216998
000100 9d db 4d 3e 0c ad 9c bd ce fd 1d 3e b8 f0 21 be
       0.20103307 -0.076501936 0.1542885 -0.15814483
000110 90 72 cf bd cd 68 3a 3e 3c f7 0d 3d e4 0e 2c be
       -0.10129273 0.18204041 0.03465961 -0.16802555
000120 9e 73 0d 3d d3 d4 84 3e bd 1d 94 3d 29 5c 6a bd
       0.03453409 0.25943622 0.072322346 -0.057216797
000130 7b 46 14 3d 67 1f bd bd cd 24 aa 3e 1e 07 14 bd
       0.036200028 -0.09234505 0.33231202 -0.0361396
000140 ad 59 a4 3e 1a 7b 9d bb 7f 4b 79 3d d5 93 5e be
       0.32099667 -0.0048059346 0.060863014 -0.21736081
000150 aa 68 99 3e f2 4e ac bd d8 5b 9f 3c ab 56 47 3e
       0.29962665 -0.08413495 0.019452974 0.19466655
000160 a2 75 60 be 7d e7 1c 3e ee db b0 be e4 8c 80 3e
       -0.21919873 0.15322681 -0.34542793 0.2510749
000170 44 be d1 bd 33 3f 83 bd ca 00 3d 3e 55 86 a1 3e
       -0.102413684 -0.06408539 0.18457332 0.315478
000180 4b 1e 0a 3e 41 9d cd 3d 3a 9a 27 bc 07 0c a6 3d
       0.13488118 0.100397594 -0.010229642 0.08107763
000190 ac 66 0e bc dd b0 c2 bd 8b 35 0d 3f 72 5d db bd
       -0.008691471 -0.0950639 0.55159825 -0.10711183
0001a0 9a 79 13 be bf cb 44 be 20 80 35 bc cb 5f fe bd
       -0.14401856 -0.19218348 -0.011077911 -0.12420615
0001b0 4e 9f 39 3e 3b ee 59 3c e2 0f 31 3d 40 0d 7d 3e
       0.18127176 0.0133014275 0.043228038 0.24712086
0001c0 9a 4a 48 bd c7 7b 4d bd 07 7e 98 be 31 27 15 be
       -0.04889927 -0.05016687 -0.2978365 -0.14565732
0001d0 03 33 16 3d 58 57 da bd 7a 10 ae be 21 f0 6b 3e
       0.036669742 -0.10661191 -0.33996946 0.2304082
0001e0 97 02 ac be d3 70 18 3e f9 a0 25 be 4e c7 24 be
       -0.33595726 0.14886789 -0.16174687 -0.16091654
0001f0 a6 1f bf 3d be b9 e8 3d 94 95 90 be e8 a7 af 3b
       0.09332208 0.113635525 -0.2823912 0.005360592
000200 70 46 25 3d 91 20 3d 3e b1 cc 18 bd 7c e7 8c bd
       0.040350378 0.18469454 -0.037304584 -0.0688009
000210 57 4a 93 3e 85 32 36 3e bf 77 88 3e a0 35 14 be
       0.28767654 0.17792709 0.2665386 -0.14473581
000220 c7 e4 d9 bd 8f 50 21 be b4 98 88 3e dd 9d d7 3e
       -0.10639339 -0.15753387 0.26679003 0.42112628
000230 9b f5 13 3e ef ff 3e be d7 69 4e 3e a9 0a 43 be
       0.1444916 -0.18652318 0.20157562 -0.19047035
000240 56 e7 0c 3e fa af 2a 3e 6f 2d b8 bd c9 8a 03 3e
       0.13760123 0.16668692 -0.08993041 0.12845911
000250 59 f6 9a bd 58 6b 3c 3e 89 69 a8 be 11 cc 87 be
       -0.07566518 0.18400323 -0.32893017 -0.26522878
000260 5a 14 9e be b7 14 d9 3d 33 0c 75 be 09 ea 5c 3e
       -0.30874902 0.10599654 -0.23930435 0.21573652
000270 d6 2a c8 be 17 e9 d3 bd 30 8f 0b bc 0f 71 02 3e
       -0.3909518 -0.10347193 -0.008518025 0.12738441
000280 c2 5d 0e be 10 40 11 be 19 fe c4 3d 69 36 ae 3e
       -0.13902953 -0.14184594 0.09618778 0.34025887
000290 eb 6a 2f 3e 37 3d 28 3e bb d8 3b 3e a6 eb 50 3e
       0.1713063 0.16429602 0.18344395 0.20402393
0002a0 7b 28 02 be 5a e1 0d b9 91 a3 99 3e 33 ff 07 3e
       -0.12710755 -0.00013530758 0.30007604 0.13280945
0002b0 e2 d5 6f 3d 59 0a 10 be cd 79 b9 3e 4d 5c 7f 3e
       0.058553584 -0.14066447 0.3622574 0.24937554
0002c0 94 f8 43 bd 34 57 23 be d2 24 f7 3d 85 3e ec bd
       -0.047844484 -0.15951234 0.1206757 -0.11535362
0002d0 2d 4a 38 be 85 91 7c 3e d6 15 29 3d 17 8a c4 ba
       -0.17997046 0.24664886 0.04128059 -0.0014994767
0002e0 cf 93 48 3d d5 ca 4f 3e 30 bc 1f bd 08 41 fe bd
       0.048969086 0.20292218 -0.03899783 -0.124147475
0002f0 0a d3 25 3e df 05 91 be 88 31 35 3d 30 ba a8 be
       0.16193786 -0.28324792 0.04423669 -0.3295455
000300 b2 5f 92 3e b1 24 1e 3e 10 61 79 3c 40 9c 48 be
       0.28588635 0.15443684 0.015220895 -0.19590855
000310 0c 9d 0a 3d 4d 8c 4a 3e 4a 39 a7 3d ca 03 4a 3d
       0.033841178 0.19780083 0.08165224 0.04932002
000320 74 15 ef 3d 02 62 cb 3d 45 01 0d 3e 59 2c db bd
       0.11674014 0.09930803 0.13770016 -0.10701818
000330 07 55 3c be 4c 20 32 3d fd e4 ea 3b 9d 20 03 be
       -0.1839181 0.043487832 0.007168411 -0.1280541
000340 c0 7a 05 be af 8e 32 3e b4 59 a5 3e 0e 4c 27 be
       -0.13035107 0.17437242 0.32295 -0.16337606
000350 f8 8c be bd 48 70 8c 3c 6a 4b d8 3d fb 0d 47 3e
       -0.093042314 0.017143384 0.10561259 0.19438927
000360 66 da e2 bd 11 a2 37 bd 00 2f e7 3b bd c9 90 be
       -0.110768124 -0.044832293 0.0070551634 -0.28278914
000370 10 c6 b3 bc e3 dc 4f 3e 8f fa c3 3e 1f 44 8e 3e
       -0.02194503 0.20299105 0.382771 0.27786347
000380 63 11 c0 bd c3 1f ff 3d e5 9d 02 bd 89 5c 86 3e
       -0.09378316 0.1245723 -0.03188886 0.26242474
000390 44 63 8f 3e 76 a6 fa ba 78 a6 01 bd f5 cc 34 3e
       0.2800542 -0.0019123096 -0.031652898 0.1765631
0003a0 a5 c2 6a 3e 30 fa 17 be 44 a7 4b be 5b d0 7d 3d
       0.22925813 -0.14841533 -0.19888026 0.06196628
0003b0 e1 3d a6 3e f9 13 0e 3e e5 55 96 be 68 72 7f 3e
       0.32469085 0.13874806 -0.29362407 0.24945986
0003c0 04 89 7e be 17 c2 97 3d 5e 00 aa bd b5 59 88 be
       -0.24856955 0.074100666 -0.08300851 -0.2663094
0003d0 70 62 4e be 66 b7 04 be 09 e8 22 be 3b 14 12 3e
       -0.20154738 -0.12960586 -0.15908827 0.1426553
0003e0 6a 6c a4 3d c7 b7 47 3e 45 25 50 3e 18 fd 13 be
       0.08028491 0.19503699 0.20326717 -0.14452016
0003f0 e3 61 66 be 84 d7 55 bd a2 9c fe bd d7 65 07 bd
       -0.22498278 -0.052207485 -0.12432219 -0.033056106

bias f4 [128]
000000 aa 11 b8 bd d4 52 87 3c e3 06 16 be b0 ad 4a be
       -0.08987744 0.016518988 -0.14651065 -0.19792819
000010 36 52 8d 3a 8e ea 78 3d 42 b2 b5 3d 64 ec 9d 3d
       0.0010781947 0.060770564 0.088718906 0.077111036
000020 1d 35 a2 3d e9 1d cb 3c 48 b9 1d 3e 0f 82 b7 be
       0.07920287 0.024794536 0.1540271 -0.35841414
000030 bc 96 b1 bb de f7 91 3e a4 79 78 3e 07 0d 46 be
       -0.0054195803 0.2850942 0.24265152 -0.19340907
000040 d9 9b 41 3e 6f 5c 8b bc 22 db 3e 3e ce 12 78 3d
       0.18907107 -0.01701185 0.1863828 0.06056481
000050 01 3c ae bd a2 3b 38 3e d4 ff 9b 3d 98 52 a7 3d
       -0.085075386 0.17991498 0.07617155 0.081700504
000060 15 58 0b 3e 10 0b b8 3e ce 3a 26 3d 06 6d 88 3d
       0.1360782 0.3594594 0.040583424 0.066614196
000070 18 20 56 3e cb 50 43 3e 24 47 87 3e be cd 90 be
       0.2091068 0.19073789 0.26421463 -0.2828197
000080 fd f3 d2 3b 4d cd ef bd da 64 19 3a b3 a6 37 bb
       0.006437777 -0.1170908 0.0005851515 -0.0028022944
000090 a1 59 58 be 44 36 16 3e 45 7d ab 3e f1 b9 96 3e
       -0.2112794 0.14669138 0.3349401 0.29438737
0000a0 23 26 98 bd 56 62 81 3d dd 19 1a 3e 3c 6e aa bd
       -0.07429149 0.06317584 0.15048929 -0.08321807
0000b0 b3 1e c2 3d ab 73 a3 3d 6a de c5 bd 4c 5e 7b 3e
       0.09478512 0.07981046 -0.09661563 0.2454769
0000c0 3d 83 07 3e 13 90 88 3c f9 5a 6d 3e 44 eb 6e 3e
       0.13233657 0.016670262 0.23179235 0.23331934
0000d0 d0 03 f1 b9 1c 0f 94 3c 2c 9a 67 be da 79 be bc
       -0.00045969943 0.018073611 -0.22617406 -0.023251463
0000e0 2f c6 f0 3d 15 c9 bf bd 7c 8d a7 3d 85 d9 b5 3d
       0.117565505 -0.09364525 0.08181283 0.08879379
0000f0 67 8b 20 be f1 70 69 3d 1f 5c 6b 3e 63 3c 0d 3e
       -0.15678178 0.056992475 0.2298436 0.13792567
000100 3f cd 36 be 03 7b 02 3e b8 76 21 be 71 fc 61 bd
       -0.17851733 0.12742238 -0.15767944 -0.055172388
000110 0e ea 81 3d 3c ca 16 3e 95 e2 e5 bd 80 ab 8c 3d
       0.063434705 0.14725584 -0.11224858 0.068686485
000120 26 4e 17 3e fe 8c 82 bc 48 00 8e 3d 3b eb 23 3e
       0.14775905 -0.015936371 0.069336474 0.16007702
000130 ba 20 31 3e e2 f6 c5 bd c7 b7 67 be 83 fe ac 3d
       0.1729764 -0.0966623 -0.22628699 0.08446982
000140 73 38 76 3e 09 db 16 3e 5d da ab 3b 2b 0a 15 3e
       0.24044971 0.14731993 0.005244537 0.1455466
000150 38 b7 98 3d 8e 26 4e 3d 39 d6 98 bd e8 83 47 3d
       0.07456821 0.050329737 -0.07462735 0.04870978
000160 cc 8f 79 3c 9f 67 af be d8 12 4f be 15 59 13 3e
       0.015232038 -0.34258744 -0.20222032 0.14389451
000170 73 e3 4c be e6 1e 43 be 7c 8c b2 3d 79 82 72 3d
       -0.2000864 -0.19054756 0.087182015 0.05920646
000180 52 6d a6 3d 30 c2 40 be c4 62 96 3e 2e ed 94 bd
       0.0812632 -0.18824077 0.29372227 -0.07271801
000190 9b d0 57 be b0 ab b8 3e 4a bc 17 be c5 dd 7a be
       -0.2107567 0.36068487 -0.1481792 -0.24498661
0001a0 5f db e8 bd 74 82 99 be e6 f3 28 3e 80 53 2d 3e
       -0.11369967 -0.2998234 0.1649929 0.16926384
0001b0 4d 0e bc be 63 dd ae be ba 27 2b be d4 3c b0 3d
       -0.3672966 -0.3415328 -0.16714373 0.08605352
0001c0 3b 8e 68 3e f7 97 a1 3d 69 74 39 be 2f 24 ac 3d
       0.22710507 0.07890313 -0.18110813 0.08405339
0001d0 0a bf ea bc e2 59 be be 47 b7 61 be fd f0 7e 3e
       -0.028655548 -0.3717795 -0.22042571 0.24896617
0001e0 9b 87 ae be 71 19 ad 3e 1c dc df bd e7 5b f8 bd
       -0.34087834 0.33808473 -0.109306544 -0.12126904
0001f0 68 ae e6 3d 94 7a 0c 3d 17 71 52 3e 14 cd 8f bd
       0.11263734 0.034296587 0.20550953 -0.070215374

weight f4 [256, 128]
000000 71 8d ba bb 9d 4b a1 3c c0 63 94 3d 90 29 28 bd
       -0.0056931307 0.019689376 0.07245588 -0.041055262
000010 28 5e 43 3d 62 07 b7 bd d1 a7 a2 bd c6 9c 18 be
       0.047697216 -0.08936955 -0.07942165 -0.14903554
000020 34 05 4c 3d d6 3b 4a bd 11 0c 6d 3b 11 c9 a8 bd
       0.04980965 -0.04937347 0.0036170522 -0.082414754
000030 23 1a df bc ce e0 9d bc 67 7f 9c bd f7 ac 53 bd
       -0.027234143 -0.019272234 -0.076414876 -0.051678624
000040 29 a1 0c 3d 2f ec 06 be 5c 0b 39 bd 9b b2 14 bd
       0.03433338 -0.13176034 -0.04517685 -0.036303144
000050 ee f2 da bc ec 12 a3 bd e1 69 a2 3d 43 ba 8d bd
       -0.026727166 -0.079625934 0.07930351 -0.06920292
000060 b2 01 99 bd 4b 95 dd bc bd 1c de bd db 08 fb 3c
       -0.074710265 -0.027048727 -0.10845325 0.030643871
000070 a0 53 fa bd 30 4a ba bd 88 3c 03 3c aa 24 1d bd
       -0.122229815 -0.090961814 0.008010037 -0.038365044
000080 cc f2 b2 bc 91 df 7e bd 8b ef a0 3d 8e d0 da bd
       -0.02184429 -0.06222493 0.07858189 -0.1068431
000090 95 7c 87 bd 03 10 dc bd 1e c9 2f bc da 50 b9 3c
       -0.06615559 -0.107452415 -0.010729102 0.02262156
0000a0 3f 40 8b 3d 42 35 83 3d ef f1 96 3c 3c 8a d6 bd
       0.06799363 0.064066425 0.01842591 -0.10475585
0000b0 56 93 3e bd dd 32 88 3d 27 b2 19 3d 16 e9 3e bd
       -0.04652723 0.066503264 0.037523415 -0.046609007
0000c0 aa 19 da bd 69 27 d8 bd aa 10 f4 bb 8c 37 0a bd
       -0.10649426 -0.10554392 -0.0074482756 -0.03374438
0000d0 af 27 5c bd c6 f4 e9 bc 6f 66 8a 3c 02 21 99 bc
       -0.053748783 -0.0285591 0.016894547 -0.018692497
0000e0 92 03 5c bd e1 df f5 bc 2d 92 3a 3d 2a 1e e1 bd
       -0.053714342 -0.03001398 0.04554956 -0.109920815
0000f0 a2 dc 9c bd 2e 6d 98 bd 44 6d b9 bd 7d 66 02 be
       -0.0765927 -0.074426994 -0.09054044 -0.12734409
000100 2b b7 d4 ba 2b 0f 78 3d 4c cc a6 3d f1 e3 5c bc
       -0.0016228905 0.06056134 0.08144435 -0.01348208
000110 4f 4f 80 3d 9f a0 50 bb 8f dd 09 3d fb a6 b2 bd
       0.06265127 -0.003183402 0.03365856 -0.08723255
000120 40 0f b2 bd 3d 0d da bd f4 02 cf bc 2c 97 d6 bc
       -0.08694315 -0.10647056 -0.025269963 -0.026195131
000130 3c ec 95 bd c8 b6 8b 3d af 95 40 3c 84 8b 83 bd
       -0.07320449 0.06821972 0.011754437 -0.06423095
000140 13 ac de bd 1f 29 12 ba c1 f7 91 3c a3 6e 6e bd
       -0.10872664 -0.00055755855 0.017818334 -0.05821098
000150 a9 15 9a bd 65 8a 4b 3d e7 f6 b6 bd f3 82 ca bb
       -0.075236626 0.04969253 -0.08933812 -0.006180161
000160 10 2e a0 bd 90 03 81 bd 6f 0a 87 3d 07 d4 07 3d
       -0.07821286 -0.062995076 0.06593787 0.03316119
000170 33 cf df bc eb 91 0a bd 04 71 41 3d 5b 95 64 3d
       -0.02732048 -0.033830564 0.04722692 0.0558065
000180 c2 1f 56 bd 9d 4d 97 3c 6b b4 35 bd b3 50 cc bc
       -0.05227638 0.018469626 -0.044361513 -0.024940824
000190 a8 a2 98 bd 55 df f8 bd b5 3f a2 bc 4a 5c 26 3d
       -0.07452899 -0.12151972 -0.019805769 0.040615357
0001a0 9f 2a 2a bd 8f fe 3c 3c 55 1f 63 3d e7 40 4a 3c
       -0.041544553 0.011535301 0.055449802 0.0123445755
0001b0 ab 94 28 bd d7 6b 82 3d ba b6 ce bd 30 62 d5 bd
       -0.041157406 0.06368225 -0.10093446 -0.104191184
0001c0 e2 c2 ac bb d3 9c 00 be f6 26 6d 3d 39 ad d8 3b
       -0.0052722553 -0.12559824 0.057898484 0.0066124466
0001d0 24 c1 00 bd 07 c7 61 bd 8e cb 5b bd 6c a9 9e bc
       -0.031434193 -0.055121448 -0.05366092 -0.019367896
0001e0 99 7c a8 bc f4 a7 67 bc a3 bc 8d 3c 72 41 ce bd
       -0.020567225 -0.014139164 0.017301863 -0.100710765
0001f0 8f 37 d6 bd 82 cd f0 3b 99 d6 bf bd 9b b9 7d bc
       -0.10459816 0.007348717 -0.09367103 -0.015486146
000200 29 27 db bd 4a e0 ce bd c5 66 60 bd 87 9b 7b 3d
       -0.107008286 -0.101013735 -0.05478551 0.06142762
000210 f4 a7 8a 3d 90 8f b0 3b 56 82 6c 3a 4d a0 d5 3c
       0.06770316 0.0053882077 0.0009022107 0.026077414
000220 ce f7 93 bd 48 00 71 3d e5 1f 82 3d 21 61 8a bd
       -0.07224999 0.05883816 0.0635374 -0.06756807
000230 f8 5c af bd e6 f8 a2 bc 70 98 91 bd 19 81 b4 3c
       -0.08562654 -0.019894075 -0.07109153 0.022034215
000240 22 2f 26 ba 97 b8 bf bd 2d 33 52 3d bc f7 74 3d
       -0.0006339421 -0.093613796 0.051318336 0.05980657
000250 e8 aa 0c 3d 20 f2 89 3b 90 f7 8f 3d 24 e5 24 bd
       0.034342676 0.0042097718 0.07029641 -0.040257588
000260 52 4e cb bc a3 9c 5d bd 10 94 3d 3d 4b a5 89 bd
       -0.02481762 -0.05410446 0.04628378 -0.0672098
000270 2e 4a 92 3d ca dc 28 3d ff 93 15 3d b5 ae 35 3b
       0.07143055 0.041226186 0.036518093 0.0027722542
000280 18 99 2b bd ae 79 b8 3c c4 61 69 3d 24 15 b5 bd
       -0.04189405 0.022518959 0.056978002 -0.08841923
000290 55 d0 b7 bd b2 c9 56 bc 1a 2b 99 bd d1 06 57 3c
       -0.08975283 -0.013109611 -0.07478924 0.013124184
0002a0 22 d8 53 3d de 1f dd bd 4c 58 79 bd 49 8d d7 bd
       0.051719792 -0.10797094 -0.060875222 -0.10524995
0002b0 62 24 d9 bd 94 9a 16 bd 5c e4 c1 3a e7 a0 d7 3c
       -0.106026426 -0.03676851 0.0014792788 0.026321841
0002c0 aa ee 99 bd 4a 9e 71 3d 85 bb 02 bd 45 7e e3 3c
       -0.07516225 0.058988847 -0.031917114 0.027770171
0002d0 d6 14 55 3d ea 13 47 bd 3e c0 6a bd 71 eb 3d 3d
       0.052021824 -0.048602976 -0.057312243 0.046367113
0002e0 ed c2 39 3d 9b 25 97 3d 15 fc e3 3c 33 3b 7a bb
       0.04535191 0.073802195 0.027830163 -0.0038182258
0002f0 95 95 93 bd cd 7e 9d bc cf e8 b6 bd 7c be 57 bd
       -0.07206265 -0.019225502 -0.089311235 -0.052671894
000300 9b b6 d7 3c 2e d7 2b bd f6 f0 97 bd 3d e1 a5 bd
       0.02633219 -0.04195326 -0.074190065 -0.080996014
000310 fd 9c 34 bd 23 a6 c4 3b 84 6c 07 bd 24 ee 74 3c
       -0.04409503 0.0060012504 -0.033062473 0.014949355
000320 37 15 f5 bc 25 9d 42 bd 3a 97 3f bd f9 33 d3 bd
       -0.029917343 -0.047513146 -0.04677508 -0.10312647
000330 d9 96 a4 bd f6 b8 3c 3c 74 ab 06 bd 59 dd 42 bd
       -0.080365844 0.0115187075 -0.032878354 -0.047574375
000340 23 26 35 3d fa 6f d7 bc 2c 5b 22 3d 2f a0 59 bd
       0.044225823 -0.026298512 0.03963773 -0.05313128
000350 e8 c1 dc bc 0b cf ae bd 33 0f 88 bd 86 56 a8 bd
       -0.02694793 -0.08535584 -0.06643524 -0.08219628
000360 1c 70 50 bd 21 da 2f bd 0a a8 54 bd 6a 53 87 bd
       -0.050888166 -0.042932633 -0.051918067 -0.06607707
000370 99 8e a1 3d 50 7b 01 3d d1 cb b5 bc 43 a9 1e bc
       0.078885265 0.03161174 -0.022191914 -0.00968391
000380 b2 fa 8f bd 28 7d de bd c8 28 b6 bd 6b 99 d0 bd
       -0.07030238 -0.108637154 -0.08894497 -0.10185512
000390 b3 89 c2 bd fd 16 30 bd 07 5a f5 bd 7e 6c f4 bd
       -0.0949892 -0.042990673 -0.11980062 -0.11934756
0003a0 10 b3 8b 3c 6b 6c bc 3c fe 37 24 bd dc 97 df bd
       0.017053157 0.023000916 -0.04009246 -0.10917637
0003b0 a0 f4 b3 bb 4d db 8d bd 99 03 ed 3a d1 4f 51 bd
       -0.005491808 -0.06926594 0.0018082737 -0.05110151
0003c0 34 ca 48 bd 09 71 ef bd e3 b4 ac bd 6c 4d 91 3d
       -0.04902096 -0.116914816 -0.08432939 0.07094845
0003d0 18 22 c8 3c f8 c2 9e bb 5c ff a2 bd 49 6b ca bc
       0.02443032 -0.0048450194 -0.07958862 -0.02470936
0003e0 c8 b1 ab 3c 08 d9 3d bb c9 f1 83 bd d2 91 1c bd
       0.020958796 -0.0028968472 -0.06442601 -0.038225003
0003f0 94 b4 36 bd 8a aa b9 bd 99 93 df bd 24 06 7c bd
       -0.044605806 -0.09065731 -0.10916824 -0.061529294

bias f4 [256]
000000 79 f0 68 3c 7f 1b a9 3c f5 da 15 bd 75 5f 3b bd
       0.014217489 0.020642994 -0.036585767 -0.04574533
000010 3e 92 4d bd 04 9f 8d 3c ee c5 c4 bc 0a 9a c8 bd
       -0.050188296 0.017287739 -0.024020161 -0.097950056
000020 51 e0 3c 3d 13 4e c5 3b 32 bd 2b bd 5f de 23 bd
       0.046112362 0.00602127 -0.041928478 -0.04000699
000030 46 27 e4 bd 62 d0 31 3c a8 84 0a 3d c3 1d 07 3e
       -0.11140303 0.010852905 0.033817917 0.13194947
000040 47 cf 49 3d 2e 83 87 3d 0f dd 4e 3e c8 bc 93 bd
       0.04926994 0.066168174 0.20201515 -0.072137415
000050 30 68 4e bd b2 b0 ea bd 9b f2 07 3d e0 3e ba bd
       -0.05039233 -0.11459483 0.03319035 -0.09094024
000060 00 ab 32 3e 7c b5 a1 bd c9 4c 08 3e 58 5b 00 3e
       0.17448044 -0.078959435 0.13310541 0.12534845
000070 15 93 a8 3d bb 4d 5e bc 0f 8a 94 bd da eb aa bd
       0.08231179 -0.013568337 -0.07252895 -0.08345766
000080 4e d0 11 3d 68 bb 6c 3d 07 32 ec bd 61 67 23 3d
       0.035599045 0.057795912 -0.115329795 0.03989351
000090 cf 1d 39 3e 81 b8 85 bc 86 5b 35 bd cc 85 b4 bd
       0.18077777 -0.01632333 -0.044276737 -0.08814582
0000a0 6e 3c aa bc ff a0 64 bd fa 81 ac 3d ff 0d 02 be
       -0.020780768 -0.0558176 0.084232286 -0.12700652
0000b0 2f 47 76 bd 43 34 19 bc 3d 84 8e 3d 6c f5 c5 bd
       -0.06012648 -0.009350839 0.06958816 -0.09665951
0000c0 ad 72 95 bd d1 e6 f6 bc b6 61 7c bd 5f 30 23 3e
       -0.07297263 -0.030139359 -0.061616622 0.15936421
0000d0 07 f3 47 bd f5 25 0b 3e 99 fe 4f 3d b2 06 e0 bd
       -0.048815753 0.13588698 0.050779913 -0.10938777
0000e0 c8 ac 1f 3e e7 e5 4b 3e 26 88 81 bd fa d5 2d bd
       0.15593255 0.1991192 -0.063247964 -0.042440392
0000f0 86 79 f9 3c c6 01 f0 bd 81 ac ad bd 40 3f 8f bc
       0.030453455 -0.11719088 -0.08480168 -0.017486215
000100 21 1c 8d bc c2 07 d5 bd 65 b2 c7 bc 7f 54 07 bd
       -0.017225327 -0.1040187 -0.024377057 -0.033039566
000110 25 27 12 3b 09 74 ff 3b 0b 84 f8 3b 8d a0 16 3e
       0.0022301164 0.007795815 0.0075841 0.14709683
000120 27 4f fe 3d ea fe 8b 3e 5d 9f 3d 3d 07 c0 d8 bd
       0.12417441 0.27342921 0.04629456 -0.10583501
000130 da 03 1b 3d 00 7c 54 bd 2c f2 41 bd a3 f8 71 3d
       0.03784547 -0.051876068 -0.047350094 0.05907501
000140 27 60 45 3e be fa 10 bc 46 32 89 bd a9 40 d6 bd
       0.1927496 -0.008848844 -0.06699042 -0.10461552
000150 74 7e cc 3d 8c 29 ff bb 8b 2c f0 bd 32 a0 34 3e
       0.099850565 -0.007786935 -0.11727246 0.17639235
000160 89 13 0a bd 6d 6a c9 bc da 37 8a 3e 34 ae 3c 3e
       -0.033710036 -0.02458688 0.26995736 0.18425828
000170 c7 bc e5 3a 4e 4f 99 bc 85 da ef bd 74 9f 33 bc
       0.0017527574 -0.018714573 -0.11711601 -0.01096331
000180 74 bf 08 3d 32 66 18 bd 43 62 d8 3c 31 d8 cc bd
       0.03338571 -0.037206836 0.026414042 -0.10002173
000190 15 b7 cc bd 91 4c ee 3c 58 05 e9 3c db 52 f3 bd
       -0.099958576 0.029089244 0.02844493 -0.11881038
0001a0 40 ae b9 bd 65 9f ab bd 77 cc 83 3d 11 8d d3 bd
       -0.09066439 -0.083800115 0.06435483 -0.10329641
0001b0 85 2d 77 3c 51 04 52 bc 60 fc bb bb 5c bb 05 bd
       0.015086536 -0.012818412 -0.0057368726 -0.032649383
0001c0 90 fd 88 bc be b2 8e bd cc ca 76 3d 10 ae 9d bd
       -0.01672247 -0.06967686 0.060251996 -0.076992154
0001d0 c0 52 10 be 4e 89 07 bd 1d 07 b9 bb 59 92 e8 3c
       -0.14094067 -0.03308993 -0.0056466 0.028390097
0001e0 df e2 3c 3d ec 6d 2f 3d c9 3d a3 bd c3 44 cd 3d
       0.0461148 0.04282944 -0.07970769 0.10022881
0001f0 dc 07 55 bd c6 d3 6d bc 71 81 32 39 29 b4 13 3d
       -0.05200945 -0.014515823 0.00017023624 0.036060486
000200 62 fc 9b 3c 01 a4 81 bd 91 51 cb 3c 77 62 e6 3c
       0.019041244 -0.063301094 0.024819167 0.028123124
000210 3c 3a 74 bd 2b 86 d3 bc 31 db 09 3d a7 8e 55 3d
       -0.05962585 -0.025820812 0.033656303 0.052137997
000220 f3 48 ae bd 86 1e a4 bc 2e dd f0 b9 b3 1b 6f bd
       -0.08510008 -0.020034086 -0.0004594116 -0.058376025
000230 c0 d1 0e ba 7b c1 55 3e 5e 21 28 bc 1e ce 74 3e
       -0.00054481253 0.20874588 -0.010261862 0.23906752
000240 49 d7 b0 3d 14 1d e8 bd bd de c7 3c 11 e2 c2 3b
       0.086348124 -0.11333671 0.024398202 0.0059473594
000250 7d f0 cf 3d 55 ed aa bc d9 b5 1c bd 2b 75 0a be
       0.101532914 -0.020865122 -0.03825936 -0.13521259
000260 71 a7 bc 3c cc f4 eb 3d 14 a0 0e 3d e2 fe 93 bd
       0.023029061 0.11521301 0.03482063 -0.072263494
000270 3e d4 d6 bd 06 c4 ac bd 3f f3 0d 3c 23 a4 8c bd
       -0.10489701 -0.08435826 0.008663951 -0.06867244
000280 c4 70 2c 3d 74 23 0a be d4 68 80 bd 2f e8 e6 3d
       0.04209973 -0.13490087 -0.062699944 0.11274754
000290 75 1d ad 3b d9 bd 62 3c d3 cc e0 bd 57 04 83 3d
       0.0052830526 0.0138392085 -0.10976567 0.06397312
0002a0 c1 e1 93 3d 83 b9 a4 bd e1 79 09 bc b7 7d 15 bd
       0.072207935 -0.08043196 -0.008390875 -0.036496844
0002b0 f9 85 5d bd f1 18 ae bd 53 ac 29 3d ee cf 07 3d
       -0.054082844 -0.08500851 0.041424107 0.03315728
0002c0 3d 8e 3d bd 99 8b 9f ba 07 f8 ac bd ac 1a 64 3c
       -0.046278227 -0.0012172341 -0.08445745 0.013922375
0002d0 df 00 cb 3d b3 3b b5 bd df 33 6a 3d c1 f7 bf 3d
       0.099122755 -0.08849277 0.057178374 0.09373427
0002e0 5e 1b d0 bc d8 f1 ca bd d8 48 af bd e5 d9 3e 3d
       -0.025403675 -0.09909409 -0.08558816 0.04659452
0002f0 52 c3 0c 3d 28 49 45 bd 33 c1 49 bc e3 4f 60 3c
       0.03436596 -0.04816547 -0.012314129 0.0136909215
000300 9a c8 84 bd c0 ed 8d 3a cc e3 e5 3c b8 8e e2 3d
       -0.06483574 0.0010828301 0.028062724 0.11062378
000310 21 dd b6 bc 60 09 dc bd 85 ce c9 bc de d8 8a bd
       -0.02232224 -0.10743976 -0.024634609 -0.067796454
000320 e8 b7 9e bd 15 fb 12 bd 40 15 bb bb 00 65 b7 3c
       -0.07749921 -0.03588398 -0.0057093203 0.022387028
000330 03 66 8e 3d 4b dd 00 be 3d 18 67 bd 18 b7 b6 bc
       0.06953051 -0.12584417 -0.0564196 -0.022304103
000340 46 05 81 bb 41 72 f3 bd f5 ac 46 3e 0e a6 ba bd
       -0.003937396 -0.118870266 0.19401915 -0.09113704
000350 b2 e6 ac 3c cc 58 b4 3c 78 d9 31 bd 96 60 b4 3d
       0.021106098 0.022014998 -0.043420285 0.08807485
000360 cb 93 77 3e 47 98 e1 bc 96 6a ab ba ed 52 70 3d
       0.24177472 -0.027538432 -0.001307803 0.058672834
000370 ae f0 7d bc 3f 08 ed bc e2 61 b0 bd be a6 c8 bd
       -0.015499277 -0.028934596 -0.0861242 -0.097974285
000380 95 e0 a5 bc 43 1c 6e bd 39 56 d8 3d df 2e b6 3d
       -0.02024869 -0.05813242 0.10563321 0.08895659
000390 0f a7 a0 3b 4a 2b b7 bd 0e 29 ad bd e0 b1 c2 bd
       0.0049027274 -0.089438036 -0.08455096 -0.09506583
0003a0 47 05 dc bc a3 a7 0c bc 0e a6 78 bc cb ab 94 bd
       -0.026857985 -0.00858489 -0.015176309 -0.072593294
0003b0 4e 36 5b bc 13 25 e2 3d 25 01 be 3d 82 93 d0 ba
       -0.013379646 0.110422276 0.09277562 -0.0015913101
0003c0 6d cf 04 be 3c 69 05 3e 83 14 81 bd 18 2d 04 bd
       -0.12969752 0.13028425 -0.063027404 -0.032269567
0003d0 5f 81 b0 bd aa 20 24 ba 5f e3 3d bd f2 f8 2d bd
       -0.086184256 -0.0006260971 -0.046359416 -0.04247374
0003e0 e9 15 27 3d a1 dc 80 bc 6b 9e 11 bb 81 4e a7 3d
       0.04079238 -0.015730204 -0.0022219669 0.0816927
0003f0 51 74 62 3b 44 b1 3d 3d 6f c9 6a 3d ae 87 b6 3d
       0.0034554193 0.04631163 0.05732101 0.089125976

weight f4 [5, 256]
000000 a5 60 f6 3c dc e4 f1 bc ea dd 07 bd e7 ab 36 be
       0.03007538 -0.029528074 -0.033170618 -0.17839013
000010 91 80 2a ba ce 20 30 3d f5 73 00 3c 3e 88 79 3d
       -0.0006504143 0.043000035 0.007840146 0.060920946
000020 a9 15 76 3c b2 3f 93 bd ca eb 54 3d 65 08 48 bd
       0.015019813 -0.07189883 0.05198268 -0.04883613
000030 8e 77 b7 3c 4d 39 06 3d a1 74 eb 3c bc 83 94 3c
       0.022395875 0.03276949 0.028742136 0.018129222
000040 11 0b e8 3c 27 8e f6 bc 15 24 30 bc d5 45 14 bd
       0.02832559 -0.03009708 -0.01075079 -0.03619941
000050 d0 02 80 3d db 93 dd bc 29 b3 00 3d ca 72 b1 ba
       0.062505364 -0.027048042 0.03142086 -0.0013538238
000060 a4 2f 84 bc 07 a9 70 3d 9d f4 5a bd 84 5b 0d 3c
       -0.016135998 0.058754947 -0.053455938 0.008627776
000070 43 b0 10 3a b9 fe a1 3d c3 09 24 3d 8c a7 89 bd
       0.0005519429 0.079099126 0.040048372 -0.0672141
000080 27 ee 91 3c 19 48 b6 bc 5b b1 d3 3c a6 9b 18 bb
       0.017813755 -0.022251176 0.025841406 -0.0023286133
000090 69 c3 11 3c 66 eb 87 3c 89 b6 60 bc 6d c6 9b 3c
       0.008896687 0.016591739 -0.013715395 0.019015515
0000a0 ef 6a 3a 3d 49 6b 17 3d 0c 02 d6 bc 7f 5b 36 bd
       0.045512136 0.03696755 -0.026124023 -0.04452085
0000b0 4d 52 c7 3c 71 b0 2f be 5a f4 a9 bc 11 74 8f bd
       0.024331236 -0.17157151 -0.020746399 -0.0700456
0000c0 d9 0e b2 3c c1 c8 1e bc c2 03 11 3d c6 4f e1 bc
       0.021735596 -0.009691418 0.035403974 -0.02750386
0000d0 73 9c d9 bc f5 10 72 3c 0d 17 21 bc d7 5e af bc
       -0.026563859 0.014774551 -0.009832156 -0.021407528
0000e0 4f d2 2b bd 13 8f 5d bc 70 c6 45 3d d0 3d d5 bc
       -0.041948613 -0.013522881 0.048284948 -0.026030451
0000f0 fb 04 7d bd b3 68 d3 3a 01 3d 99 bc 55 31 91 bc
       -0.061772328 0.0016129225 -0.018705847 -0.017723719
000100 ed d2 35 3d d8 da bf bb 26 51 77 3d e8 0d 39 3d
       0.044390608 -0.0058549456 0.060380124 0.045179278
000110 c1 de 5e bd 40 cf 2b bd 00 9c 80 3d 4b 06 8e bd
       -0.054411653 -0.041945696 0.06279755 -0.06934794
000120 f6 db 63 3d 7a 22 1b bc dd b9 7c 3d a8 85 ba bc
       0.055629693 -0.009468669 0.06170069 -0.02276881
000130 63 2e b6 3d 62 da 1b 3d 4b 28 a5 bd 70 ab 35 bd
       0.08895566 0.038050063 -0.08064326 -0.04435295
000140 24 d3 a8 3c 32 e2 85 3c 00 49 c6 bb 44 51 89 3c
       0.020608492 0.01634321 -0.0060511827 0.016762383
000150 03 10 ec 3c ef c0 f0 3b 02 da 4a 3c 23 ee 89 3c
       0.028816229 0.007347218 0.012381079 0.016837185
000160 ee d4 fb 3c eb 37 74 3c 59 f0 01 3d 01 ed 48 bb
       0.030741181 0.01490591 0.031723354 -0.0030658843
000170 12 fb b9 bb 8f 43 3f 3d 53 43 cf bc b2 a8 0b 3d
       -0.005675682 0.04669529 -0.025300657 0.034096427
000180 57 d3 32 bd 1d b0 c2 bc 0e 97 9a 3b e3 70 b3 3d
       -0.04365858 -0.023765618 0.004717714 0.08761766
000190 07 d5 45 3c de 62 8d 3d 51 4c 97 bc 0a a1 13 3d
       0.012074715 0.06903623 -0.018469008 0.03604225
0001a0 ee cf 70 3d 94 bf c2 bc 44 dc c5 bd f1 b1 ae 3b
       0.058792047 -0.023772992 -0.09661153 0.005331271
0001b0 be c6 22 3d 27 a5 31 bd 6e 00 2b bd f7 a0 0f bd
       0.039740317 -0.043370392 -0.041748457 -0.035065617
0001c0 e7 7a aa bd 37 cf 64 bd 55 e6 e2 3c 33 12 a3 bc
       -0.08324223 -0.055861678 0.027697721 -0.019906139
0001d0 2e 14 18 3d 79 b0 da 3c 0c 94 32 bd 09 25 29 3c
       0.03712862 0.026695477 -0.04359822 0.010323771
0001e0 5a 81 16 bd 90 d2 12 bd a9 e0 81 3c aa db 77 bc
       -0.036744453 -0.03584534 0.015854197 -0.015128056
0001f0 d8 a5 12 bc 39 18 54 3d 85 12 ae bb cd 29 49 3d
       -0.008950673 0.051780913 -0.0053122663 0.04911213
000200 82 21 ef 3c 35 93 22 bd 71 54 c7 3c 8f 52 c9 3b
       0.029190782 -0.03969117 0.024332257 0.006143875
000210 01 47 06 3c a9 d5 eb bb bc cf 2e bc 85 49 7b 3d
       0.00819564 -0.007197101 -0.010669645 0.06134941
000220 07 7e 5b bb 32 bf 7f bc cc b2 49 bd 77 c4 12 3d
       -0.0033491866 -0.015609549 -0.04924278 0.035831895
000230 52 7e 58 bc d0 fa 38 bd c8 4f ac bd 2e 43 c6 bd
       -0.013213711 -0.04516107 -0.084136546 -0.09680782
000240 53 aa 02 bd 08 1e 44 bd 26 7d d8 3d 4e f7 1b bd
       -0.031900715 -0.047880203 0.10570745 -0.038077645
000250 4c cc 74 3c 31 97 82 3d b3 03 e8 bc fe 5f ae bc
       0.014941286 0.06376494 -0.028322076 -0.021286007
000260 b5 e4 81 3d 61 5d 92 3c 3a 94 57 bd 56 4e b2 3b
       0.063424505 0.017866792 -0.052631594 0.0054414673
000270 e9 3e 55 bc 0b 38 4d bc 0a 71 d9 3c f0 39 05 bd
       -0.013015487 -0.012525569 0.026543159 -0.032525957
000280 5d 82 38 3d 6f 7c e1 bc db 1d 9b bd 4b c2 02 3e
       0.0450462 -0.027525155 -0.07574054 0.1276943
000290 20 a1 66 bc ec f6 92 bc 5a 62 b9 3c 6b b3 0d ba
       -0.014076501 -0.017940007 0.022629905 -0.00054054585
0002a0 99 1a 03 3c 09 cc 58 bc d7 72 39 3d 3e 74 b1 bd
       0.008001947 -0.0132322395 0.045275535 -0.086647496
0002b0 fd d7 b0 bc b8 3c 4d 3d c6 b8 33 bd d0 3e 5b 3b
       -0.021587366 0.050106734 -0.043877386 0.0033454187
0002c0 a3 dd 3b bc 78 d9 fd ba 95 bf 8a 3c b6 e5 0b 3d
       -0.0114664165 -0.0019367179 0.016937057 0.034154616
0002d0 54 b4 22 3d c6 e2 2f 3d 6e ec 23 3c 82 63 14 3d
       0.039722756 0.042940877 0.0100051 0.03622771
0002e0 1c 06 de bc f6 a5 53 3d 55 0c 28 3d 9b 84 78 3c
       -0.027102523 0.051671945 0.041027386 0.015168334
0002f0 00 1c 4f 3b e6 29 87 3d b4 53 a4 bc 86 72 8b 3d
       0.0031602383 0.06599788 -0.020059444 0.06808953
000300 e9 e1 ed bb 41 1a d0 3a 6b d4 24 3d 28 f2 f6 3c
       -0.0072595966 0.0015876965 0.04024164 0.030144766
000310 a9 3a c3 3c b0 a4 be 3d f6 97 08 3d 17 8c f9 3c
       0.023831682 0.093087554 0.033348046 0.030462308
000320 b4 7a 62 bc 4d cf 18 3d 04 2f 05 3d 9c f4 b0 3c
       -0.0138232 0.037307072 0.03251554 0.021601014
000330 75 05 9e 3c cf f2 ab bc 97 b3 88 3c 8b 1a 7a 3d
       0.019289711 -0.020989804 0.016687198 0.06106047
000340 ff 6e 1f bc 6e cb 6b 3c f7 35 ca bc 62 44 44 bd
       -0.009731053 0.014391763 -0.024683936 -0.047916777
000350 d8 d3 f5 3b 5e 01 61 3d 8b b6 3f 3d 3a 06 5b 3c
       0.0075020604 0.054932944 0.046804946 0.013368184
000360 42 a6 0f 3d 5f fe 55 bc 11 89 d3 bc 38 81 72 3d
       0.035070665 -0.013061135 -0.025822194 0.059205264
000370 36 29 25 3d cd cb 93 3c b1 27 69 3d dd 26 85 3d
       0.040322505 0.018041516 0.05692262 0.06501553
000380 6e ea a6 bd 2c 00 aa bb 30 4f 2c 3d b0 8f 7d bd
       -0.08150183 -0.005188009 0.042067707 -0.06190461
000390 7b 15 03 3d b6 d0 1b 3d 8e 11 08 3b 72 13 1d 3d
       0.032002907 0.03804084 0.0020762417 0.038348623
0003a0 0c c9 4b 3d fa c4 87 3d f7 01 cd bc f7 b6 4c bc
       0.04975228 0.06629367 -0.025025351 -0.012494794
0003b0 6b 2f b7 bc 59 fa 3d 3d 1b a8 7f bd aa 3e b9 3b
       -0.022361478 0.04638133 -0.062416177 0.005653222
0003c0 3c 41 de bc c2 3e ff 3c 3a a2 ac bb 53 0b 04 3d
       -0.027130716 0.031157855 -0.0052683624 0.032237362
0003d0 a2 6c a4 3d 29 27 0c bc 81 e3 c0 bc ba 57 24 3d
       0.080285326 -0.008554258 -0.023545982 0.040122725
0003e0 76 23 18 3d a2 28 71 bd af 09 73 3c 83 08 68 3d
       0.037143193 -0.05887664 0.014833852 0.056648742
0003f0 c7 95 2e 3e 29 dd 43 bc 4f 9e 55 bd 79 b0 07 bd
       0.17049323 -0.011954584 -0.052152928 -0.03312728

bias f4 [5]
000000 ac a3 96 bc 2e d4 ff bd 1c f8 10 bb 12 a5 05 3e
       -0.018388592 -0.12491642 -0.002212054 0.1305125
000010 d4 63 c7 bc
       -0.024339594
