models/simple_reference/value_model1.pkl (torch_old, 75902 bytes, 5 tensors)

weight f4 [128, 72]
000000 be 00 1e 3e af 5e c6 bb 3e 70 bd bc cf 37 a9 bc
       0.1542997 -0.0060537676 -0.02312481 -0.020656494
000010 b6 5c bc bd f2 e3 86 3e 5a 46 61 bd fa b9 a5 be
       -0.09197371 0.26345783 -0.054998733 -0.3236845
000020 1b 6e f9 be aa 26 b4 3e f6 45 06 bf 2c 00 b2 bc
       -0.48716816 0.35185748 -0.524505 -0.021728598
000030 30 df ae bc e1 85 f9 3b 4b c0 90 bc 12 2a 54 3b
       -0.021346658 0.0076148366 -0.017669817 0.0032373709
000040 c0 81 67 3d 05 10 6d 3b 7d b2 85 bd 2c 8e 40 bd
       0.056520224 0.0036172878 -0.065281846 -0.047010586
000050 00 79 72 bc 78 a9 a0 3c db ca 0f be d7 cb 11 3d
       -0.014799356 0.019612059 -0.14042227 0.035594787
000060 9b 04 3f 3e c5 57 67 be 2c ba c1 3e 97 80 14 3d
       0.186541 -0.22592075 0.3783735 0.036255445
000070 f1 dd d0 3d 35 b3 4f be 1c f5 de bd 6e 32 43 be
       0.10198582 -0.20283206 -0.10886595 -0.19062206
000080 fe e7 01 3d dd 8e 05 3d 85 92 a0 3c dc 4a 6c bc
       0.031715386 0.03260695 0.019601116 -0.014422145
000090 a9 50 e0 3b 92 b8 af bc 15 63 90 3b 3c cb 40 3d
       0.006845553 -0.021450315 0.0044063427 0.04706882
0000a0 1d 5d 77 3c ed 6a 91 3d b9 54 cd bd 0c e4 69 bd
       0.0150978835 0.071004726 -0.10025925 -0.057102248
0000b0 79 ef 82 be 04 35 fc bd 7c 00 35 be c5 e2 88 bc
       -0.25573328 -0.123147994 -0.17675966 -0.016709695
0000c0 c6 b4 eb bd 99 1d 05 be 6e bc 28 be 8d 24 37 be
       -0.11509089 -0.12999572 -0.1647813 -0.17885037
0000d0 70 d4 d7 bd 13 7b b6 bd 7c 0b 24 ba aa 57 d8 bd
       -0.10538566 -0.08910193 -0.0006257815 -0.105635956
0000e0 bb 9a a5 bd 34 b4 e1 bd 36 6a b5 bd ba 04 3d be
       -0.08086153 -0.11020699 -0.08858149 -0.18458834
0000f0 8c 9a 16 be ae f2 78 3c 51 0b de bd c9 d2 5f 3c
       -0.14707392 0.015194578 -0.10842002 0.013661095
000100 59 e3 20 be 00 3a f2 bc fc 07 a7 bc 09 a2 b2 bd
       -0.15711726 -0.029568672 -0.02038955 -0.08722312
000110 0f e2 a4 bd 14 86 58 be 23 19 1c be f7 f5 46 be
       -0.0805093 -0.21144897 -0.15243964 -0.19429766
000120 ee 3e 26 be 23 06 ea bd 70 4f c0 3d 95 db 2e be
       -0.16234943 -0.11426952 0.093901515 -0.17075951
000130 16 a2 08 bf b1 67 94 3e 32 a9 f9 3d b3 40 86 3e
       -0.53372324 0.2898536 0.121904746 0.26221237
000140 cd cd e7 3c 50 f8 15 3e 6e ad 9c 3e 93 dc 3e bd
       0.028296376 0.14645505 0.30601066 -0.046597075
000150 af d8 33 be 06 f0 d4 3d b5 e7 82 3e 3e 85 ef bd
       -0.17563127 0.10397343 0.25567403 -0.11695336
000160 a4 2b ad bc e5 da f8 3c c9 c0 ca bd 8c cd 8e 3d
       -0.021138974 0.030377815 -0.09900052 0.06972799
000170 e4 d8 ba 3d 20 68 72 3d fe 94 98 be 0f 0f 6c bd
       0.091234 0.059181333 -0.29801172 -0.05763155
000180 09 0c 07 bc 9b 76 92 be 0d 0b c1 3e c4 58 88 3e
       -0.0082426155 -0.28606114 0.37703744 0.26630223
000190 7c 46 30 be 52 4d bd 3e dd 0b 99 bd 77 ef 65 3d
       -0.17214388 0.36973053 -0.07472966 0.056136575
0001a0 36 ea d0 bd 65 03 26 3d fc 75 16 3e e1 3a 27 bd
       -0.10200922 0.04053058 0.14693445 -0.040827636
0001b0 97 72 f5 bd 03 75 26 bd b0 85 8f 3d 2b c5 a5 bb
       -0.11984747 -0.040638935 0.07007921 -0.0050589046
0001c0 e5 f8 28 3d 37 b4 18 3e 30 6a 29 bd 05 99 2b be
       0.04125299 0.14912497 -0.041361034 -0.16757591
0001d0 14 c0 1c 3e ce b5 a4 3b 14 37 51 3d e6 53 72 3d
       0.15307647 0.0050265556 0.051077917 0.059162043
0001e0 ed 7d dc bc 80 ac 0c be 7c d1 8e 3c 84 a1 14 be
       -0.026915515 -0.13737679 0.017433874 -0.14514738
0001f0 c9 6b 90 bd 4d ff e6 bc ef 0a 99 bd 7c 94 9b bd
       -0.070518084 -0.028197909 -0.074727885 -0.075966805
000200 97 ae 7a 3e d1 83 89 3c 69 23 06 3d 13 02 e6 bb
       0.24480663 0.016786488 0.032748614 -0.0070192902
000210 2d f5 82 bd 76 8b 15 3e cb 85 0f 3e de 74 80 bd
       -0.0639442 0.14603981 0.14015882 -0.06272291
000220 d1 2c 57 bd f8 73 a5 3e 31 cc a3 bd ec f8 8c bd
       -0.052532975 0.3231504 -0.07997931 -0.068834156
000230 77 6e b0 bd d9 2b a2 3d 65 74 37 3e 7c 8e a9 bc
       -0.086148195 0.079185195 0.17915495 -0.020697825
000240 4e 4b 9e 3d bc c4 42 3c 93 86 49 bd 9d 90 02 3e
       0.07729207 0.011887725 -0.049200606 0.12750478
000250 20 51 1c be 35 09 a6 3e 21 20 87 be 17 6c 6d be
       -0.15265322 0.324289 -0.263917 -0.23185764
000260 53 65 10 3e a2 04 66 be 29 a4 f6 3e 0c 2d 20 3d
       0.14101152 -0.22462705 0.4817212 0.03910546
000270 87 6b 3f 3e 3e 6a 26 3e f7 88 2a 3e a1 1b 80 3d
       0.18693362 0.16251466 0.1665381 0.0625527
000280 07 d9 d1 ba 0c 83 33 3e 15 34 63 be 49 69 12 3e
       -0.0016010114 0.17530459 -0.22187836 0.14297976
000290 a4 80 0e 3e 18 99 9d bb e1 40 1f 3e 5d 11 54 3e
       0.1391626 -0.00480951 0.15552093 0.20709749
0002a0 98 d7 43 3e 08 cc b9 3d 1a c0 fd bd 82 2c 3c be
       0.19125211 0.09072119 -0.12390156 -0.18376353
0002b0 a1 74 3a bf 9c 9a 47 3e f4 ab a5 3e ff 30 03 3f
       -0.7283421 0.19492573 0.32357752 0.5124664
0002c0 76 ae 88 3e 4d d3 77 3e 6b ce fd 3d 29 18 21 3e
       0.26695603 0.24201699 0.12392887 0.15731873
0002d0 8e ee 00 bd fa 24 1d 3e 21 f8 29 3e 01 24 22 3e
       -0.031477503 0.15346137 0.1659856 0.15834047
0002e0 9d e5 18 3e 58 84 89 3d 47 ef ac 3d be 38 3c 3d
       0.1493134 0.06714696 0.08444076 0.04595255
0002f0 39 7c fc 3d bd fb 66 bd 23 a1 4e 3d 82 a9 ba 3d
       0.12328381 -0.05639242 0.05044664 0.09114362
000300 59 84 56 3e 79 7f 7d 3e e6 b8 f0 3d a9 8f f3 bd
       0.20948924 0.24755658 0.117540166 -0.118926354
000310 55 b9 f4 3d 70 29 15 be 61 5e b5 3d 26 09 e3 3d
       0.11949412 -0.14566588 0.08855892 0.11085729
000320 28 94 33 bc d0 98 e2 3d 7a a4 ca 3d 3a f6 0d 3e
       -0.010960616 0.11064303 0.09894653 0.13863459
000330 6e 5d 23 3e d6 2d f0 3d d0 bc ff 3d dd f1 23 3e
       0.1595361 0.117274925 0.12487185 0.16010232
000340 3c d7 6b 3d 53 81 0a 3e c8 e1 5a 3e 60 2e 3f bd
       0.05757831 0.13525896 0.21375191 -0.046675086
000350 6d 5d 40 3d 8f 79 82 3d a6 03 85 3e f2 70 99 3e
       0.046964098 0.06370842 0.25979346 0.29968983
000360 dd 71 0c be 8c ba 82 bd 16 8c 45 bd 67 aa 6f bd
       -0.1371531 -0.06383237 -0.0482293 -0.058512118
000370 a6 7f 78 3d a2 74 80 bc 36 58 eb 3e 3e 06 bc be
       0.06066861 -0.015680615 0.45965737 -0.36723512
000380 3c 03 55 3e f4 e5 44 be 12 55 61 bd 5b 36 de bc
       0.20802015 -0.19228345 -0.05501277 -0.027125528
000390 cf 9e c2 3b 87 9c 95 bd f0 ba d9 bd b6 31 94 bd
       0.0059393416 -0.07305246 -0.106313586 -0.07236044
0003a0 ac ab 88 bd 64 d6 c2 ba 37 26 3d bd 6c 0a 10 be
       -0.06673369 -0.0014864919 -0.046179023 -0.14066476
0003b0 91 0c 1f bd d0 ed fb bd 02 22 5c bd 73 38 03 3e
       -0.038830344 -0.123012185 -0.05374337 0.12814502
0003c0 27 a6 c5 bb a0 41 22 be 67 5d 01 3e d0 bc b0 3c
       -0.00603177 -0.15845346 0.12633286 0.021574408
0003d0 3f 79 c8 bd 4d b6 31 3d eb 44 41 3e f5 40 e5 be
       -0.09788751 0.043386746 0.18873946 -0.4477612
0003e0 e5 39 bd bc 14 36 dc bd ee 8e 47 bd 70 e3 18 be
       -0.023098895 -0.10752502 -0.048720293 -0.1493051
0003f0 37 21 d5 bd c7 d3 a5 bd 86 27 f4 bc 56 dc 82 3a
       -0.10406726 -0.08097034 -0.029804002 0.0009983878

bias f4 [128]
000000 ea 93 62 be a1 f5 15 3e 35 fc c7 3d 01 70 e6 bd
       -0.22126737 0.14644481 0.097649015 -0.11251832
000010 10 3c 5c be 55 c9 71 bd f6 74 76 3e 6d 28 82 3c
       -0.21507287 -0.059029896 0.24068055 0.015888417
000020 00 2c f4 3d e2 6f 3a be e6 4a fd bd fd f3 e3 bc
       0.11922455 -0.18206742 -0.12367801 -0.027826304
000030 8e 3f cf bd 36 ed d6 bd c3 7f 4a be e4 95 ed bc
       -0.10119544 -0.10494463 -0.197753 -0.029002137
000040 75 e3 8b bd 99 ff 3c bd 18 ad 7a be eb 7a 87 bd
       -0.06830493 -0.046142194 -0.24480093 -0.066152416
000050 a7 0e 1c 3e 19 a6 10 3d c1 5f f5 3d 83 92 8a bd
       0.15239964 0.035314653 0.11981154 -0.06766226
000060 d9 e7 ad bd 06 80 86 bd 14 45 0e be 2f 3c 4b bd
       -0.08491487 -0.06567387 -0.13893539 -0.049617942
000070 dd 48 70 3d 0e a1 56 be 07 86 92 bd 9f 20 92 3d
       0.058663238 -0.20959875 -0.0715447 0.07135128
000080 44 28 67 bc f6 96 0e be 7f 84 98 bc a1 40 b5 bd
       -0.014108721 -0.13924775 -0.018617867 -0.088502176
000090 0d 48 8c bd d8 18 da bd 25 a4 e3 bd 00 32 bb 3c
       -0.0684968 -0.1064927 -0.111152925 0.02285099
0000a0 0c 2a 1c 3d f9 e2 b1 bd e1 f8 88 be 3d e3 e8 3b
       0.038126037 -0.0868587 -0.2675238 0.007107167
0000b0 88 46 1c be 64 be 1f be 99 6e 9c be 28 ba 4a 3e
       -0.1526128 -0.15599972 -0.3055313 0.19797575
0000c0 50 fa 52 3e 9f 18 07 bd 46 60 f6 bc 92 68 c4 3d
       0.20603299 -0.032982465 -0.030075204 0.09590258
0000d0 b9 d6 6f bd 28 9b cb bd af 08 b6 bd 3b e2 93 3d
       -0.058554385 -0.09941703 -0.08888375 0.072208844
0000e0 08 d2 ca 3d 43 a5 43 3e 35 95 f8 bd bf 08 c3 3d
       0.099033415 0.19106011 -0.12137834 0.095231526
0000f0 15 42 8d bd d1 54 a5 3b 14 9e 9d ba f1 8c 9b bd
       -0.0689737 0.0050455113 -0.001202526 -0.07595242
000100 02 79 ae bb 6d 84 eb 3d d4 27 d4 bd 14 62 98 bd
       -0.005324484 0.114998676 -0.10359159 -0.07440582
000110 1e 2c 33 3e c7 5a 72 be 7a 6b 22 bd 7f e2 11 bd
       0.17497298 -0.23667441 -0.03965328 -0.035616394
000120 87 c0 05 be 0b be 30 3e 19 d0 fe 3d 62 1d 44 3c
       -0.13061725 0.17259996 0.12442035 0.011969896
000130 bd dd 19 3d 4f a7 4d 3e 25 53 cc bb 59 96 8e 3e
       0.03756498 0.20083354 -0.0062354975 0.2784908
000140 1e f3 14 3e 89 c4 20 bb a3 a4 38 be ab 18 fb bd
       0.14545867 -0.0024531207 -0.18031554 -0.122605644
000150 cc bf 91 3e 9a 4b b4 bd 05 0a 07 3e bb cf c3 bd
       0.28466642 -0.08803482 0.13187416 -0.09561106
000160 51 d8 09 be f2 88 84 3d e5 33 1d be 5c b5 09 be
       -0.13461424 0.06471433 -0.15351827 -0.1344809
000170 f5 43 1a 3d 3f 27 38 3d fa 87 07 3d 5b 4f 34 bc
       0.037662465 0.044959303 0.03308866 -0.011005248
000180 f9 ff 53 be 4d a3 44 be 8d f4 6e 3c eb 85 01 be
       -0.20703115 -0.1920292 0.014584673 -0.12648742
000190 8f 69 93 be dd 78 90 be 48 6f 0a be c7 58 3f be
       -0.28791472 -0.2821721 -0.13519013 -0.1868621
0001a0 1e 6d 11 bd 0b 92 b7 bd f2 76 4f bd 50 17 67 be
       -0.035504453 -0.08963402 -0.050650544 -0.22567487
0001b0 4c 8a 0c 3d 23 a5 0a bc 2b 3c 5c bd 67 5b e6 3c
       0.034311578 -0.008462223 -0.05376832 0.028119756
0001c0 46 b7 0c bd 37 45 26 be 4b ab 03 be 6c b2 63 be
       -0.03435447 -0.16237341 -0.12858312 -0.22236031
0001d0 23 7d 80 bd a1 b0 dd bd 12 82 1d 3d c5 11 ee bc
       -0.06273868 -0.10824705 0.038454123 -0.029061208
0001e0 da 06 d9 bc d7 33 c9 bd f2 6e c9 3d 6e 69 d4 bc
       -0.026492525 -0.09824341 0.09835614 -0.025929179
0001f0 92 6d 3f bd e5 c1 e7 bd b1 a2 50 3c 89 36 28 3d
       -0.046735354 -0.11316279 0.012734101 0.041067634

weight f4 [64, 128]
000000 53 de 27 3e 00 55 91 be c6 43 22 3e 85 ee 83 be
       0.16393404 -0.28385162 0.15846166 -0.25767913
000010 4e 18 e9 be 0e ad 01 bd 5e 3c 94 be f6 b8 e2 3e
       -0.45526356 -0.03165918 -0.28952307 0.4428174
000020 81 b4 a0 3e d6 13 04 bc 2c e1 2f 3d ac d9 4c 3d
       0.31387714 -0.00806137 0.04293935 0.050012276
000030 e2 a5 e0 bb 29 ea d9 bb c6 ad 58 3e a5 56 08 3e
       -0.0068557123 -0.0066502285 0.2116004 0.13314302
000040 15 1f 25 3e 98 77 05 be 55 bb 18 be 14 35 ec bd
       0.16125138 -0.13033903 -0.14915211 -0.11533561
000050 7b bb b2 3c 4b 3c c2 be f0 2e 98 bd dc 76 ee 3b
       0.021817913 -0.37936625 -0.074308276 0.0072773527
000060 da a6 01 be b8 cd bf 3e 72 67 88 be 1a 08 b3 3d
       -0.12661305 0.37461638 -0.26641423 0.087417796
000070 c4 ec cd 3d f1 f9 84 3e 24 da 12 be 8e 85 0a 3e
       0.10054925 0.2597194 -0.14341027 0.1352751
000080 f3 03 56 3e 16 8b 1e be eb 9b 3b 3d cf 81 5a be
       0.20899944 -0.15482745 0.04580299 -0.2133858
000090 f2 35 47 3e 28 31 cd 3e 36 73 07 3d cf 82 b4 3d
       0.19454172 0.40076566 0.033068858 0.08814012
0000a0 b9 9b 1c be 46 8e 9a 3e 5e a6 9f 3e 38 af 03 bf
       -0.15293778 0.3018667 0.31181616 -0.5143924
0000b0 a7 6f 0f 3e 1c 86 16 3e 6b fb aa 3e fb 2d 42 3e
       0.14007436 0.14699596 0.33394942 0.18962853
0000c0 56 ed 10 be 28 5d 8f bd c7 6f 29 be d1 b9 46 3d
       -0.14153036 -0.0700019 -0.16546546 0.048517052
0000d0 ef c0 29 bd 7a 9f 4c be 11 38 b8 be 68 8e bd be
       -0.04144376 -0.1998271 -0.35980275 -0.3702271
0000e0 5f e7 78 3d 92 e2 86 3d ca 71 3c be 20 de 3c 3e
       0.060767528 0.065861836 -0.18402782 0.18444109
0000f0 2e 2f 4d 3e 05 00 80 be 01 b3 61 be 0c 8c 49 3e
       0.20037529 -0.25000015 -0.22040941 0.1968233
000100 d6 75 44 3e 78 73 15 3e 88 40 1c be e0 b6 95 be
       0.19185576 0.14594829 -0.15258992 -0.29241085
000110 75 3b 6e be cd e2 1f bd 7d 94 e7 3d 8e 17 fd bc
       -0.23264869 -0.039034653 0.11307619 -0.03089502
000120 d6 5e 18 bd 7e e4 95 be f3 c1 71 be 9c 65 bc be
       -0.037199818 -0.29275888 -0.23609142 -0.36796272
000130 a7 d3 7c be a1 f5 ce 3b df 71 95 3e e7 22 57 be
       -0.24690114 0.0063159023 0.2918844 -0.21009408
000140 4b 5f 4a 3e 65 b9 71 3c 4f d5 06 3d 19 33 28 be
       0.19762914 0.014753674 0.03291827 -0.16425742
000150 6d 42 e8 bd fc e5 0b bd 57 3f 6b 3d 2f cb 8d bd
       -0.11340795 -0.034154877 0.057433452 -0.0692352
000160 eb 85 41 be 1f b5 c9 3c 22 aa 7b be 8b 7c 72 be
       -0.18898742 0.024622498 -0.2457662 -0.23680322
000170 c7 4a 83 3e cb 2a c5 be f5 a5 11 bd 5e 80 f2 3d
       0.25642988 -0.3850921 -0.03555866 0.1184089
000180 84 d4 55 3d b0 bd 3d 3e f8 88 74 3e df 41 f8 3d
       0.052204624 0.18529391 0.23880374 0.12121939
000190 ab c2 06 3e 92 c9 84 3d a0 d8 3a be 94 ff 83 be
       0.13160197 0.06483759 -0.18246698 -0.25780928
0001a0 bf d0 90 be 03 2a 81 bd b5 61 a8 3e 65 00 df bd
       -0.2828426 -0.06306841 0.32887045 -0.10888747
0001b0 59 f4 ad 3e f9 cc 32 be 08 61 99 be a2 4b 76 bd
       0.33975485 -0.17461003 -0.2995684 -0.060130723
0001c0 81 9c 9e bd fd 47 0f 3c 81 88 0e 3d 82 80 a9 be
       -0.077446945 0.008745191 0.03479815 -0.33105856
0001d0 43 74 50 3e 2a ef 80 3d 9d 50 35 be b1 cd 8c 3e
       0.2035685 0.06295617 -0.17706533 0.2750068
0001e0 d7 d0 92 3e 30 ce ca 3d af b5 b2 bd 77 5d f5 3d
       0.28674957 0.099026084 -0.0872606 0.11980718
0001f0 9a f2 ad be e1 2c 31 bd 67 82 f1 3d ab bd 68 3e
       -0.33974153 -0.04325569 0.117924504 0.22728603
000200 59 bf 88 bd 3e 95 e0 3d 70 46 46 bd 17 8d e7 3b
       -0.06677122 0.10965966 -0.04840702 0.0070663798
000210 fe d7 f5 be 28 80 40 be 05 4b 2f 3e 4d 6b 80 be
       -0.4801635 -0.18798888 0.17118461 -0.25081864
000220 74 b6 0f be 60 48 22 be 06 eb 77 3e b8 44 c0 3e
       -0.14034444 -0.15847921 0.24210748 0.37552428
000230 8b 79 90 3d 4a 3c 30 be 1c 8c ab 3e 5a 0b 25 3e
       0.070544325 -0.17210498 0.33505332 0.16117612
000240 9e ec c9 bd 27 e2 c5 3d 4d b9 dc 3e fe 93 a1 be
       -0.09859584 0.09662276 0.43110123 -0.31558222
000250 82 9d 2a be a4 af 55 be f7 8f b1 be 3b 29 cb bd
       -0.16661647 -0.20867783 -0.3468015 -0.099199735
000260 36 a3 8a 3e 98 f6 cc 3e 5b 0c b7 3e 97 e6 41 3e
       0.27077645 0.40031886 0.35751614 0.1893562
000270 19 7f 8d be 76 4e 45 3e 1c 16 89 be 6b 82 6a 3e
       -0.2763603 0.19268212 -0.2677468 0.22901313
000280 fa 30 a2 3d 96 61 1d 3e ef 51 20 3e ff 97 05 3e
       0.07919498 0.15369257 0.15656255 0.13046263
000290 cd e1 70 3e fd 23 10 3d 63 5a 8c 3d 29 82 4a 3e
       0.23523636 0.03519057 0.068531774 0.19776215
0002a0 00 17 88 be e8 ab 87 3d 12 14 7d 3d 15 b1 03 be
       -0.26580048 0.066245854 0.06178672 -0.1286052
0002b0 09 5b b4 3e 74 86 94 3e 14 a2 de 3e 06 86 da bd
       0.35225704 0.2900883 0.4348303 -0.10670094
0002c0 62 91 17 be 8e d5 57 be 2e ea a8 bd f7 d7 79 be
       -0.14801553 -0.21077558 -0.08247791 -0.2439879
0002d0 ea a9 be bd 8b 9c d3 3c ac 5d 84 3b 0b ab 0c be
       -0.09309752 0.025831481 0.004039487 -0.13737123
0002e0 38 0e f6 3e 1a 36 f0 bd 57 8c dd 3e cd 1b 06 be
       0.48057723 -0.11729069 0.43271133 -0.13096543
0002f0 c9 f0 c3 3e 66 64 a2 bd 90 7a bc be 16 64 49 3d
       0.38269642 -0.07929306 -0.36812258 0.049167715
000300 4c a5 0e bf f5 3d d4 3e 55 df be be a1 1e 8e 3e
       -0.55720973 0.4145352 -0.37279764 0.27757743
000310 02 18 f4 be 81 d1 09 bd 76 02 c2 bd 8b 26 a5 3d
       -0.47674567 -0.033647064 -0.09473126 0.08063992
000320 b1 a5 0d 3e 9b b7 c0 be fc 7c b5 3d 2f 24 cd 3d
       0.13832738 -0.3764008 0.088617295 0.10016667
000330 84 51 63 3e 69 90 99 bd 04 ea ba 3e ad ff 8f be
       0.22199064 -0.07498247 0.36506665 -0.28124753
000340 40 2f 13 bf fb 28 38 3e bf d2 3b 3e 21 2d aa 3e
       -0.5749397 0.17984383 0.18342112 0.33237556
000350 a6 d2 ba ba e5 a3 25 be 62 f6 ac be 13 e9 95 be
       -0.0014253452 -0.16175802 -0.33781725 -0.29279384
000360 28 d8 98 bd 15 0a 99 3d 3e a8 95 be f6 2b 70 3c
       -0.074631035 0.07472626 -0.2922992 0.014658919
000370 e6 05 81 3e 2f dc 82 be ab 86 23 be 00 68 7d be
       0.25199813 -0.25558612 -0.1596934 -0.24746704
000380 b7 c7 0a 3f 2d 3f 2b bd 88 41 3b 3e 00 c3 2f be
       0.5421099 -0.041808296 0.18286717 -0.1716423
000390 89 85 9e bd 8d 9c a7 bd 6a ed d7 3e e4 b7 9d 3d
       -0.077403136 -0.081841566 0.4217332 0.0770109
0003a0 b1 8d cf 3e 30 78 a2 3e a8 23 14 3e 07 5e 16 3e
       0.4053779 0.3173232 0.14466727 0.14684306
0003b0 29 de d7 3e 7a 2a 4c 3e 85 bd a5 3e ce fc 66 3c
       0.42161682 0.19938079 0.32371154 0.014098359
0003c0 57 9a 23 be 41 4f e9 bd e9 4c ad bc 39 1f 3f be
       -0.15976845 -0.113920696 -0.021154838 -0.18664254
0003d0 6f a8 6d 3d bb 3d 22 be e2 59 11 3e 39 f0 99 bb
       0.05802196 -0.15843861 0.14194444 -0.004697826
0003e0 49 57 d8 3d 22 67 0f 3f 7f c9 4b be fd 63 b2 3e
       0.10563523 0.56016743 -0.19901083 0.3484191
0003f0 69 88 15 be 8b 6e 7e 3e 34 f7 26 be 05 c7 b8 bc
       -0.14602818 0.24846856 -0.16305238 -0.022555837

bias f4 [64]
000000 6a 84 2d bd b2 f5 08 bd 90 ba c9 bd 12 e1 40 3d
       -0.042362608 -0.03343744 -0.09850037 0.047089644
000010 9a 45 40 3e 2b 85 9e 3d 44 71 ad bd 03 be 0e be
       0.18776551 0.077402435 -0.08468869 -0.13939671
000020 7e e6 2e be d6 f2 1e 3e 0a 2d a5 3d 76 a1 14 bd
       -0.17080113 0.15522322 0.08065231 -0.036286794
000030 8c 39 e6 bd e3 3e 87 3d a6 de 16 bd ce ae bc bd
       -0.11241445 0.066037916 -0.036833428 -0.09213029
000040 4e e3 1e be 63 ee 71 3d a6 11 c4 3c a2 d3 7a 3c
       -0.15516397 0.059065234 0.023934197 0.015309246
000050 6f 22 b3 bd 59 1a 9f bb 1d 84 1a 3d 44 e3 22 be
       -0.08746802 -0.004855436 0.03772365 -0.15907007
000060 e7 4b 80 bd f0 b9 0f be de c3 32 ba 73 a6 50 bd
       -0.06264477 -0.14035773 -0.00068193476 -0.05093999
000070 8d 54 2e be ba b3 2b 3c 3d 65 dc 3c ac c3 83 3d
       -0.17024441 0.010479862 0.026903743 0.06433806
000080 97 8e a2 3d 49 10 59 be 7c 3a f6 bc f1 2c 14 3d
       0.07937353 -0.21197619 -0.030057184 0.036175672
000090 cd 35 b3 bd 00 a6 97 bd 4b 00 4d 3b 4f 43 1a 3d
       -0.08750496 -0.07404709 0.0031280692 0.037661847
0000a0 cc 91 7b bd e4 d0 57 bc b1 6c b2 bd e9 e2 01 3e
       -0.06141834 -0.013172362 -0.087121375 0.12684216
0000b0 51 cb 82 3d 6e 36 84 bd ba e0 a2 bd 03 bd cb bd
       0.06386436 -0.06455694 -0.079530194 -0.099481605
0000c0 b4 0d 05 bc 29 97 9f bd 0e 9b c9 bc 43 57 38 bd
       -0.008120943 -0.077925034 -0.024610069 -0.045005094
0000d0 f3 b6 1c be c0 2c 19 be 56 e5 ea 3c dc bc 3a bd
       -0.15304165 -0.14958477 0.028673809 -0.045590267
0000e0 6e 03 6a bd cd c7 c8 bc 17 36 1a be cc c2 85 bd
       -0.057132177 -0.024509335 -0.15059696 -0.06531295
0000f0 02 ab 7c bd 00 74 ab 3c a2 4c a5 3b b2 b5 8f 3c
       -0.061686523 0.020929337 0.0050445357 0.017542694

weight f4 [1, 64]
000000 95 10 45 3f b6 e4 7a bf 40 c3 cb be ce e3 62 3f
       0.7697843 -0.98005235 -0.397974 0.8862885
000010 83 5d e5 3e fd 07 e9 3e 04 5e 02 3f 66 77 3b 3f
       0.44797906 0.45513907 0.50924706 0.7322906
000020 44 d7 4c bf 53 20 38 3f d7 bf f8 3e b7 fc 9f be
       -0.8001597 0.7192432 0.48583862 -0.31247494
000030 91 58 81 bf d6 86 3c 3f f6 a4 89 3f 6c 4a 30 bf
       -1.0105153 0.73643243 1.0753467 -0.6886356
000040 df f2 79 3f 44 24 b0 be e8 c7 4a 3f 7e 59 42 3f
       0.97636217 -0.34402668 0.7921128 0.75917804
000050 0e 10 58 bf dc 2d 87 be 2f c0 5a 3f 60 1c 30 bf
       -0.843995 -0.26402175 0.854495 -0.68793297
000060 d9 05 0f bf 29 b3 c2 be f1 97 12 3f 66 03 08 bf
       -0.558683 -0.38027313 0.57263094 -0.53130186
000070 4b 5a 3c bf b5 0b 5d 3f d4 a7 76 3f d6 ed 4b 3f
       -0.73575276 0.8634599 0.96349835 0.79659784
000080 de 3d 5d 3f 99 39 37 bf 02 19 60 be 79 a0 82 3f
       0.86422527 -0.7157226 -0.2188454 1.0205222
000090 29 d7 01 bf ca 56 ea 3e e1 1b 29 3f 0a 91 8b be
       -0.50718933 0.4576934 0.66058165 -0.27259094
0000a0 a8 9d dd be 1e 09 77 3f 70 60 3b bf 2f d5 8c 3f
       -0.43284345 0.96498287 -0.73194027 1.1002558
0000b0 16 69 1f bf 6a ef 25 bf 50 b4 49 bf 25 c6 f2 be
       -0.62269723 -0.6481844 -0.7879076 -0.47416797
0000c0 cd 06 28 bf a5 85 58 3e 0c ff 50 3f d5 90 01 bf
       -0.6563538 0.21144731 0.8163917 -0.5061162
0000d0 7d a1 6b bf f3 01 3f bf f3 95 0a bf f7 bb 41 bf
       -0.92043287 -0.7461235 -0.54135054 -0.75677437
0000e0 a6 b8 e6 be 2b 78 a0 bf a2 f2 96 be b5 af de be
       -0.4506275 -1.2536672 -0.2948199 -0.4349343
0000f0 5f 7e 64 3f 3d e7 6d 3f a7 80 fb 3e 44 e1 c2 3e
       0.89255327 0.92930967 0.4912159 0.3806249
