models/simple_tag/value_model2.pkl (torch_old, 80847 bytes, 5 tensors)

weight f4 [128, 82]
00000000: 8a34 343d ecce c33e 76de 28be 71b8 ca3c
00000010: 83df 1c3e 9c45 d63d 4312 e43e 6c24 7a3d
00000020: f249 963d 4a54 1dbd 440a 4539 40ef febd
00000030: 2697 953e b864 db3e d7bb b1be 05ce 93be
00000040: f215 7cbe 422e 2abe d273 143e f250 74be
00000050: a49c cebd 0f14 af3e 8771 5e3e de2d 653e
00000060: 7340 45be 3b4b a63d 8414 28be 9b24 d43c
00000070: c69b 4fbe efe9 d83e 5f09 b1be 51d7 f23d
00000080: 33ff 96be b4aa 5b3e d512 393e 61a6 ee3d
00000090: c10e 48be 96d4 693d 4c64 bcbd c889 37be
000000a0: e9fb ff3c 6f25 52be 6a21 313e d739 fd3d
000000b0: 6733 65be e7a5 81bd 0d42 c2be 9df0 56be
000000c0: b359 5fbe 3b2e 93be 6d16 fc3c d271 0f3f
000000d0: d351 c03d 8395 523e 8627 b73e 8aaa 47be
000000e0: 04aa c53c 8716 0a3c fcd8 4b3e e73a b9be
000000f0: e706 843d eccf 8ebe 325b 41bd 62d3 493e
00000100: fb00 a13d b279 693e 7a27 56bd af14 39bd
00000110: ee3d 73bd 6aa3 ee3d 6c97 59be 6591 4abd
00000120: af1f c83d 96f3 8dbb 3225 6f3e 13ae af3e
00000130: e0d1 c73d aeb9 b4bd 3054 bdbe b7bc c03e
00000140: 06f0 94bd db6f 793e b822 35be e677 35bd
00000150: b197 14bf e064 efbe fdfb 473d 7698 773e
00000160: 57fd 973d 0462 843d c688 233e 0e11 943e
00000170: 1c7d 7b3e f26b b83c e5db 8d3e 2579 9d3e
00000180: f2d4 4ebe eb10 ffbd d15e 31be 223d 873d
00000190: eb5b d5be eea2 be3d dee7 e33d 91db 623e
000001a0: f2be 3b3e edcc fa3d 675a 3e3d 0ed8 77bd
000001b0: 66be 283e 5eb7 433e 0db3 3a3d 0849 fc3d
000001c0: 9563 84be cad4 413d 3665 b13d 1ed3 463e
000001d0: 3d2b 52be df3d d43d 8eda 4abd bfac 6e3d
000001e0: 3bae b33d 5e76 0ebc 907a 3abd 9b7c 94be
000001f0: 3660 b93d ec5a f1bd 4bd3 9c3e d760 0c3d
00000200: 250d 543d 77f5 4f3e 1d3d a83d 21be 043d
00000210: 4b32 e8bc ae9e 003e 8faf 5fbe e9ad 01be
00000220: e21d 23be 6d26 b0bd 0239 abbe ed7a ddbe
00000230: f280 80bd 53f0 593d 783e 4bbd 8158 133e
00000240: ed50 8e3e 27e5 d4bc 8e56 bb3e 8072 283e
00000250: a870 7b3e 1459 2b3e 4979 693e b073 a63e
00000260: 5330 143d 53df b13c c1b8 863e 0245 133d
00000270: 5002 ff3c 1ae6 833d 6af0 773e 9711 e33d
00000280: 2af2 febc 9fa7 a23e 9fdb 823e eb7e 353e
00000290: 36d3 cbbe 7040 473e e229 05be f946 cd3e
000002a0: c817 033c b772 5fbe 416c 73be 81f3 653e
000002b0: 80b5 55bd 9a08 803d fa7b 25bc b8cc 63be
000002c0: 46af 07bd 26b2 b3be 3913 95be a5ba d73e
000002d0: 43e7 d9be 291a 1e3f 1379 75be 7fd6 933e
000002e0: 5d2e ae3d 6242 d4be ac9b 05bf 37ed 5e3e
000002f0: 08dc 3abe b2e9 d1bd dc5e 743e ff69 92be
00000300: d7d8 9e3d a00a 47be d4c8 51be 8d0f 853e
00000310: 36f3 96be 6cce fabd d0e9 39be 0dce 92bd
00000320: d9ee 8b3c 68cc 31be f1e6 d6be 7e18 343f
00000330: bd03 7fbd 3273 9f3e 8f71 dc3a 5cc7 933d
00000340: 5b8a 753e d662 b53d 3e17 fcbd aab7 1f3e
00000350: 51d7 c1bd 1b35 963e b7db 03be 6585 383e
00000360: 2570 68be 991c 343d 5b6e a2be d6f3 2f3f
00000370: f4e1 8abe 140d 823e 9a67 45be 22c5 863e
00000380: 5e2b da3d 4c59 5abe c834 2a3e 2373 76bd
00000390: a6f7 b53d 1c1f 3a3e 38a4 babc f56e 37bd
000003a0: 6f2c 44bd aea4 7ebc d7a1 bc3d c542 88bd
000003b0: b2ce cbbd 72ff 63bd 45e6 7c3d c936 9c3d
000003c0: e73f 92bb 714e 203d da86 52bc 15ee d33e
000003d0: 645c 903e 0131 d3bd cefe 903e 6299 423d
000003e0: 5587 c73e a812 9fbe 0189 e93d c667 a73e
000003f0: 174c 4a3d 6df2 ef3d 09d2 22be aefd 99bd
0.043995418 0.38243806 -0.16491112 0.024746152 0.15319638 0.10462496 0.44545183 0.06106989
0.07338323 -0.038410462 0.00018791208 -0.12447977 0.2921688 0.4285028 -0.34713623 -0.28868118
-0.24617746 -0.16619208 0.14497307 -0.23859003 -0.100884706 0.3419499 0.21722995 0.22380778
-0.19262867 0.08119818 -0.16414076 0.025896361 -0.20274267 0.42365977 -0.34577462 0.118574746
-0.29491577 0.21451837 0.1807359 0.11652828 -0.19536878 0.057087503 -0.091988176 -0.17923653
0.03124805 -0.20522092 0.17297903 0.12364548 -0.2238289 -0.063304715 -0.37941018 -0.20990224
-0.21811561 -0.2874621 0.030772412 0.5603305 0.09390607 0.20564847 0.3577234 -0.19498649
0.024128921 0.0084282225 0.19906992 -0.3617775 0.06446629 -0.27893007 -0.04720611 0.19709542
0.07861515 0.2280033 -0.05228374 -0.04518574 -0.059385233 0.116522625 -0.21249169 -0.049455065
0.09771668 -0.004332016 0.23354033 0.34312496 0.09756827 -0.08824478 -0.36978292 0.37643978
-0.07272343 0.24359076 -0.17689025 -0.044303797 -0.5804396 -0.4675665 0.0488243 0.24179253
0.074213676 0.064640075 0.15970144 0.28919262 0.24559444 0.02251241 0.2770683 0.30756488
-0.2019842 -0.12454399 -0.17321326 0.06603457 -0.4167169 0.0930842 0.111282095 0.2215407
0.18334559 0.12246118 0.046472933 -0.06050878 0.16478881 0.19112918 0.045580912 0.12318617
-0.25857225 0.047322072 0.086618826 0.19416472 -0.20524307 0.103633635 -0.049524836 0.058270212
0.08773466 -0.008695213 -0.04552704 -0.29001316 0.09051554 -0.1178492 0.30629954 0.03427204
0.051770348 0.20308481 0.082147814 0.032407884 -0.028344294 0.12560531 -0.21844314 -0.12663998
-0.15929368 -0.08601079 -0.3344193 -0.43257847 -0.06274594 0.053207707 -0.04962012 0.1438923
0.27796116 -0.025988175 0.36589473 0.16449928 0.24554694 0.167332 0.22800173 0.32510138
0.036178898 0.021712935 0.2631283 0.035954483 0.031129032 0.06440373 0.24212804 0.11087339
-0.031121332 0.3176851 0.25558183 0.17724197 -0.3980958 0.19458175 -0.13004258 0.4009321
0.008001275 -0.21821104 -0.23771764 0.2245617 -0.052175045 0.062516406 -0.010100359 -0.22246063
-0.03312614 -0.35096854 -0.29116228 0.42134586 -0.4255925 0.6175867 -0.23971967 0.28874585
0.08504937 -0.41456896 -0.5219066 0.21770178 -0.18247998 -0.10249652 0.23864311 -0.28596494
0.07756203 -0.19437647 -0.20486766 0.25988427 -0.2948243 -0.12246403 -0.18155599 -0.07168207
0.017081665 -0.17363131 -0.4197307 0.7034987 -0.062259424 0.31142575 0.0016818511 0.07215759
0.2397856 0.08856742 -0.123091206 0.15597406 -0.094648965 0.2933739 -0.12876783 0.18019636
-0.2269903 0.043972585 -0.3172482 0.6873144 -0.27125514 0.25400603 -0.19277802 0.26322275
0.10652803 -0.21323127 0.16621697 -0.060168397 0.08885126 0.1817593 -0.022783384 -0.04478355
-0.047893938 -0.015542192 0.09210556 -0.0665336 -0.099515334 -0.055663534 0.06174304 0.07627637
-0.004463184 0.039137308 -0.012849534 0.4139258 0.28195488 -0.10312081 0.283194 0.04750956
0.38970438 -0.3106892 0.114030845 0.3269636 0.04938897 0.11716161 -0.15900435 -0.07519089

bias f4 [128]
00000000: 2e7a 3b3e 01ce 7b3e a4f0 ae3d de9b 7d3d
00000010: 621c f8bd f82e 113e 448f 15be 8ee1 12be
00000020: 99c4 043e 13b3 07be 0c00 8fbd d0c7 2e3b
00000030: e6ed 1ebe 7874 9bbc 5fba 4bbd f83c 143d
00000040: 99c4 793e 0be0 523e de76 893d d884 30bd
00000050: 8fdb 91bd f73e 12bd a17c ebbc 2dff 843e
00000060: 844f 313e d697 92bd 9ebb 1dbe cd3d c7bd
00000070: bfc7 643e 4b9c d83e c731 553e 2bc6 a1bd
00000080: 93d3 743e 5c91 543c c319 873d 8c4a 33be
00000090: 3cdb 843c e66c 353d c6b1 a43c c9d8 21be
000000a0: d49b 65be 500e ccbd bd7e 473e fffd c1be
000000b0: 9507 f83d bdbc a3bd f45a 6d3e 85e5 03be
000000c0: 720f b53d 65dd 933e 87d2 563e eb48 39be
000000d0: 2715 8e3e fa78 1b3e 2185 14be 3856 22bd
000000e0: 1c63 be3e 4654 c0bd a2c2 123e 6895 b63e
000000f0: 14ad 33be fae7 f4bd d43f 803e ea3c 5cbe
00000100: c268 31be 890b 7c3e 1cdb b6bd 6fb8 983e
00000110: 662e 933e bcee a5be 3d2e 683d 6bf9 f6bd
00000120: 36a8 c2bc 7725 51be 44b4 73be 1492 b2bd
00000130: a9af ebbd 70b4 d13e 07cc 923d 9e4a 7a3e
00000140: 63bd a3be b859 b93c 2231 87be 663e 9b3d
00000150: 9139 8abe 82f2 30bc 3095 92bc 03e4 09be
00000160: 2a73 aa3d ec40 4cbd c740 37be c39d e93d
00000170: 57a1 2dbe b8e7 f7bd 9b0a b13e 2156 6abe
00000180: de33 da3e 4d83 1cbe 619f a3bd ff2a 833e
00000190: 4661 16be 96ba 27bc 2b19 4cbd 549e 4c3e
000001a0: cf71 d23d a8e8 bb3d be50 193e 58cc a93e
000001b0: 4c32 163b b1db d03e 965d 9e3e 3702 00be
000001c0: a951 54be fd3b 91be cc62 91be 4874 693e
000001d0: c4ac 80be c953 c8bd 3d80 50be efb7 63bc
000001e0: 60bc bfbd 5040 e0bc d2df 363d 79d4 113b
000001f0: 05f8 92be 3396 453e 7630 92be 62c8 5abd
0.18308327 0.24590303 0.08541992 0.061916225 -0.121147886 0.14178073 -0.14605433 -0.14343855
0.12965621 -0.13251905 -0.06982431 0.002666939 -0.15520439 -0.018976435 -0.049738284 0.036190957
0.24391402 0.20593278 0.06712125 -0.04309544 -0.071219556 -0.03570458 -0.028745951 0.25975934
0.17315489 -0.07157867 -0.15403602 -0.097285844 0.22341822 0.42306742 0.2081977 -0.07899126
0.23908834 0.0129741095 0.065967105 -0.17508906 0.01621782 0.044293307 0.0201043 -0.15805353
-0.22422725 -0.099636674 0.1948194 -0.37889096 0.12110821 -0.07994983 0.23179227 -0.12880524
0.088408366 0.28879848 0.20978747 -0.18094222 0.27750513 0.15182868 -0.1450391 -0.039633006
0.3718499 -0.09391074 0.14332059 0.35660863 -0.17546493 -0.119583085 0.25048697 -0.21507612
-0.17325118 0.24613775 -0.089285105 0.29828212 0.28746337 -0.32408702 0.05668472 -0.120592915
-0.02376185 -0.20424448 -0.23799235 -0.087192684 -0.11508114 0.40957975 0.071678214 0.24442527
-0.31980428 0.022625789 -0.26404673 0.07580261 -0.26997045 -0.010800006 -0.017893404 -0.13465886
0.08322747 -0.0498666 -0.17895804 0.11407044 -0.16956078 -0.12104744 0.34578404 -0.22884418
0.42617697 -0.15284462 -0.079893835 0.2561874 -0.14685544 -0.010237357 -0.04982869 0.19982272
0.102756135 0.09175235 0.14972207 0.33163714 0.0022918163 0.4079261 0.30930775 -0.12500845
-0.20734276 -0.2836608 -0.2839569 0.22798264 -0.2513181 -0.09781606 -0.20361419 -0.013898834
-0.093621016 -0.027374417 0.044647045 0.0022251888 -0.2870485 0.19295578 -0.28552598 -0.053413756

weight f4 [64, 128]
00000000: 30d2 e8bd e7e6 20bd 84bd 383e 127c 24bd
00000010: 618f cf3d f7bd 713e 080e bdbe 4029 2bbe
00000020: d6fc 273e 4a1b 4fbe 175a a73c b3b5 5f3d
00000030: 7bce 1e3e 7aa7 483e af73 77bd ecf4 493d
00000040: 2f91 08be 9a1c 67be 3b19 28bd cbcc 7f3e
00000050: 472a ae3d 80f8 e1bc 939a a7be 9286 663d
00000060: a193 d1bd 03bd efbd faf2 c73c 1849 7ebe
00000070: 64f2 5d3e 6b16 87be 07c8 63bb f270 873e
00000080: 797d 8bbe 141e d43d 2920 96bd 42b5 a3bd
00000090: 901e e1be 600b ffbd 4c52 1bbf 0961 00be
000000a0: c3af af3d d183 033e 691a 1bbe 6360 ca3e
000000b0: 9a77 e7be 5cf0 893c 8b42 a23d 0e4f 023e
000000c0: f122 45be ea98 75be 04a4 87be b85b 99be
000000d0: 00c8 363e a3f1 97be 3b00 863e ba62 433d
000000e0: cf0f c63d fd7c f1bd d811 21be 6b02 4ebe
000000f0: 4d97 8bbd 82f2 85bd 11f5 f0bd 2de5 eabd
00000100: 207c 57be e6aa 463e bb9d 083e a4af 813d
00000110: 8bdf 0fbd 02d4 90bd 3549 1abe 3a2d e9be
00000120: 1692 f2bd 65d2 90be c146 193e d1a4 21bd
00000130: eaab bf3e 7c32 edbe d7ca 93be d241 513d
00000140: f425 543e 80ad 8c3d 51a0 273e caa4 adbe
00000150: a610 1fbf 0a3a 783e 3e41 c03c f8db 85bd
00000160: 2107 8cbe 8fbe f3bd 54f3 d6be d5e5 033e
00000170: ce6f abbe ed99 073d 6f47 513e 816f 3b3e
00000180: f6d5 203d 1892 1a3d d7c9 d0bd eaef e53c
00000190: c59a 473e 2c0a 84bd 3f82 e8be f6c2 1dbf
000001a0: 658d a73e 32ca 34be 6e8e c33e 6e4d 893d
000001b0: 9f8c 0abe 4c85 cebd 1934 19bd f383 c33e
000001c0: 037c 643e e559 3c3e ac67 7dbd 6c1e 713d
000001d0: 3c7b fc3d d2c1 b5bd ac26 abbd 2816 cdbc
000001e0: 6b69 cd3d 395b 9f3e 8b0b febe 5785 ac3d
000001f0: 2908 263e 02e3 5fbe a5da 2b3e 1c11 e9bd
00000200: b534 4d3b b8c9 f33d a869 a9be 88a0 cabe
00000210: 3220 1f3d 9432 aa3d 3fa2 573c 5b2e efbd
00000220: 627a b6bd aa6b 8d3e 7eec 0bbe 9e2a 663e
00000230: fecd e6be 90e7 883e ff44 3dbd 6b26 603e
00000240: 443d a2bb bb85 51be a948 a3be 1ae8 72be
00000250: 7564 f1be ac87 18bd b0a6 143e a565 973e
00000260: df57 843e bda6 c33e 4aed cb3e db39 11be
00000270: c643 7d3e ca50 2abb 5c88 b43d cbbc a83c
00000280: 0579 273d eb42 033d d854 653e fb41 993e
00000290: 0963 fcbc 7982 01bf 44c5 993c 1d22 8a3e
000002a0: 7010 8abe 5d83 40be e32e 753e 9027 b9be
000002b0: 4e3c b4be f3c2 c13d 11ed 363e 5292 b0be
000002c0: 2e9f bc3b 3c1d 4f3e e401 32be e1f0 47bd
000002d0: cddf 02bd 0952 4cbe dc9c 8abe 72dc b03e
000002e0: dc84 e0bd df14 493e d12b 2a3e c920 453e
000002f0: bfbe 89bd 4fcc b0bd c8bf 143d c03b 193e
00000300: 630a d73d 12da e1bd b233 a93e 9449 f03c
00000310: 1193 983e 605d 6ebe c1f3 cf3d 50eb 853d
00000320: ffdf 01be ed4a a1bd 71f5 7cbd 8da6 0fbe
00000330: 229e 373e f1ee 623e 9c06 68bf 57b1 39be
00000340: 51eb 483e 7b2c 44bd 2bef adbd 49c1 a73e
00000350: ef37 913e 05ed fc3d 39ae 88be effd c3bd
00000360: 49e8 403c 0cf0 74bd a5f2 1b3e 8710 25bd
00000370: 8c17 e13a a289 843e ae87 4d3c ccb8 a9be
00000380: d812 2dbd 8654 63be 6706 0f3d b4c0 e93d
00000390: 3117 9bbd e155 413d 6862 443d c2f0 0abe
000003a0: 1c0c 31bc 6a7d 9dbe 72f9 d3bc ff4c 413d
000003b0: e0aa 983c 37c9 09be 885f a23e 99b0 50be
000003c0: 8dfc 88be b033 b6be ccae 4dbe c75e 0f3b
000003d0: 36ce b63d 8fea 02bf 204a 343d 1dcb b63e
000003e0: 2292 023e a4ae b13c 030d 883c 3121 8f3e
000003f0: 628a 883b d1a2 613c 8993 7cbe 566f 98be
-0.11368215 -0.039282706 0.18041044 -0.040157385 0.10134769 0.23607622 -0.36924767 -0.16714954
0.16405043 -0.20225254 0.0204287 0.05461664 0.15508454 0.19595137 -0.06041306 0.04930584
-0.13336633 -0.22569504 -0.041039687 0.24980466 0.085041575 -0.027584314 -0.32735118 0.05628068
-0.10233236 -0.11705973 0.024407852 -0.2483257 0.21674496 -0.2638429 -0.0034756677 0.26453358
-0.27244166 0.103572994 -0.07330353 -0.079935566 -0.4396863 -0.124533415 -0.6067245 -0.12537016
0.08578446 0.12843253 -0.15146793 0.39526662 -0.45208436 0.016838245 0.07922848 0.1272547
-0.1925161 -0.23984113 -0.26492321 -0.29952788 0.17849731 -0.29676542 0.2617205 0.047701575
0.09670984 -0.11791418 -0.15729463 -0.2011811 -0.06815968 -0.06540395 -0.11765493 -0.11469493
-0.21043444 0.1940113 0.1334142 0.06332329 -0.035125297 -0.07071687 -0.15066989 -0.45542318
-0.1184427 -0.28285518 0.14968397 -0.03946382 0.37435848 -0.4632758 -0.28865692 0.05108816
0.20717603 0.0686903 0.1636975 -0.33914787 -0.6213478 0.2424089 0.02346861 -0.06536096
-0.2734919 -0.119015805 -0.4198252 0.12880643 -0.33483738 0.03310578 0.20437406 0.18304254
0.03926655 0.037736982 -0.10194748 0.028068502 0.19492634 -0.06447253 -0.4541187 -0.6162561
0.32725063 -0.17655256 0.38194603 0.06704222 -0.13530205 -0.10084018 -0.0374032 0.38186607
0.22312932 0.18393667 -0.061866447 0.058866903 0.123281926 -0.08874859 -0.083569854 -0.025034979
0.100298725 0.31124285 -0.49618182 0.0842387 0.1621405 -0.2186394 0.16782625 -0.113802165
0.0031311933 0.11903709 -0.33088422 -0.395756 0.038849063 0.08310428 0.013161241 -0.116787635
-0.089100614 0.27621204 -0.13664433 0.22477195 -0.45079035 0.26739168 -0.046208378 0.21889655
-0.004951151 -0.2046117 -0.31891373 -0.23721352 -0.47146955 -0.03723876 0.14516711 0.29569736
0.2584829 0.3821315 0.39829475 -0.14182226 0.24732885 -0.0025988095 0.08815071 0.020597836
0.040886898 0.03204624 0.22395647 0.29933152 -0.030808942 -0.5058971 0.018770821 0.2697915
-0.26965666 -0.18800111 0.23943667 -0.36162996 -0.3520226 0.09461012 0.17863871 -0.34486634
0.0057562804 0.20225996 -0.17383534 -0.048813704 -0.031951714 -0.19953169 -0.270728 0.34543186
-0.10962841 0.19636868 0.16618277 0.19250788 -0.06725835 -0.08632719 0.03631571 0.14964199
0.10500028 -0.11027922 0.33047253 0.02933196 0.29799703 -0.23277807 0.10153914 0.06539023
-0.12683104 -0.07875619 -0.06175751 -0.14028378 0.17931417 0.22161461 -0.90635085 -0.18134056
0.19621016 -0.047893982 -0.08492883 0.32764652 0.28362986 0.123498954 -0.2669542 -0.09569918
0.011774131 -0.05979924 0.1522928 -0.040298965 0.0017173155 0.25886256 0.012544556 -0.331488
-0.0422543 -0.22200212 0.034918215 0.11413708 -0.07572783 0.04720104 0.04794541 -0.13568404
-0.01080611 -0.30759746 -0.02587578 0.04719257 0.018636167 -0.13455664 0.3171351 -0.20379867
-0.2675518 -0.3558631 -0.20086211 0.002187656 0.0892605 -0.5113916 0.044016004 0.35701838
0.12751058 0.02168972 0.016607767 0.2795501 0.004166887 0.013771729 -0.24665655 -0.29772443

bias f4 [64]
00000000: 73c7 60be 2c2d 053e 0d4d e1bd 8b98 6cbd
00000010: a246 833e 4153 0c3d f83e a43e 3991 d63e
00000020: 1731 3f3e a882 633e 5cae 683e 76ca 5c3e
00000030: 37b1 9ebd 32e3 103d b4da b63e 3dcd 5bbd
00000040: 6523 823e 206b 993e 3c3f a53e a160 7e3e
00000050: a8b1 0b3d 38c3 803e bc90 7abe 6131 33be
00000060: ada4 1fbc cc35 85bd 8679 443d 5322 693e
00000070: bf0f 3cbe 821f 24bd 2ca5 27be 4b8c 193b
00000080: 17c9 893e a08f 7c3e 79e2 793e 9415 7a3e
00000090: e2bc b9bd 3b52 5f3e f011 90bd 4480 b93e
000000a0: d1fa ed3d 95c2 73bd 2fc9 8a3e d8a6 0cbe
000000b0: 8ebc 1cbe 42c6 7fbe d7c1 483e 06a2 d9bc
000000c0: d836 d0bd abac fabd 0469 ae3d 3d3e 8a3e
000000d0: 8061 11be e091 48be 9aa7 29be 0945 66bc
000000e0: 8518 973e a9c0 133e 73de f43c 72cf 233d
000000f0: 2498 f03c a654 a83e d1b1 833e 24b4 79bd
-0.21951084 0.13005513 -0.110010244 -0.057762664 0.25639826 0.034259085 0.3207929 0.4190767
0.1867107 0.2221781 0.22722763 0.21561608 -0.07748645 0.03537292 0.35713732 -0.053662527
0.2541763 0.29964542 0.32274806 0.24841549 0.034104973 0.2514894 -0.24469274 -0.17499305
-0.009743852 -0.065044016 0.047967456 0.22767 -0.18365382 -0.04006911 -0.16371602 0.0023429568
0.26911232 0.24664164 0.24402799 0.24422294 -0.0906923 0.21808712 -0.07034671 0.3623067
0.11620105 -0.05951174 0.27106616 -0.13735521 -0.15306303 -0.24977973 0.19605194 -0.026566517
-0.101667106 -0.12239965 0.08516124 0.2700061 -0.1419735 -0.19586897 -0.16567841 -0.014054545
0.29510894 0.14428963 0.029891228 0.039992757 0.029369421 0.32877082 0.257216 -0.06096281

weight f4 [1, 64]
00000000: 58c6 b3be 6942 043f e8ed 68be e568 30bf
00000010: 9e63 613f 158e 12bf 0686 cb3f d736 8e3f
00000020: ea26 913f dda6 053f 68c4 df3e 37d5 503e
00000030: 676e 0abf d5d3 e5be e7af c43e 93b8 c2be
00000040: d87b d93e 369a 463f b2b6 413e a7eb f13e
00000050: 41bc d23e 9ee3 c73f 76ee a3be 242d 67be
00000060: 3b13 e7be 8824 b6be 0f08 08bf edfc 773f
00000070: 539b 70be 06c9 3bbf 9b8e aabe 9bad 12bf
00000080: f1c0 a53e 44e4 a83f 08c4 373e a20d a63f
00000090: cd89 bcbe c23c c13e 8e6b a9be 7d19 643f
000000a0: eb7b ffbe 1e1a 63bf fd28 4f3f b72b 23bf
000000b0: 5981 cbbe 2519 a0be 4585 ad3e 4e3f 22bf
000000c0: d0ee bcbe d685 0ebf 5daf afbe 8efe 4b3f
000000d0: d4a4 0abf 06c3 d6be b30b f4be 8541 01bf
000000e0: 4165 c73f 91ed 9bbf ca6d 603f 9f62 65bf
000000f0: b715 8abf 4dc2 9d3f e4a0 de3e 38d9 acbe
-0.35112262 0.51663834 -0.22747004 -0.68910056 0.8804263 -0.5724805 1.5900276 1.1110486
1.1340001 0.5220774 0.43704534 0.20393835 -0.5407471 -0.44888178 0.38415453 -0.38031444
0.42477298 0.7757906 0.18917349 0.472501 0.4115925 1.5616338 -0.3201787 -0.22575814
-0.4513186 -0.35574746 -0.53137296 0.9687031 -0.23496751 -0.7335361 -0.33311924 -0.5729615
0.32373765 1.3194661 0.17945874 1.297291 -0.36823884 0.37741667 -0.3308987 0.8910139
-0.4989923 -0.88711727 0.8092192 -0.6373858 -0.39747122 -0.31269184 0.3389074 -0.63377845
-0.3690095 -0.5567297 -0.3431348 0.79685295 -0.5415776 -0.41945666 -0.47665176 -0.504906
1.5577775 -1.2181875 0.87667525 -0.8960361 -1.0787877 1.2324921 0.43482125 -0.33759475
